vehicle/autoware_raw_vehicle_cmd_converter/src/vehicle_adaptor/autoware_vehicle_adaptor/inputs_schedule_prediction_model/inputs_schedule_prediction_model.pth (torch, 189724 bytes, 19 tensors)

pre_encoder.0.weight f4 [64, 5]
0	0xb401e92e	-1.2098891e-07
1	0xb3ceab60	-9.6237954e-08
2	0x3280f8e1	1.5014338e-08
3	0x33c59998	9.201466e-08
4	0xb3c90aa8	-9.36173e-08
5	0xb4ec8474	-4.4054798e-07
6	0xb2ab18bd	-1.991827e-08
7	0x3489537b	2.557898e-07
8	0xb43daab6	-1.7664101e-07
9	0xb4575263	-2.0053407e-07
10	0x3432a483	1.6637391e-07
11	0x33c10d5f	8.989695e-08
12	0x34493129	1.8737468e-07
13	0xb482140e	-2.422898e-07
14	0xb406ad4b	-1.2542766e-07
15	0x33de4ad0	1.0351289e-07
16	0x3442f160	1.815547e-07
17	0x3463a48d	2.1200886e-07
18	0x32e4fb04	2.6656842e-08
19	0x31e568d7	6.676696e-09
20	0x33b90fc9	8.617605e-08
21	0x348c2aea	2.6108256e-07
22	0xb403c263	-1.2271043e-07
23	0x340d1fc7	1.3143209e-07
24	0x322df47b	1.0125514e-08
25	0x34831204	2.441376e-07
26	0x33c16498	9.005561e-08
27	0x347c6bfe	2.3508616e-07
28	0xb3bb73ce	-8.728931e-08
29	0xb3933bac	-6.856075e-08
30	0x33004199	2.9861983e-08
31	0x340d5818	1.3163697e-07
32	0xb3a445b0	-7.649521e-08
33	0xb2d2ef09	-2.4555918e-08
34	0x33aa221b	7.9224456e-08
35	0xb480d1f0	-2.3994608e-07
36	0xb36bed3e	-5.493097e-08
37	0xb45311a4	-1.9657324e-07
38	0x3308a4ef	3.1814974e-08
39	0xb2a853e0	-1.9595916e-08
40	0xb3f67efd	-1.1478367e-07
41	0xb3a8e685	-7.865041e-08
42	0x349943df	2.8547854e-07
43	0x32df5e26	2.600343e-08
44	0xb388d4f6	-6.371731e-08
45	0x34538522	1.969934e-07
46	0x34e36f55	4.236305e-07
47	0xb4617272	-2.0996393e-07
48	0xb3df111b	-1.0387358e-07
49	0x32beb360	2.2200481e-08
50	0x332e8c02	4.063987e-08
51	0x341aeb45	1.4427958e-07
52	0xb3c81840	-9.317637e-08
53	0xb37a5fbe	-5.8294738e-08
54	0xb41e1055	-1.4720838e-07
55	0xb307e40e	-3.163955e-08
56	0xb31364bb	-3.431772e-08
57	0xb18acc50	-4.0395562e-09
58	0xb3cffc9b	-9.685137e-08
59	0xb41af225	-1.443046e-07
60	0xb33d5b46	-4.4088004e-08
61	0xb38d8c21	-6.5913135e-08
62	0xb4ea1902	-4.3604092e-07
63	0xb43d6594	-1.763895e-07
64	0xb4036a89	-1.2239083e-07
65	0x32833dd9	1.5278532e-08
66	0xb3cfabbe	-9.6704284e-08
67	0xb4d186ff	-3.9027506e-07
68	0xb3818c3d	-6.03254e-08
69	0xb3b5bf37	-8.463251e-08
70	0x334d0722	4.773677e-08
71	0xb305aab6	-3.1121736e-08
72	0xb45b4167	-2.0419758e-07
73	0x3414c8dc	1.3856646e-07
74	0xb3eba7e2	-1.0973578e-07
75	0xb3c2e6ff	-9.075847e-08
76	0xb4333c16	-1.6692533e-07
77	0x338d493e	6.579147e-08
78	0xb2cfd066	-2.419274e-08
79	0xb238802e	-1.0739354e-08
80	0x349085ec	2.691953e-07
81	0xb3ba7567	-8.682655e-08
82	0xb2a6e866	-1.9430626e-08
83	0xb3ab71b5	-7.983491e-08
84	0x32bdbc87	2.2088228e-08
85	0x3411da46	1.3583585e-07
86	0xb451a4b6	-1.9524563e-07
87	0x34428644	1.8116503e-07
88	0xb28057c5	-1.4941074e-08
89	0xb388241c	-6.339562e-08
90	0xb3cd52ff	-9.561153e-08
91	0x3494a977	2.769045e-07
92	0x34552602	1.9850998e-07
93	0x340141bb	1.2037974e-07
94	0x3438e42c	1.7219344e-07
95	0xb265eeb0	-1.3383826e-08
96	0x33a05347	7.465729e-08
97	0xb482675d	-2.4289594e-07
98	0xb4625f03	-2.1082455e-07
99	0x34f05296	4.4763573e-07
100	0xb453009b	-1.9651127e-07
101	0xb3ef5a85	-1.114577e-07
102	0xb47f0b06	-2.3752736e-07
103	0xb2763c2c	-1.4332766e-08
104	0x30c8f4d0	1.4621495e-09
105	0x3361af7f	5.2546508e-08
106	0xb2eee678	-2.7811652e-08
107	0xb4d18a85	-3.903007e-07
108	0xb4819add	-2.41408e-07
109	0x3358a9f3	5.0445987e-08
110	0x3332caca	4.162829e-08
111	0xb4ccb862	-3.8132117e-07
112	0xb3c05e87	-8.957891e-08
113	0x3463b1c8	2.1205699e-07
114	0x330ba57e	3.2513974e-08
115	0x34df9ecf	4.1652535e-07
116	0xb45579d6	-1.9881494e-07
117	0xb3fc4d1c	-1.17486906e-07
118	0xb352c918	-4.907733e-08
119	0x3269db62	1.3612267e-08
120	0xb48d53be	-2.6324227e-07
121	0xb3caf4fa	-9.450919e-08
122	0x3492172d	2.7211482e-07
123	0x32d0f906	2.432763e-08
124	0x34e329fc	4.2312593e-07
125	0x342e92da	1.6258437e-07
126	0xb45c28b8	-2.050391e-07
127	0x334ebb73	4.8133597e-08
128	0xb4460a00	-1.8443825e-07
129	0x32a909bd	1.9678618e-08
130	0x30855c1a	9.7032e-10
131	0x32e1594b	2.6234053e-08
132	0xb444e36e	-1.8336661e-07
133	0x32eb3718	2.7382654e-08
134	0xb3f93b6c	-1.1605775e-07
135	0xb2031b53	-7.631416e-09
136	0xb405d7d6	-1.2465111e-07
137	0xb1e51e4d	-6.668222e-09
138	0x32e312ce	2.643483e-08
139	0xb39954a1	-7.1400116e-08
140	0x33e830db	1.08122286e-07
141	0x340cd1a1	1.3114779e-07
142	0xb48f9588	-2.6744624e-07
143	0x33b148d0	8.255449e-08
144	0x325a58e2	1.270948e-08
145	0x345e1a4d	2.068493e-07
146	0xb3beb5b2	-8.8806146e-08
147	0x3295ab0f	1.7423671e-08
148	0xb4d1158f	-3.894497e-07
149	0x33208444	3.7373198e-08
150	0xb3d1ae3e	-9.7640154e-08
151	0xb2df0ece	-2.596735e-08
152	0x33a49a4c	7.6649115e-08
153	0x33903666	6.7154176e-08
154	0x33f8dc80	1.15885086e-07
155	0xb364c020	-5.3260123e-08
156	0xb3e029d1	-1.0438419e-07
157	0x34827124	2.4296708e-07
158	0xb391d116	-6.790121e-08
159	0x33c06142	8.958388e-08
160	0xb39de411	-7.352367e-08
161	0xb4cf4e7c	-3.861386e-07
162	0xb314b5b6	-3.46242e-08
163	0x335c136f	5.1240416e-08
164	0xb44f738d	-1.9320414e-07
165	0xb3fc3221	-1.1743783e-07
166	0xafc75e07	-3.62647e-10
167	0xb3a508ce	-7.685013e-08
168	0x33f903e4	1.1595674e-07
169	0x33d573ce	9.93965e-08
170	0x33e723e3	1.07633035e-07
171	0xb45ca70d	-2.054987e-07
172	0x33dd74ee	1.0312384e-07
173	0x3395da22	6.978031e-08
174	0x335dbad8	5.1625506e-08
175	0xb395c0bb	-6.973411e-08
176	0x34901d08	2.6843213e-07
177	0xb3bc1b9b	-8.7594536e-08
178	0xb318191f	-3.5413105e-08
179	0xb38856b4	-6.348765e-08
180	0xb3947d33	-6.914561e-08
181	0xb419be94	-1.4318567e-07
182	0xb3b175c1	-8.263624e-08
183	0xb4fc7622	-4.702461e-07
184	0x32a302cf	1.8976975e-08
185	0x32ea084b	2.7244957e-08
186	0xb3f61e08	-1.146073e-07
187	0x348caf9a	2.62048e-07
188	0x330708dd	3.1440198e-08
189	0xb404a051	-1.2351781e-07
190	0xb39c815f	-7.2878485e-08
191	0xb3c4ffb5	-9.173474e-08
192	0x3449b6aa	1.8786037e-07
193	0x3435cdb0	1.6931767e-07
194	0xb4e14d2b	-4.1965663e-07
195	0x34344172	1.6787615e-07
196	0xb494b3e3	-2.7698033e-07
197	0x32120545	8.499517e-09
198	0x33e15569	1.0492915e-07
199	0x33b2ee1f	8.332085e-08
200	0x34049053	1.2345963e-07
201	0x33531192	4.9143246e-08
202	0xb3c94324	-9.372005e-08
203	0xb4667f8f	-2.1466825e-07
204	0x3468e26f	2.168906e-07
205	0xb435022e	-1.6857732e-07
206	0xb462316e	-2.1065873e-07
207	0x34838a13	2.4501114e-07
208	0x345ba346	2.0455363e-07
209	0xb2ce044c	-2.398351e-08
210	0xb3b72a9a	-8.529351e-08
211	0x331d988e	3.669316e-08
212	0xb4d99e89	-4.053475e-07
213	0xb42fb232	-1.6362972e-07
214	0x34e18988	4.2009583e-07
215	0xb4277b1f	-1.5597878e-07
216	0xb37f6e5e	-5.9472193e-08
217	0xb44378a2	-1.8204676e-07
218	0x348870e8	2.5414124e-07
219	0x3075f180	8.9473673e-10
220	0x342deb7f	1.6197554e-07
221	0xb2f8effe	-2.8980136e-08
222	0x3457ce2e	2.0098443e-07
223	0xb3a2518d	-7.558547e-08
224	0x305c087c	8.004759e-10
225	0xb4327613	-1.6620497e-07
226	0x343717ec	1.7051906e-07
227	0xb30e41da	-3.3121843e-08
228	0x34054c69	1.2414388e-07
229	0xb44b420c	-1.8929876e-07
230	0x32746f65	1.42279974e-08
231	0xb442018d	-1.8068222e-07
232	0xb3cc1364	-9.5030174e-08
233	0xb4805654	-2.390467e-07
234	0x34a9b922	3.1613405e-07
235	0xb3bc9a72	-8.7825256e-08
236	0x33dae642	1.01933e-07
237	0xb369944a	-5.4384408e-08
238	0x3445a6ea	1.8407778e-07
239	0x33a145cc	7.509843e-08
240	0x32067c3f	7.828077e-09
241	0x3327f4ac	3.9105245e-08
242	0x32bc61aa	2.1930493e-08
243	0x2eeb7a0d	1.0708243e-10
244	0x33bfd2ba	8.9324615e-08
245	0xb1d3783d	-6.1545777e-09
246	0x33a81a6f	7.827918e-08
247	0x343d7cc6	1.7647389e-07
248	0x338f2743	6.666098e-08
249	0x33925186	6.813484e-08
250	0x33266f79	3.875127e-08
251	0x34694acf	2.1727031e-07
252	0x34637e24	2.1186912e-07
253	0xb3b0a4fd	-8.22565e-08
254	0x34a01064	2.9814248e-07
255	0xb3903f70	-6.717062e-08

pre_encoder.0.bias f4 [64]
0	0xb2ccd68c	-2.384629e-08
1	0xb48018e8	-2.385998e-07
2	0x32ea09d3	2.7245653e-08
3	0xb26903aa	-1.3563218e-08
4	0x3486a24e	2.5077537e-07
5	0x33c13082	8.9960864e-08
6	0x344e521d	1.9215118e-07
7	0xb3ffafc2	-1.1906333e-07
8	0xb3c2dfc8	-9.0745345e-08
9	0x337b9f2e	5.8585265e-08
10	0xb3ef52d5	-1.1144372e-07
11	0xb3610258	-5.2389026e-08
12	0x3496c2e6	2.8081485e-07
13	0xb453803c	-1.9697558e-07
14	0x338d5d1b	6.58276e-08
15	0x341e7dfd	1.4760731e-07
16	0xb37ee474	-5.934676e-08
17	0xb43ff77a	-1.7878293e-07
18	0x33d2a0b4	9.808119e-08
19	0xb42e0b32	-1.6209086e-07
20	0x33d064b5	9.704073e-08
21	0xb4e24a16	-4.2149685e-07
22	0xb380b294	-5.992948e-08
23	0xb41ee57f	-1.4798387e-07
24	0xb39ed1f5	-7.395639e-08
25	0x3444a248	1.831296e-07
26	0x33bc53ee	8.769699e-08
27	0x341ad0c6	1.4418319e-07
28	0x33b53b00	8.439201e-08
29	0x32f3c09d	2.8376514e-08
30	0xb3d560aa	-9.9361685e-08
31	0xb39b0c5b	-7.2199974e-08
32	0x31191020	2.2273596e-09
33	0xb3d2849a	-9.803007e-08
34	0x3165ab15	3.3421135e-09
35	0xb2aadc0f	-1.9890676e-08
36	0x3401a63f	1.2074541e-07
37	0xb491996d	-2.7119987e-07
38	0x34036996	1.2238738e-07
39	0xb4218618	-1.5043076e-07
40	0x33517116	4.8764456e-08
41	0xb38337bc	-6.110301e-08
42	0x3473ffac	2.2724151e-07
43	0xb35c279b	-5.1258763e-08
44	0x337b2981	5.847824e-08
45	0x3389b265	6.4120094e-08
46	0x34615919	2.0987171e-07
47	0x344f72a1	1.9320079e-07
48	0xb3a50246	-7.683825e-08
49	0xb479bdff	-2.3259052e-07
50	0xb4161e59	-1.3980879e-07
51	0x32f60f98	2.864526e-08
52	0xb48c4874	-2.612975e-07
53	0x33cd48f7	9.5593286e-08
54	0xb40a1cab	-1.2862681e-07
55	0x32b5497a	2.1104587e-08
56	0xb439bd84	-1.7298413e-07
57	0xb3c06210	-8.958534e-08
58	0xb39f83a1	-7.4279576e-08
59	0x33e99bb7	1.08782324e-07
60	0x3359c848	5.0706404e-08
61	0xb4dfbcdf	-4.167441e-07
62	0xb3957f8c	-6.961554e-08
63	0xb3963293	-6.994119e-08

pre_encoder.2.weight f4 [16, 64]
0	0xb3103c67	-3.358255e-08
1	0x33aaea74	7.958889e-08
2	0x3483b34c	2.4531107e-07
3	0x34d0921c	3.8849328e-07
4	0xb4de8721	-4.1449042e-07
5	0x2fa41d97	2.985245e-10
6	0x345cc4f6	2.056075e-07
7	0x3397b8bd	7.065089e-08
8	0x3451eafa	1.9550126e-07
9	0xb3936293	-6.8631515e-08
10	0xb436de7a	-1.7031007e-07
11	0x343c58b9	1.7541142e-07
12	0xb3842027	-6.1525775e-08
13	0x34774ae3	2.3030911e-07
14	0xb481a495	-2.4147872e-07
15	0x3416a435	1.4029577e-07
16	0xb4df690e	-4.1613424e-07
17	0x3489a69f	2.563947e-07
18	0x33af68e5	8.168153e-08
19	0xb377da70	-5.7707837e-08
20	0xb46039e1	-2.0882682e-07
21	0xb1842d10	-3.8468286e-09
22	0x343072e2	1.6433071e-07
23	0x33c091fa	8.96725e-08
24	0xb461f08f	-2.1042273e-07
25	0xb4255c75	-1.5400458e-07
26	0x346e6a70	2.2204199e-07
27	0xb40826f5	-1.268016e-07
28	0xb424730d	-1.5315545e-07
29	0x347d5313	2.3592683e-07
30	0xb2acf24f	-2.0133625e-08
31	0x3394d2bf	6.9301215e-08
32	0xb48c06da	-2.6082017e-07
33	0xb3e95867	-1.0865988e-07
34	0x334a5b54	4.7114852e-08
35	0xb38dbb13	-6.599853e-08
36	0xb3aa36ec	-7.926232e-08
37	0xb3735b04	-5.6660625e-08
38	0x3422118a	1.5093806e-07
39	0xb468d56f	-2.168433e-07
40	0xb4279d78	-1.5610374e-07
41	0x348bcd7a	2.6040271e-07
42	0x340549e5	1.2413473e-07
43	0x33e58fb2	1.06897815e-07
44	0x334b1582	4.7284182e-08
45	0x347e949d	2.3709659e-07
46	0xb48985b2	-2.5615515e-07
47	0xb3c13bb2	-8.9981214e-08
48	0xb1061020	-1.9508732e-09
49	0x34df253d	4.156408e-07
50	0x3267ed7f	1.349997e-08
51	0x32ec92a7	2.7540706e-08
52	0x33819896	6.034786e-08
53	0xb3fca4bb	-1.1764629e-07
54	0x34187a92	1.4200694e-07
55	0xb3d0294e	-9.693268e-08
56	0xb3f92db3	-1.1603279e-07
57	0x339dd200	7.349081e-08
58	0xb3e2db1e	-1.0563802e-07
59	0x33daace8	1.01828675e-07
60	0x34100e2a	1.3416198e-07
61	0xb451f06a	-1.9552104e-07
62	0xb3b19e07	-8.27095e-08
63	0x3480ff63	2.4027676e-07
64	0xb49327ce	-2.7409845e-07
65	0x34e03afc	4.1766168e-07
66	0xb4334376	-1.6695216e-07
67	0x339a27d9	7.178432e-08
68	0xb3b1d0d7	-8.2801925e-08
69	0x34644ead	2.1262777e-07
70	0xb47f9bbb	-2.380538e-07
71	0xb3eca29e	-1.1019186e-07
72	0xb405d722	-1.2464855e-07
73	0x3451a9c7	1.9526406e-07
74	0x347f0a6f	2.3752521e-07
75	0xb1e76c84	-6.7353216e-09
76	0xb3244196	-3.8243876e-08
77	0xb2bdbdd7	-2.2088825e-08
78	0x3406b2c2	1.2544754e-07
79	0x349cabb1	2.9182186e-07
80	0x34ccf0be	3.8173124e-07
81	0x34528d0d	1.9609088e-07
82	0xb40f434d	-1.3342397e-07
83	0xb3d2221c	-9.7850915e-08
84	0x33cf3a72	9.64982e-08
85	0xb39296bd	-6.826074e-08
86	0xb45a502c	-2.0331998e-07
87	0xb178e6b8	-3.6219898e-09
88	0x343193be	1.6538158e-07
89	0x3305e5f9	3.1175635e-08
90	0x33e6861c	1.0734604e-07
91	0xb3a8a410	-7.8529524e-08
92	0xb1a61e6a	-4.8346935e-09
93	0x340e87bc	1.327416e-07
94	0xb480cc5a	-2.3990543e-07
95	0xb3a8c023	-7.858059e-08
96	0x34a52a4e	3.0764426e-07
97	0x33f745c3	1.15145234e-07
98	0x3444b725	1.832055e-07
99	0xb40ea1c1	-1.3283626e-07
100	0x34d8cd86	4.0382673e-07
101	0x34853e96	2.4818718e-07
102	0x33aaba7c	7.950163e-08
103	0xb3920e60	-6.8012696e-08
104	0xb3e56c2f	-1.0683322e-07
105	0x33ccbf2f	9.534266e-08
106	0xb4a98452	-3.157498e-07
107	0x3436044f	1.6951638e-07
108	0x34ef8890	4.461658e-07
109	0xb39eaace	-7.3885175e-08
110	0x325d2682	1.2872649e-08
111	0xb4193258	-1.426755e-07
112	0x346a2ba9	2.1808832e-07
113	0x33f91da5	1.16003584e-07
114	0x348ad589	2.585987e-07
115	0xb43ed02b	-1.777086e-07
116	0xb389b605	-6.412669e-08
117	0x33807e0b	5.9833916e-08
118	0x31a1a1d7	4.7041158e-09
119	0xb2c9d5e6	-2.349675e-08
120	0x34761eb7	2.292171e-07
121	0xb38bc06b	-6.5076925e-08
122	0x348bc94e	2.6037236e-07
123	0xb3f3b03b	-1.13476254e-07
124	0x334f2684	4.8230973e-08
125	0xb40b6f92	-1.2985973e-07
126	0x33436c21	4.5500318e-08
127	0x340fb309	1.3383045e-07
128	0xb3b0b407	-8.2283854e-08
129	0x31879a3f	3.946553e-09
130	0xb4069992	-1.2535591e-07
131	0xb3a2570d	-7.559547e-08
132	0xb3e9d07a	-1.088783e-07
133	0xb37f0392	-5.937506e-08
134	0xb393a78e	-6.875699e-08
135	0x344be29d	1.898829e-07
136	0x337ff952	5.959857e-08
137	0xb3f39a8f	-1.1343683e-07
138	0x3471e6a7	2.2528785e-07
139	0xb3fc9e8d	-1.1763505e-07
140	0x34463d4c	1.8462487e-07
141	0x3493adc0	2.7507303e-07
142	0xb377960a	-5.764563e-08
143	0x33243dcc	3.824043e-08
144	0xb4dc9677	-4.108767e-07
145	0x349a84d4	2.878138e-07
146	0xb4d72a91	-4.0077842e-07
147	0xb42db0aa	-1.617615e-07
148	0x33e9d9dc	1.08895364e-07
149	0x33fb319d	1.1697123e-07
150	0x340784b3	1.262113e-07
151	0x348d0cec	2.6272699e-07
152	0xb1bf566e	-5.5686575e-09
153	0xb3a0bd2c	-7.484991e-08
154	0x3459fce6	2.0301704e-07
155	0xb441e361	-1.8057246e-07
156	0xb41e38b5	-1.4735527e-07
157	0xb4898718	-2.5616532e-07
158	0xb4dcc875	-4.1124045e-07
159	0xb4b061bd	-3.285367e-07
160	0xb4736568	-2.266803e-07
161	0x33cb0129	9.453135e-08
162	0xb472fbe0	-2.2629638e-07
163	0xb43c636b	-1.7545032e-07
164	0xb4835067	-2.4459152e-07
165	0x33c94140	9.371661e-08
166	0x34cf4504	3.860697e-07
167	0xb42e6222	-1.6240713e-07
168	0xb380b479	-5.993292e-08
169	0x33e5109a	1.0666663e-07
170	0xb2d2c8c8	-2.4538522e-08
171	0xb48b28b8	-2.5920394e-07
172	0xb44415f0	-1.8261903e-07
173	0x34b26766	3.3230316e-07
174	0x33bda287	8.830562e-08
175	0xb41337e6	-1.3710778e-07
176	0x32d2c166	2.4535165e-08
177	0x33b8fa30	8.6136765e-08
178	0x339bf7b5	7.2628076e-08
179	0xb3e84e7f	-1.081762e-07
180	0xb3016600	-3.012792e-08
181	0x331bfdf7	3.631973e-08
182	0x3246f6f2	1.1581266e-08
183	0x33806749	5.979252e-08
184	0xb38942de	-6.391723e-08
185	0x32c10524	2.2470495e-08
186	0xb312606f	-3.408098e-08
187	0xb3e27f1f	-1.0547068e-07
188	0xb254c19d	-1.2384047e-08
189	0x333c3de6	4.3828457e-08
190	0x32585cf0	1.2593986e-08
191	0xb460a268	-2.0920709e-07
192	0xb277ee9a	-1.4431544e-08
193	0xb46eadde	-2.222873e-07
194	0xb4d316f1	-3.9318505e-07
195	0xb47ec8db	-2.3728664e-07
196	0xb3df4f71	-1.0398697e-07
197	0xb3003aef	-2.9855922e-08
198	0x348a7510	2.5789677e-07
199	0xb2e7fb54	-2.700623e-08
200	0xb4571083	-2.0029442e-07
201	0xb31ccf63	-3.6510198e-08
202	0xb40da2ab	-1.3190827e-07
203	0xb4010674	-1.2016409e-07
204	0x3388a832	6.363588e-08
205	0x322d0a23	1.007223e-08
206	0xb3ce89eb	-9.61771e-08
207	0x33eabe94	1.093114e-07
208	0xb299c6cf	-1.7901952e-08
209	0x335feb5f	5.2135302e-08
210	0x3093501a	1.0718424e-09
211	0x33ee4d4f	1.1096801e-07
212	0xb4cc1894	-3.8015844e-07
213	0xafbaeef7	-3.4002998e-10
214	0xb11c707a	-2.2764923e-09
215	0x32d5f7b4	2.4909106e-08
216	0x3451ba56	1.953243e-07
217	0xb4bf32a1	-3.561336e-07
218	0xb483658d	-2.447454e-07
219	0x3387f59f	6.3311056e-08
220	0x3410200b	1.3422702e-07
221	0x34555048	1.9866377e-07
222	0xb2fad8f0	-2.9202482e-08
223	0xb3d6a042	-9.994302e-08
224	0xb18218b7	-3.7863077e-09
225	0xb3a9e47c	-7.911237e-08
226	0x34bc5261	3.5077667e-07
227	0xb4012d6b	-1.2030584e-07
228	0x3458af2c	2.0180295e-07
229	0xb42c4464	-1.6043629e-07
230	0xb42b9199	-1.5978584e-07
231	0xb4c87570	-3.733835e-07
232	0x340269ff	1.2145755e-07
233	0xb3b5fffa	-8.475031e-08
234	0xb3cddc21	-9.5860976e-08
235	0x3496c52e	2.8083144e-07
236	0x32f61fde	2.865266e-08
237	0x32c69260	2.3116797e-08
238	0xb34911b0	-4.6815046e-08
239	0xb46f33c0	-2.2277436e-07
240	0x31921ebf	4.2526547e-09
241	0x332b6a21	3.9910564e-08
242	0x33f7f924	1.1547152e-07
243	0xb37a2362	-5.823984e-08
244	0xb3e3d2b2	-1.06088365e-07
245	0xb396d589	-7.023761e-08
246	0xb3b4dd7c	-8.422191e-08
247	0xb18ea03d	-4.150961e-09
248	0x34db9d9c	4.0906605e-07
249	0x34e10158	4.1910494e-07
250	0x342d2f2c	1.6129042e-07
251	0xb3d19b14	-9.7605295e-08
252	0x33d57182	9.9392324e-08
253	0xb3b3acf1	-8.366795e-08
254	0xb392c192	-6.833865e-08
255	0x2fe20330	4.1111425e-10

pre_encoder.2.bias f4 [16]
0	0xb46a1078	-2.179894e-07
1	0x329501ce	1.7346704e-08
2	0x3406ef8f	1.2566873e-07
3	0x34d5ca74	3.9821646e-07
4	0xb4662358	-2.1433277e-07
5	0xb323dcaa	-3.8152088e-08
6	0xb32961d8	-3.9437367e-08
7	0xb424b507	-1.5339548e-07
8	0xb48b2970	-2.5920917e-07
9	0xb4447d32	-1.8299468e-07
10	0xb3d4ea52	-9.914642e-08
11	0x33d3f358	9.869717e-08
12	0x34a7093d	3.1112896e-07
13	0xb40dde08	-1.3212423e-07
14	0xb3ba246d	-8.667926e-08
15	0xb3f4c948	-1.1398748e-07

lstm_encoder.weight_ih_l0 f4 [256, 16]
0	0xb3edcce2	-1.10734405e-07
1	0x33ae2989	8.1100616e-08
2	0xb44e4110	-1.9208915e-07
3	0x33aa71ec	7.936964e-08
4	0xb475f666	-2.2907042e-07
5	0xb34111d4	-4.495253e-08
6	0x3492ca06	2.734161e-07
7	0xb35a7592	-5.086401e-08
8	0xb3d6077f	-9.966515e-08
9	0x3458ded5	2.0197633e-07
10	0x349e4329	2.947866e-07
11	0xb41769c0	-1.4101443e-07
12	0xb32e6b4e	-4.0610125e-08
13	0xb48b771c	-2.597743e-07
14	0xb472b67f	-2.2604398e-07
15	0xb40b37bd	-1.2965661e-07
16	0xb3f97d40	-1.1617749e-07
17	0x336e7980	5.5524197e-08
18	0x3442b6c4	1.8134148e-07
19	0xb4168811	-1.401934e-07
20	0xb3800869	-5.961994e-08
21	0x3386c08c	6.274885e-08
22	0xb43f09e4	-1.779186e-07
23	0x346e0ccb	2.2170131e-07
24	0xb4396878	-1.7267473e-07
25	0xb3951b4c	-6.9433185e-08
26	0x335a3a52	5.0810122e-08
27	0xb38810ad	-6.336027e-08
28	0xb1f31452	-7.074541e-09
29	0xb45c1a31	-2.0498625e-07
30	0x34346ba6	1.6802969e-07
31	0x348beba4	2.606222e-07
32	0x33aa1664	7.920315e-08
33	0xb452ab48	-1.9620086e-07
34	0xb2b04feb	-2.052544e-08
35	0x32d819f8	2.5157519e-08
36	0xb4571a8b	-2.0033092e-07
37	0x2f8412a2	2.40239e-10
38	0x33bed70f	8.8866834e-08
39	0x34831cbc	2.4421558e-07
40	0x33b03d82	8.206827e-08
41	0x3422236d	1.5100314e-07
42	0xb206c1c0	-7.84388e-09
43	0x33e77d12	1.0779526e-07
44	0x33b892b8	8.594856e-08
45	0x34586525	2.0153364e-07
46	0xb44c9592	-1.9053394e-07
47	0xb3cf03cb	-9.6398786e-08
48	0xb3938a61	-6.870392e-08
49	0x3395b478	6.97118e-08
50	0xb2ebd187	-2.7452883e-08
51	0x341be00c	1.4517008e-07
52	0x340de716	1.3215717e-07
53	0x339265a3	6.8171424e-08
54	0xb22086fd	-9.3439185e-09
55	0xb45063b5	-1.9407783e-07
56	0xb288438d	-1.5863202e-08
57	0xb1d4bc04	-6.191387e-09
58	0xb4459875	-1.8402518e-07
59	0xb31695d4	-3.5060864e-08
60	0x341dd49b	1.469911e-07
61	0x33b92eec	8.623269e-08
62	0xb362efc2	-5.2837784e-08
63	0x345bcbf6	2.0470165e-07
64	0xb2a0c085	-1.8714e-08
65	0x33bb87d0	8.73257e-08
66	0x338beb8d	6.515538e-08
67	0x34128bdb	1.3648189e-07
68	0xb3ea16b5	-1.09006045e-07
69	0x343d2140	1.7614093e-07
70	0x3453ac27	1.9713535e-07
71	0x3477dc39	2.3083784e-07
72	0xb4da3aa5	-4.0648334e-07
73	0xb456572e	-1.9962019e-07
74	0xb4dd88f0	-4.1264093e-07
75	0x33efae25	1.11609815e-07
76	0xb3b8022a	-8.568561e-08
77	0x344f7c73	1.9323652e-07
78	0x2d8d4241	1.6059267e-11
79	0xb392ca26	-6.8354254e-08
80	0x34f63ed8	4.5866796e-07
81	0xb3c7ace7	-9.2981104e-08
82	0xb4552f6b	-1.9854421e-07
83	0x32d34653	2.4595613e-08
84	0x339d7ad3	7.333224e-08
85	0x338da371	6.595554e-08
86	0x34b0d1bf	3.2935165e-07
87	0xb41cdd03	-1.4609036e-07
88	0x33f33ba0	1.1326415e-07
89	0xb3d51d31	-9.923895e-08
90	0x33cf4c41	9.653059e-08
91	0x33f58d3f	1.1434394e-07
92	0xb3a49b29	-7.6650686e-08
93	0xb3572d8c	-5.0100013e-08
94	0xb4cc2632	-3.8025752e-07
95	0x343bacac	1.747855e-07
96	0xafb766f7	-3.3360667e-10
97	0x34034105	1.222398e-07
98	0x33d2fd54	9.824967e-08
99	0x34171348	1.4069985e-07
100	0xb4f7dc7c	-4.616776e-07
101	0x33ce6493	9.610917e-08
102	0x33cf93da	9.666083e-08
103	0x3447d122	1.8609401e-07
104	0x33fbcd44	1.1725436e-07
105	0xb4274dc1	-1.5581374e-07
106	0x3300458f	2.9865586e-08
107	0xb39a2981	-7.178733e-08
108	0xb248b18d	-1.1681903e-08
109	0xb33326a6	-4.1711836e-08
110	0x33abbd95	7.997293e-08
111	0x3312c49e	3.4172096e-08
112	0xb47d9732	-2.3617466e-07
113	0x3434070a	1.6766367e-07
114	0xb40a7dbb	-1.2897992e-07
115	0x343b72a6	1.7457441e-07
116	0xb10c5a0f	-2.0423874e-09
117	0xb3c61fcd	-9.225878e-08
118	0x33fc48fa	1.1747939e-07
119	0xb3997ba4	-7.147108e-08
120	0xb4639f39	-2.1198947e-07
121	0x32687af0	1.353213e-08
122	0x336d9012	5.5311894e-08
123	0xb4e7a878	-4.314968e-07
124	0xb3feb29e	-1.1860287e-07
125	0x34eb3af4	4.3815055e-07
126	0x31fa25b0	7.280242e-09
127	0x32818916	1.5079916e-08
128	0xb491b7bf	-2.7142048e-07
129	0xb395a5fd	-6.968546e-08
130	0xb2ce11ce	-2.3989653e-08
131	0x33924573	6.8112875e-08
132	0x3394b93b	6.92548e-08
133	0x348c1643	2.609323e-07
134	0x332390c8	3.8083073e-08
135	0xb455a0a2	-1.9895609e-07
136	0xb4215234	-1.5024199e-07
137	0xb2ca3fc6	-2.3544896e-08
138	0x33bf5a68	8.9105754e-08
139	0x338d375d	6.575895e-08
140	0x345cc07d	2.0559123e-07
141	0x32f63960	2.866426e-08
142	0x34e294f5	4.220416e-07
143	0x339d5b34	7.327472e-08
144	0x3214bea1	8.658078e-09
145	0x34e7d9c6	4.3185554e-07
146	0x34949cf1	2.7681338e-07
147	0x34658507	2.1375682e-07
148	0x346ad514	2.1870466e-07
149	0xb1aa69dd	-4.9596864e-09
150	0xb49199a1	-2.7120134e-07
151	0x331ee611	3.6996486e-08
152	0xb3abd13d	-8.000868e-08
153	0x33ab1a54	7.967597e-08
154	0x34ed4f69	4.4202469e-07
155	0xb3ba7df4	-8.684211e-08
156	0xb264ad85	-1.33108005e-08
157	0x34102758	1.3425358e-07
158	0xb48d0315	-2.626554e-07
159	0x3444a6b4	1.8314569e-07
160	0xb3a39cb9	-7.618787e-08
161	0x34717035	2.2485695e-07
162	0x348b9d60	2.6005273e-07
163	0xb38f61b2	-6.676727e-08
164	0xb32588fb	-3.854164e-08
165	0xb47c9996	-2.3525203e-07
166	0x340fd208	1.3394322e-07
167	0x33af3e2c	8.1603815e-08
168	0xb4259117	-1.5419606e-07
169	0xb341eded	-4.5152706e-08
170	0x32775d69	1.4398531e-08
171	0xb482d845	-2.4371744e-07
172	0x3462a04a	2.1106203e-07
173	0xb3b9ef0c	-8.658216e-08
174	0x34abe9ce	3.2021347e-07
175	0x341d3d0f	1.4643977e-07
176	0x349a6b9f	2.876304e-07
177	0xb4fa030e	-4.656835e-07
178	0xb2ecf1e3	-2.7584013e-08
179	0xb417fad9	-1.4154229e-07
180	0x348230b6	2.424983e-07
181	0xb4785576	-2.312789e-07
182	0x34a5bf49	3.0872823e-07
183	0x32c334a9	2.2724935e-08
184	0x348b2d03	2.5923518e-07
185	0x338ceb9a	6.562114e-08
186	0xb38c9f48	-6.548231e-08
187	0x33a5367f	7.693324e-08
188	0x33628be4	5.2746955e-08
189	0x3464c9b9	2.1307541e-07
190	0x332e4942	4.057916e-08
191	0xb47b0d9d	-2.3381149e-07
192	0xb457cc4b	-2.0097757e-07
193	0xb465af1a	-2.1390989e-07
194	0x34862bcb	2.4991309e-07
195	0xb1188a58	-2.219755e-09
196	0x34ab8109	3.1945117e-07
197	0x342cc8a7	1.6091745e-07
198	0x33b9b918	8.648402e-08
199	0xb41d1402	-1.4629043e-07
200	0xb43e804a	-1.77418e-07
201	0xb3cf862b	-9.663594e-08
202	0xb45d7056	-2.0623096e-07
203	0x30ce6e5b	1.5019838e-09
204	0x343401bd	1.6764439e-07
205	0x3413a47f	1.3750285e-07
206	0x31e37aa4	6.620512e-09
207	0x3420de55	1.4982045e-07
208	0x3494c818	2.7712736e-07
209	0x33bd14b5	8.804765e-08
210	0x3465b0dc	2.1391628e-07
211	0x333f8f19	4.46008e-08
212	0xb41d3128	-1.4639647e-07
213	0x33ce2537	9.599392e-08
214	0xb37c5280	-5.8748356e-08
215	0xb4dec379	-4.1492947e-07
216	0x33cc0a74	9.501392e-08
217	0x33ac6dbd	8.0293354e-08
218	0x330cba45	3.27657e-08
219	0x347993c3	2.3243688e-07
220	0xb440fc90	-1.7973275e-07
221	0xb2b89788	-2.1489328e-08
222	0x33546043	4.9447646e-08
223	0x33dbcf8c	1.0235735e-07
224	0xb4ee857c	-4.4428077e-07
225	0x33bd4779	8.813999e-08
226	0x345ff11f	2.0856213e-07
227	0x343c56d1	1.7540448e-07
228	0x33facf60	1.16792535e-07
229	0x33d4e158	9.913009e-08
230	0xb40cbf4c	-1.310811e-07
231	0xb3d5d120	-9.956625e-08
232	0xb24452d4	-1.14275345e-08
233	0x348bd975	2.6048988e-07
234	0xb311ee3d	-3.397712e-08
235	0x34e20d96	4.2105665e-07
236	0x3393b1a9	6.877537e-08
237	0xb1a44ad0	-4.7815334e-09
238	0xb480794e	-2.393012e-07
239	0x33c841ac	9.3251714e-08
240	0xb40d905c	-1.3184166e-07
241	0xb380376e	-5.970547e-08
242	0xb40c226c	-1.3051039e-07
243	0x3380b5eb	5.993555e-08
244	0x3416cfd7	1.404545e-07
245	0x34d61a3a	3.9879689e-07
246	0xb47fc226	-2.3819356e-07
247	0xb3108f1c	-3.365777e-08
248	0x3407b983	1.2640344e-07
249	0x336a9b58	5.4623655e-08
250	0xb33940ae	-4.3132495e-08
251	0xb42ef63a	-1.629459e-07
252	0xb2f95db7	-2.9030032e-08
253	0xb3895e7a	-6.396745e-08
254	0x347c7879	2.3513157e-07
255	0x33d32943	9.8329586e-08

lstm_encoder.weight_hh_l0 f4 [256, 64]
0	0xb2be8c01	-2.2182578e-08
1	0x33f717b1	1.1506143e-07
2	0x33b0d610	8.2345764e-08
3	0x34da85f0	4.0703117e-07
4	0xb37504b8	-5.70478e-08
5	0xb39e8052	-7.38079e-08
6	0x34c48bab	3.6609467e-07
7	0xb21bd0b9	-9.0696455e-09
8	0xb41e7ec7	-1.4761018e-07
9	0x3439bfb9	1.7299216e-07
10	0x347bc2bb	2.3447039e-07
11	0xb476fffa	-2.3003659e-07
12	0x3346e335	4.630711e-08
13	0x345da658	2.0642744e-07
14	0x3445efba	1.8434267e-07
15	0x33d6b202	9.997531e-08
16	0xb3bb3cb8	-8.718911e-08
17	0x33de7b27	1.0360082e-07
18	0xb3fbb29a	-1.1720586e-07
19	0x3426a844	1.552117e-07
20	0xb34788f6	-4.6457863e-08
21	0x34051a91	1.2396255e-07
22	0xb427b01f	-1.561716e-07
23	0x33d70130	1.0011934e-07
24	0x3448bd04	1.8695215e-07
25	0x33ad8533	8.080169e-08
26	0xb4927212	-2.7277616e-07
27	0xb322073d	-3.7725147e-08
28	0xb45934cf	-2.0228912e-07
29	0xb39d594a	-7.327124e-08
30	0xb427d5dc	-1.5630889e-07
31	0xb3fdcf6d	-1.1818961e-07
32	0xb49c28b6	-2.9086885e-07
33	0x340665d8	1.2516773e-07
34	0x32ee10d6	2.7714503e-08
35	0x34bbbeb1	3.497021e-07
36	0xb3010ec7	-3.0048593e-08
37	0x348e6f18	2.6530392e-07
38	0xb381b982	-6.040774e-08
39	0xb3ef2898	-1.1136689e-07
40	0xb3810a4e	-6.008905e-08
41	0xb3fbbf63	-1.1722911e-07
42	0xb4f6f2ac	-4.5997638e-07
43	0x32634c67	1.3230511e-08
44	0xb3768bff	-5.7403664e-08
45	0x33d1bebe	9.767017e-08
46	0x322dcbe8	1.0116288e-08
47	0xb3f72098	-1.15077626e-07
48	0x33db0ce7	1.0200329e-07
49	0xb3b8a18c	-8.597553e-08
50	0xb34c0250	-4.7499555e-08
51	0x310692aa	1.9582935e-09
52	0xb4b63507	-3.3938724e-07
53	0x32ad94e0	2.0207551e-08
54	0x349294c7	2.730287e-07
55	0xb3e0e8f0	-1.0473184e-07
56	0xb3f93b1b	-1.1605717e-07
57	0xb1ebbc00	-6.8607733e-09
58	0x33d9105d	1.01078264e-07
59	0xb3752345	-5.7075585e-08
60	0xb40dd2c5	-1.3208326e-07
61	0xb081758a	-9.419392e-10
62	0xb33dc4c6	-4.4183956e-08
63	0x33f0f4c7	1.12203956e-07
64	0xb392c962	-6.835286e-08
65	0x3417e90b	1.4147751e-07
66	0x348b8a5e	2.5991443e-07
67	0xb4072074	-1.2584661e-07
68	0xb20ca84b	-8.187338e-09
69	0xb1d04abb	-6.0620926e-09
70	0xb41ba889	-1.4496813e-07
71	0xb36e35fe	-5.54628e-08
72	0x345749df	2.005031e-07
73	0x32da46dc	2.5410763e-08
74	0x33f6f1fb	1.1499284e-07
75	0x33e37609	1.0591982e-07
76	0xb3c5f65d	-9.2183406e-08
77	0x3405bc59	1.2455111e-07
78	0x33c32805	9.0876746e-08
79	0x34305e75	1.642564e-07
80	0x3402bd47	1.2176052e-07
81	0xb414d839	-1.3862235e-07
82	0x33005c45	2.988624e-08
83	0x33a9dc5e	7.90976e-08
84	0x345363d5	1.9687225e-07
85	0xb3c9817a	-9.3833435e-08
86	0x337f193c	5.9394765e-08
87	0x34e5c648	4.2798843e-07
88	0x33d0f646	9.730552e-08
89	0x33b8aa94	8.599196e-08
90	0x33f6b2ef	1.14878155e-07
91	0xb413a8ee	-1.3751898e-07
92	0x34e20fb1	4.2107197e-07
93	0xb39752f6	-7.046576e-08
94	0xb3823c62	-6.06458e-08
95	0x32b43ddd	2.098289e-08
96	0x3320ac1e	3.7409443e-08
97	0xb3f85e82	-1.1565591e-07
98	0xb40581b3	-1.2433775e-07
99	0x33bc1d04	8.75971e-08
100	0x341f32a2	1.4826449e-07
101	0x344729d2	1.8548533e-07
102	0xb402390c	-1.2127947e-07
103	0xb48969d0	-2.5595227e-07
104	0xb2432ee9	-1.136116e-08
105	0x33510fc6	4.867595e-08
106	0xb3051d29	-3.0992997e-08
107	0xb3da8827	-1.0176182e-07
108	0xb3a1831d	-7.520996e-08
109	0x34715cdf	2.247866e-07
110	0xb410fc08	-1.3502734e-07
111	0x318a5366	4.02581e-09
112	0xb493123c	-2.739415e-07
113	0x3240b4f8	1.1217018e-08
114	0x3406a67b	1.2540288e-07
115	0x33e59c44	1.0692068e-07
116	0x3445ffce	1.8440116e-07
117	0xb45b3cc4	-2.0418071e-07
118	0x334b98b6	4.740351e-08
119	0xb3a3325b	-7.5994386e-08
120	0x32cf0edc	2.4104729e-08
121	0xb498fe10	-2.849706e-07
122	0xb3cfe4eb	-9.6808286e-08
123	0xb457ed3b	-2.010974e-07
124	0x34bcba7b	3.515341e-07
125	0x33c4ea23	9.1695505e-08
126	0xb312461d	-3.405704e-08
127	0xb38f7570	-6.680318e-08
128	0xb460c019	-2.093151e-07
129	0x349181d2	2.710281e-07
130	0x33583bf4	5.0345946e-08
131	0xb35792de	-5.0192163e-08
132	0x346e434b	2.2189958e-07
133	0x348f3c7a	2.6679828e-07
134	0xb4a7df6d	-3.1268738e-07
135	0x3321892e	3.7610498e-08
136	0x35c46526	1.4632576e-06
137	0x3420e16c	1.4983169e-07
138	0x34181b74	1.416609e-07
139	0x34639a8d	2.1197248e-07
140	0xb31e1890	-3.680958e-08
141	0xb48247c5	-2.4266606e-07
142	0x32f31205	2.8297118e-08
143	0xb3e5e963	-1.0706096e-07
144	0x33f02b78	1.1183778e-07
145	0xb52c1c38	-6.4116057e-07
146	0xafd19889	-3.812526e-10
147	0xb4c0b3f0	-3.589371e-07
148	0x337f9707	5.9509173e-08
149	0x344b559b	1.8936991e-07
150	0xb423f6cc	-1.5270342e-07
151	0xb4acb307	-3.2167756e-07
152	0xb3d30afe	-9.8274526e-08
153	0x3415beb8	1.394609e-07
154	0x33cd84bb	9.5702e-08
155	0x339128aa	6.7594854e-08
156	0x35daa536	1.6290348e-06
157	0xb6208cfb	-2.392392e-06
158	0x337cda68	5.887196e-08
159	0xb3dde38f	-1.0332507e-07
160	0x33b005be	8.196683e-08
161	0x3303d58e	3.069504e-08
162	0x338fdcc8	6.699116e-08
163	0x33c70888	9.2682114e-08
164	0x34425cf9	1.8101481e-07
165	0xb43f66a4	-1.7825602e-07
166	0xb3a1e83a	-7.5393885e-08
167	0x31d2713f	6.124679e-09
168	0xb41f82c6	-1.4855604e-07
169	0x34303ce5	1.641343e-07
170	0xb40e2487	-1.3238069e-07
171	0x33f78973	1.1526836e-07
172	0x342ba036	1.59839e-07
173	0xb450036f	-1.9372759e-07
174	0xb48d5bfd	-2.6330227e-07
175	0x338a5063	6.440748e-08
176	0xb3aaf388	-7.96054e-08
177	0xb49a7106	-2.876697e-07
178	0xb2d438cb	-2.4705875e-08
179	0xb473a16c	-2.2689863e-07
180	0x342d5e44	1.6146174e-07
181	0xb4737870	-2.2674953e-07
182	0x33f32ef3	1.1324109e-07
183	0xb395ef97	-6.981934e-08
184	0x346f8fec	2.2310968e-07
185	0xb4ca3efa	-3.7671253e-07
186	0x343c1f68	1.752029e-07
187	0xb0ac3ca2	-1.253188e-09
188	0x33dd9a9c	1.0319238e-07
189	0x32a8351f	1.958193e-08
190	0xb4a988aa	-3.157814e-07
191	0xb3e8228f	-1.0809628e-07
192	0xb491c383	-2.7150608e-07
193	0xb3b53174	-8.437465e-08
194	0x339740e1	7.043287e-08
195	0x33c2ef92	9.0774066e-08
196	0xb427610d	-1.5588394e-07
197	0xb37d4c68	-5.8975644e-08
198	0xb4cf8d31	-3.8659485e-07
199	0xb40f711c	-1.3359062e-07
200	0x34855b12	2.4839443e-07
201	0xb3e55bcf	-1.06803434e-07
202	0xb39f908b	-7.430307e-08
203	0x33c4fb48	9.172669e-08
204	0x33d0ef86	9.729324e-08
205	0x33ddc546	1.0326998e-07
206	0xb43cae19	-1.7572201e-07
207	0xb3c31a4d	-9.085179e-08
208	0xb3c1aa69	-9.01826e-08
209	0xb11fd96d	-2.3261137e-09
210	0x3322deff	3.7921378e-08
211	0x343bec95	1.75018e-07
212	0x341527ab	1.3891137e-07
213	0xb3f8d4e8	-1.1587127e-07
214	0xb381b7f6	-6.040493e-08
215	0x32f8adcb	2.8950032e-08
216	0x33d4b284	9.904491e-08
217	0xb3b7e477	-8.563159e-08
218	0x349f86e2	2.9714198e-07
219	0xb30ec4e2	-3.3241015e-08
220	0xb2d535c3	-2.4820912e-08
221	0x34a0e824	2.9971227e-07
222	0xb2f8ebad	-2.8978173e-08
223	0x3437fc6b	1.7135032e-07
224	0x33b3227f	8.341612e-08
225	0xb448ca14	-1.8699967e-07
226	0xb2b21ea4	-2.0735861e-08
227	0x34552006	1.9848821e-07
228	0x3483a4cf	2.4520565e-07
229	0xb4416464	-1.8011048e-07
230	0x3448dfed	1.8707915e-07
231	0x34825388	2.4275164e-07
232	0x32a28d23	1.8923464e-08
233	0xb341efa3	-4.5154263e-08
234	0xb4d85d6a	-4.0301103e-07
235	0x32f976d5	2.9041454e-08
236	0xb33ecfa1	-4.442666e-08
237	0x3396e637	7.026795e-08
238	0x335f506c	5.1994377e-08
239	0x32d3d4f7	2.4660478e-08
240	0x33962946	6.992427e-08
241	0x32b8464e	2.145239e-08
242	0x339f4788	7.417026e-08
243	0x341fcef1	1.4883314e-07
244	0xb480c0c7	-2.3982122e-07
245	0xb3a0e1b7	-7.491638e-08
246	0x34277914	1.5597135e-07
247	0xb159044f	-3.1580105e-09
248	0xb385a269	-6.2228374e-08
249	0xb49199d0	-2.7120268e-07
250	0xb47fba2f	-2.3816459e-07
251	0x3490ee0f	2.69953e-07
252	0xb14f2e57	-3.0148806e-09
253	0x33eb81c6	1.0966646e-07
254	0x33348ea9	4.2039265e-08
255	0x34164ce4	1.3997811e-07

lstm_encoder.bias_ih_l0 f4 [256]
0	0xb514afd8	-5.539018e-07
1	0x347b31c8	2.3394307e-07
2	0xb63adc4f	-2.7844396e-06
3	0xb3dd97e8	-1.0318746e-07
4	0xb596593b	-1.120184e-06
5	0x3449de23	1.8800397e-07
6	0x339d9e73	7.339704e-08
7	0x353461f5	6.719777e-07
8	0x3e1facd2	0.1559327
9	0x340fac4c	1.3380594e-07
10	0xb472ab3c	-2.2600301e-07
11	0xb6093606	-2.0446037e-06
12	0x3365495a	5.338493e-08
13	0xb5187641	-5.6796495e-07
14	0x33e76b1a	1.07762574e-07
15	0xb42cad6c	-1.6081839e-07
16	0x3175e74b	3.5783667e-09
17	0xb557ea43	-8.0434637e-07
18	0xb43b6c1a	-1.7455059e-07
19	0x33f02097	1.1181799e-07
20	0xb563346e	-8.4640385e-07
21	0x340deb92	1.3217348e-07
22	0x34321c58	1.6587853e-07
23	0x34f697e4	4.5931586e-07
24	0xb6277559	-2.4953245e-06
25	0x3db1dd74	0.08684817
26	0x35b22ecb	1.3275652e-06
27	0x354a7ee3	7.543551e-07
28	0x3e4282af	0.18995164
29	0x3e5f866a	0.21828619
30	0x33e21745	1.0528178e-07
31	0xb4432e39	-1.8177606e-07
32	0x35898319	1.024545e-06
33	0x34648ade	2.1284674e-07
34	0x33ff03e9	1.1875074e-07
35	0x3515db30	5.5825785e-07
36	0x36396d78	2.7630867e-06
37	0x34e2f1cd	4.2271714e-07
38	0xb090dc78	-1.054004e-09
39	0x3343db26	4.560129e-08
40	0xb6463ea6	-2.9540765e-06
41	0xb31c8ae9	-3.644792e-08
42	0xb4a8e17b	-3.1456497e-07
43	0x34c0e316	3.5928014e-07
44	0xb501265c	-4.8112065e-07
45	0xb5917b15	-1.0839163e-06
46	0x33f82253	1.15546435e-07
47	0x34dd2308	4.1189946e-07
48	0xb45c40cf	-2.0512674e-07
49	0x35504507	7.7586486e-07
50	0x32cd7ad8	2.3921004e-08
51	0xb62b1173	-2.5491142e-06
52	0xb42efab6	-1.6296221e-07
53	0xb4793050	-2.3207508e-07
54	0x35f08880	1.792112e-06
55	0xb383e060	-6.1409764e-08
56	0x34413718	1.7994569e-07
57	0x3495b82f	2.7887424e-07
58	0x360590c5	1.9902811e-06
59	0x34cc0e0c	3.8008181e-07
60	0xb590e7f6	-1.0796346e-06
61	0xb3eef793	-1.1127772e-07
62	0xb476f26d	-2.299873e-07
63	0x35c2bd00	1.4509133e-06
64	0xb5219852	-6.019883e-07
65	0xb3296039	-3.9435893e-08
66	0xb642e03d	-2.9038777e-06
67	0x33f1ef8e	1.1266012e-07
68	0x32a507f4	1.9212145e-08
69	0xb3829ccb	-6.082117e-08
70	0x3398b6c9	7.1113e-08
71	0x35072a22	5.035273e-07
72	0x3e938ab7	0.2881677
73	0x349db500	2.9375224e-07
74	0xb4405f8e	-1.7916156e-07
75	0xb607bd06	-2.0226594e-06
76	0xb319bc88	-3.5794557e-08
77	0xb552347c	-7.830747e-07
78	0x33d7221c	1.0017922e-07
79	0x34952b38	2.7784859e-07
80	0x34c94bbe	3.7494277e-07
81	0xb51d1e0c	-5.853078e-07
82	0xb2dfe596	-2.606502e-08
83	0xb3a8d1fe	-7.861307e-08
84	0xb5696871	-8.6951246e-07
85	0xb3eb2bdc	-1.0951018e-07
86	0xb4143a66	-1.380482e-07
87	0x34e1a43c	4.2029012e-07
88	0xb628aa63	-2.513313e-06
89	0x3e01e036	0.12683186
90	0x35aa892b	1.2705908e-06
91	0x3537ff9e	6.8544784e-07
92	0x3eb325f9	0.34989908
93	0x3edcf166	0.43152922
94	0x343cffa3	1.7601864e-07
95	0x345411d9	1.9750532e-07
96	0x356c9adb	8.8142195e-07
97	0xb3aec847	-8.1389366e-08
98	0xb22ac24c	-9.93948e-09
99	0x3517f140	5.660295e-07
100	0x363f5b74	2.851445e-06
101	0xb38b21b9	-6.478826e-08
102	0xb3a7dfe7	-7.817271e-08
103	0xb3513f75	-4.871932e-08
104	0xb6477234	-2.9719786e-06
105	0xb3854805	-6.2063954e-08
106	0x3324da85	3.8382968e-08
107	0x34ac4a97	3.2091768e-07
108	0xb4fdb238	-4.7254593e-07
109	0xb60a8ac9	-2.0644386e-06
110	0xb393425d	-6.857292e-08
111	0x34bad11b	3.4797344e-07
112	0xb49e5816	-2.9493884e-07
113	0x35954b07	1.1123201e-06
114	0x345546a7	1.9862874e-07
115	0xb6295c2b	-2.5236611e-06
116	0xb4eba494	-4.3891907e-07
117	0xb44ed13c	-1.9261364e-07
118	0x35eaab59	1.7484227e-06
119	0x33e70634	1.0757904e-07
120	0xb2792db3	-1.4504098e-08
121	0xb418a114	-1.4214703e-07
122	0x36045112	1.9716722e-06
123	0x35b68636	1.3599117e-06
124	0xb5c9bab1	-1.5030001e-06
125	0x34258943	1.5416758e-07
126	0x33f87430	1.1569534e-07
127	0x358cff00	1.0505028e-06
128	0xbd6b0f99	-0.057387922
129	0x37629ce1	1.3507176e-05
130	0xbb3c4bb9	-0.0028731658
131	0xbcbcace1	-0.023031654
132	0xbb5b337a	-0.003344743
133	0x3d5976f2	0.05309195
134	0x3813ba2d	3.522092e-05
135	0x3cce628a	0.025193471
136	0x3e87458d	0.2642025
137	0xbc337259	-0.010952556
138	0xbc828f3e	-0.015937444
139	0x3d9bebea	0.076133564
140	0xbb74d2aa	-0.003735701
141	0xbdc0c0ff	-0.09411811
142	0x378ed21c	1.7025559e-05
143	0xbbd86d4e	-0.006604827
144	0xb95afcd8	-0.00020884292
145	0xbdb62569	-0.08893854
146	0x3ad771e3	0.0016437139
147	0xbc79318c	-0.015209567
148	0xbda4762f	-0.08030354
149	0x3b1406f9	0.0022587164
150	0xb98d1e36	-0.00026916125
151	0xbd40f4d4	-0.047108486
152	0xbd50cabf	-0.050974604
153	0x3e357312	0.17719677
154	0xbd85727e	-0.06515978
155	0x3cf3e655	0.029772917
156	0x3e65cb73	0.22440891
157	0x3eb509ec	0.35359132
158	0xbc382e7d	-0.011241552
159	0xb81ced7f	-3.7414484e-05
160	0x3d493096	0.0491186
161	0x38233bb1	3.891782e-05
162	0x3c9f677f	0.01945853
163	0x3c6054b8	0.0136920735
164	0x3d681d84	0.056668773
165	0x3aaa7aae	0.0013006532
166	0xbc9e4d76	-0.019324046
167	0xbb567b26	-0.003272721
168	0xbdd5f75c	-0.10447571
169	0xbb00c1d9	-0.0019646792
170	0xbb71bb1d	-0.003688521
171	0xbdc2d808	-0.09513861
172	0x3cdfa76c	0.027301513
173	0xbcd39caa	-0.02583154
174	0x3c068777	0.008211008
175	0xbc7e7b5a	-0.015532339
176	0xbb940f84	-0.004518451
177	0xbcd7cc78	-0.026342615
178	0x37968cdd	1.7946988e-05
179	0xbde7d889	-0.11320598
180	0xbca15d2d	-0.01969775
181	0x3c8f8ee8	0.017524198
182	0x3e0cc934	0.13748628
183	0xbba497b0	-0.0050229654
184	0x3b4aa624	0.0030921781
185	0x3b2ab863	0.0026049844
186	0x3d795793	0.060874533
187	0x3c62b53d	0.013837156
188	0xbc8e5067	-0.017372323
189	0xba6d6067	-0.00090551976
190	0xbd09c92b	-0.033639114
191	0x3caa0124	0.020752497
192	0x32a7a71b	1.951735e-08
193	0x33557301	4.9697523e-08
194	0xb3a41c44	-7.6419866e-08
195	0xb2b68281	-2.1246935e-08
196	0xb378dacc	-5.7940994e-08
197	0xb504df3f	-4.94987e-07
198	0xb3d9856a	-1.0129118e-07
199	0xb4a79764	-3.1216325e-07
200	0xb757bf15	-1.2859488e-05
201	0x349de6c2	2.9411427e-07
202	0xb475194b	-2.2826605e-07
203	0xb590303c	-1.0742874e-06
204	0x344a3ad6	1.883412e-07
205	0xb61120b9	-2.162573e-06
206	0xb38ef6c4	-6.657277e-08
207	0x3479c330	2.3260941e-07
208	0xb4202f01	-1.4918261e-07
209	0x343d4426	1.7626789e-07
210	0x340fb043	1.3382036e-07
211	0x32332924	1.0428526e-08
212	0xb41550c6	-1.3906092e-07
213	0x34908c7f	2.6924315e-07
214	0xb39c0d9b	-7.266791e-08
215	0x3461da4e	2.1034177e-07
216	0xb25b4643	-1.2763453e-08
217	0xb64b3f62	-3.028625e-06
218	0x35c443dc	1.4622888e-06
219	0xb5ceb72d	-1.5401507e-06
220	0x3b16ae60	0.002299212
221	0x3e517f02	0.20458606
222	0x33b9e8ac	8.6570566e-08
223	0xb42063e0	-1.4937496e-07
224	0xb53811ff	-6.857153e-07
225	0x337108b0	5.6120086e-08
226	0xb28d136c	-1.6423392e-08
227	0x3466eeb8	2.1507265e-07
228	0x36867d35	4.008087e-06
229	0x34639e7c	2.1198679e-07
230	0xb609786e	-2.048469e-06
231	0xb3aa8f4b	-7.942307e-08
232	0x34475862	1.8565473e-07
233	0xb4268b33	-1.5510595e-07
234	0x337afd51	5.843805e-08
235	0x35552448	7.940148e-07
236	0x332b5544	3.989159e-08
237	0x3632113f	2.6534105e-06
238	0x342fa3d6	1.6357748e-07
239	0xb47d6783	-2.3600118e-07
240	0x33414183	4.4995897e-08
241	0x33156de4	3.479171e-08
242	0x346f586e	2.229078e-07
243	0x32eedef6	2.7808237e-08
244	0x33d6338d	9.9745286e-08
245	0xb595dfcd	-1.11665e-06
246	0xb31f1225	-3.7036575e-08
247	0xb4615273	-2.0984753e-07
248	0x33a7432e	7.7887634e-08
249	0xb385662d	-6.211881e-08
250	0xb4492e18	-1.8736353e-07
251	0xb37e9a03	-5.9279056e-08
252	0x34b2dce8	3.3315814e-07
253	0xb3b2d36d	-8.327229e-08
254	0x350e75d4	5.3070585e-07
255	0xb4a9e771	-3.16471e-07

lstm_encoder.bias_hh_l0 f4 [256]
0	0xb505bbb1	-4.981949e-07
1	0xb30b77b1	-3.2472318e-08
2	0xb64c032f	-3.0400222e-06
3	0xb403d1c4	-1.2276638e-07
4	0xb5ca3021	-1.506418e-06
5	0xb03a5385	-6.7785094e-10
6	0x32b539b9	2.1097422e-08
7	0x3512476c	5.449317e-07
8	0x3e1c6adb	0.15275137
9	0x342c0c6c	1.6023267e-07
10	0xb4693416	-2.1718765e-07
11	0xb6056aac	-1.9880636e-06
12	0xb44d047e	-1.9093747e-07
13	0xb50f9e46	-5.350197e-07
14	0x340a2a3c	1.2867616e-07
15	0xb4087f4f	-1.2712302e-07
16	0xb45c4d3a	-2.0517192e-07
17	0xb5531cee	-7.8645724e-07
18	0xb4390302	-1.7230562e-07
19	0xb3a3cd42	-7.627615e-08
20	0xb5780e78	-9.2408254e-07
21	0x329c995e	1.8230534e-08
22	0xb424dd5d	-1.5354222e-07
23	0x33a56896	7.702435e-08
24	0xb62b8518	-2.5558456e-06
25	0x3dad6934	0.084673315
26	0x35b31e02	1.3345273e-06
27	0x35a148f1	1.2016664e-06
28	0x3e42cd95	0.19023736
29	0x3e6041d5	0.21900113
30	0xb49f0f5b	-2.962723e-07
31	0xb43ff1e0	-1.7876255e-07
32	0x359de927	1.1765268e-06
33	0xb303a7cd	-3.065343e-08
34	0x32cd6572	2.3911273e-08
35	0x353230b7	6.6381057e-07
36	0x363f7e97	2.8534903e-06
37	0xb3be9277	-8.874206e-08
38	0xb3113a8e	-3.38137e-08
39	0x345e1939	2.0684537e-07
40	0xb6434fb6	-2.9103662e-06
41	0x33d3fdc5	9.8716136e-08
42	0x35383599	6.8623336e-07
43	0x349f20ce	2.9639926e-07
44	0xb4e08359	-4.181882e-07
45	0xb5c8c88c	-1.4959528e-06
46	0xb2e95459	-2.7163127e-08
47	0x34e31d61	4.230342e-07
48	0x337384ed	5.669874e-08
49	0x35688507	8.6620315e-07
50	0x339d15a7	7.314821e-08
51	0xb623ea73	-2.442536e-06
52	0x342fb90f	1.6365469e-07
53	0xb4368e13	-1.7001757e-07
54	0x35ec2000	1.7592683e-06
55	0x340c8527	1.3086957e-07
56	0x31424e97	2.8275389e-09
57	0x33e805f0	1.0804422e-07
58	0x35effddd	1.7880772e-06
59	0x33431eb1	4.542989e-08
60	0xb5b71c5c	-1.3642816e-06
61	0xb3fe1558	-1.1831679e-07
62	0x3462e13b	2.1129829e-07
63	0x35c41534	1.4609309e-06
64	0xb5179b6f	-5.647807e-07
65	0x321fa443	9.292367e-09
66	0xb639ccaa	-2.7686278e-06
67	0xb334d667	-4.2104514e-08
68	0xb587bb6b	-1.011283e-06
69	0x3440d402	1.7958521e-07
70	0x33993aa5	7.135285e-08
71	0x3513cd5e	5.5060616e-07
72	0x3e947f9a	0.29003602
73	0x347e12ef	2.3662481e-07
74	0xb44b658f	-1.8942795e-07
75	0xb609ff3d	-2.056316e-06
76	0x33b1677d	8.261029e-08
77	0xb5046ce4	-4.933229e-07
78	0x30d70581	1.5644873e-09
79	0xb544b60d	-7.328061e-07
80	0xb39db1cc	-7.343223e-08
81	0xb54c17d7	-7.6030614e-07
82	0x32a6807f	1.9383377e-08
83	0x349576cb	2.7839846e-07
84	0xb571b541	-9.0043255e-07
85	0xb438cd2d	-1.7210978e-07
86	0x3404b1a4	1.2358083e-07
87	0x35076bb2	5.0448136e-07
88	0xb62e6495	-2.5986567e-06
89	0x3e0370c4	0.12835985
90	0x35b25bcf	1.3288753e-06
91	0x353f909f	7.1363496e-07
92	0x3eb3aee8	0.3509438
93	0x3ee13b66	0.4399063
94	0x32a9a2eb	1.9748276e-08
95	0xb303e5d3	-3.070984e-08
96	0x3575f66c	9.1628203e-07
97	0x322ea589	1.0165771e-08
98	0x3322ca2e	3.7902446e-08
99	0x3533a5e9	6.692413e-07
100	0x36426139	2.8964844e-06
101	0x3500d5ce	4.799484e-07
102	0x318a5ffe	4.0272417e-09
103	0x34ada4b5	3.23436e-07
104	0xb64e8313	-3.0772687e-06
105	0x34871896	2.5163598e-07
106	0x34d22a61	3.9146383e-07
107	0x34a5993b	3.0845135e-07
108	0xb510d02d	-5.3947116e-07
109	0xb592b020	-1.0929107e-06
110	0x348485dd	2.4684314e-07
111	0x34c8b501	3.73846e-07
112	0x33b75a7e	8.538062e-08
113	0x359e8d5a	1.1813056e-06
114	0x34986ef1	2.8392927e-07
115	0xb620a156	-2.3935768e-06
116	0xb4963995	-2.7981574e-07
117	0xb45b6f22	-2.0436394e-07
118	0x35ef62ef	1.7835681e-06
119	0x34017e81	1.2060083e-07
120	0xb304eb29	-3.0947522e-08
121	0x3435e1cf	1.6939087e-07
122	0x35fed88f	1.8987502e-06
123	0x35573c36	8.018136e-07
124	0xb598d181	-1.1385856e-06
125	0xb4a651a8	-3.0979322e-07
126	0x3454c6d3	1.981637e-07
127	0x359ddc95	1.1761609e-06
128	0xbda03689	-0.07822902
129	0x3762d663	1.35205655e-05
130	0xbb3f8986	-0.0029226257
131	0xbcbc6f44	-0.023002274
132	0xbb5a9f73	-0.00333592
133	0x3ce4b556	0.027918499
134	0x381454ea	3.5365032e-05
135	0x3cc8a817	0.024494214
136	0x3ea76f81	0.32702258
137	0xbc33c822	-0.010973008
138	0xbc825800	-0.015911102
139	0xbbdeb321	-0.006796256
140	0xbbdcdef2	-0.0067404443
141	0x3bf3718a	0.0074293064
142	0x378e9d3f	1.7000943e-05
143	0xbb89b751	-0.004202761
144	0xb95c6e9e	-0.00021022043
145	0xbdcc71fe	-0.0998268
146	0x3addaff2	0.0016913398
147	0xbc6f71a3	-0.014614495
148	0xbd108338	-0.03528139
149	0x3b14039e	0.0022585164
150	0xb99f3733	-0.0003036797
151	0x3d1a2b06	0.037638687
152	0xbcce3db5	-0.025175909
153	0x3df07783	0.11741545
154	0xbd86e699	-0.06586952
155	0x3d033e77	0.032041993
156	0x3e9ead5a	0.30991632
157	0x3ebba588	0.36649728
158	0xbc0b7bf5	-0.00851344
159	0xb7d1b27e	-2.4997858e-05
160	0x3d4a6638	0.04941389
161	0x3827a959	3.997362e-05
162	0xb967ecfa	-0.00022118157
163	0xb95802b0	-0.00020600366
164	0x3ddeeb17	0.108846836
165	0x3aaa3b0c	0.0012987568
166	0x3dc1e187	0.09466844
167	0xbb53764b	-0.0032266553
168	0xbbb9be45	-0.005668434
169	0xbb005841	-0.0019583853
170	0x3c71c1af	0.01475565
171	0xbdb0082d	-0.085953094
172	0x3b036223	0.0020047508
173	0xbcd1d922	-0.025616232
174	0xb7f32e6c	-2.8989474e-05
175	0xbc4cc908	-0.012499101
176	0xbb9410ec	-0.004518619
177	0xbcda8983	-0.026676899
178	0x37950e80	1.7768936e-05
179	0xbda606be	-0.08106755
180	0xbc2e65fd	-0.010644433
181	0x3c9a3630	0.018824667
182	0x3dd11c02	0.1021042
183	0xbb9f4479	-0.0048604575
184	0x3b4997e5	0.0030760702
185	0xbc248523	-0.010041508
186	0x3dd28e3c	0.10281035
187	0x3c5e3a8a	0.0135637615
188	0xbc95c9a4	-0.018284626
189	0xba59abd5	-0.0008303498
190	0xbca7642c	-0.020433508
191	0x3a1c186e	0.0005954568
192	0x34017837	1.2057795e-07
193	0xb3d123bd	-9.738822e-08
194	0x33397495	4.31797e-08
195	0x339183f1	6.776089e-08
196	0x34a56adb	3.0811393e-07
197	0xb519d6d2	-5.7309546e-07
198	0x33c97f1a	9.3829115e-08
199	0xb4e87c97	-4.3304019e-07
200	0xb75749ef	-1.2832213e-05
201	0x3427b857	1.562015e-07
202	0xb4c11892	-3.596693e-07
203	0xb56681c5	-8.5870516e-07
204	0xb304b8a9	-3.0901592e-08
205	0xb6111fcb	-2.162519e-06
206	0xb3f6a9c0	-1.1486145e-07
207	0xb329952a	-3.9484043e-08
208	0x330899e8	3.1804944e-08
209	0x34893094	2.5553584e-07
210	0xb3285625	-3.9193896e-08
211	0xb4a965d9	-3.1552807e-07
212	0x33434dd4	4.547276e-08
213	0x3403d550	1.2277928e-07
214	0xb215350e	-8.685005e-09
215	0xb33d0d6d	-4.4017202e-08
216	0xb547b568	-7.439726e-07
217	0xb646f4cb	-2.9646787e-06
218	0x35d001d3	1.5497739e-06
219	0xb5151d21	-5.5549214e-07
220	0x3b1a6fc5	0.0023565155
221	0x3e512548	0.20424378
222	0x33920c8a	6.8009356e-08
223	0xb3dafe32	-1.0197654e-07
224	0xb5642184	-8.498539e-07
225	0x33a32436	7.596866e-08
226	0x347bd642	2.3454143e-07
227	0x34971b0a	2.8145615e-07
228	0x36843dd0	3.9411025e-06
229	0x344d69c1	1.9130586e-07
230	0xb623074c	-2.429314e-06
231	0x3402bb6b	1.2175376e-07
232	0x3420571e	1.4932854e-07
233	0xb26f51fb	-1.3930271e-08
234	0xb3e48fa8	-1.0643208e-07
235	0x35902fe1	1.0742771e-06
236	0x33cf8498	9.663307e-08
237	0x363b684f	2.7925887e-06
238	0xb3ad0399	-8.056595e-08
239	0xb3fa3e13	-1.16528234e-07
240	0x32d8a6ea	2.5221613e-08
241	0x35b25a92	1.3288393e-06
242	0xb45d80e2	-2.0629116e-07
243	0x3393277b	6.8524024e-08
244	0xb59db060	-1.1748743e-06
245	0xb48487b0	-2.4685642e-07
246	0xb272438f	-1.4101615e-08
247	0x348080d6	2.3935598e-07
248	0xb4bea2b1	-3.550863e-07
249	0xb37bf6e4	-5.8665037e-08
250	0xb4897e2b	-2.5610038e-07
251	0xb3f1a6e5	-1.1252795e-07
252	0x3496ad82	2.806592e-07
253	0x34d3fc18	3.9485235e-07
254	0x31385328	2.6822793e-09
255	0xb44850b0	-1.8655805e-07
