vehicle/autoware_raw_vehicle_cmd_converter/src/vehicle_adaptor/autoware_vehicle_adaptor/vehicle_models/vehicle_model_3.pth (torch, 56844 bytes, 30 tensors)

weight f4 [16, 20]
00000000: c9da 57be b6ad 023e 48ba f3bd 46b0 ebbd
00000010: 19f8 dfbd d915 d8bd 81f5 d2bd 6618 c2bd
00000020: bedd 99bd 7029 73bd b45c 40bd ce3e c9bc
00000030: 6de7 913b b423 0d3d d631 a73d 9027 f03d
00000040: 2909 153e f6ca 373e e461 583e ee55 783e
00000050: daf0 e83d 1021 853e 28e3 2a3e db4b 023e
00000060: 6dc1 b13d 26f2 363d 19b3 553b cc76 f8bc
00000070: a272 49bd a4ac 83bd 6cb2 8cbd 7935 7bbd
00000080: cd57 46bd 364e e9bc 2cd9 273b c866 3d3d
00000090: 8a6c ca3d c095 263e 931b 6d3e da7e 9d3e
000000a0: 0f5f 3ebd 6b89 9dbb 814e 38be 41c5 29be
000000b0: 3f14 18be 0d60 00be 176f c7bd e05d abbd
000000c0: 28a9 7dbd 68b8 4fbd 0b26 40bd e3c0 0fbd
000000d0: 08c9 f0bc eb96 f7bc 0d8a d4bc 20eb c4bc
000000e0: 4ea4 dfbc 52cf fabc 5de8 13bd 2649 30bd
000000f0: c38a 9abe 38b7 0dbe 29a4 bcbd 1422 a3bd
00000100: a695 83bd 3d35 8cbd 1633 95bd 9383 9cbd
00000110: 8aa0 bcbd f8eb bbbd c95c b8bd 18d4 adbd
00000120: d249 a1bd 5177 96bd 99af 89bd b1f8 8dbd
00000130: 7661 abbd c80d c6bd 8dda dfbd 1fec fbbd
00000140: 5621 43be 0792 aabb d156 f2be 1c00 d7be
00000150: 0985 b6be 8f0d 97be 6a66 67be 2420 30be
00000160: 9d9b 0ebe d97f d2bd a26d 96bd bd77 29bd
00000170: bd13 75bb 1703 c63c 21e9 4b3d 4233 953d
00000180: e1cd c13d f0e4 e53d a13d fc3d 30dc 043e
00000190: 7aa6 92be ad04 26be 0ee3 d7bd f910 bbbd
000001a0: 0c21 9bbd 0d44 97bd 815f 8fbd fdac 8bbd
000001b0: cad2 95bd eca8 8cbd 0911 87bd 6b06 72bd
000001c0: 9df6 44bd ae80 28bd 297f eabc bc8c 08bd
000001d0: c60e 5fbd ec5a 8bbd 8384 afbd 3542 c0bd
000001e0: 460c 23bd 2377 15bc 4327 6bbc 9ad8 8bbc
000001f0: 6de9 81bc 3f11 bebc 37d8 e4bc 6050 0fbd
00000200: 6681 29bd 2c54 42bd 0889 54bd 257f 42bd
00000210: 3a6c 50bd 5a48 7bbd 3ab9 87bd 442c 9abd
00000220: 2f3b b7bd ae3d c8bd e9c2 d4bd 13bf debd
00000230: 8066 09be 8631 953e 6980 1b3e 49ec 073e
00000240: 0ed7 f83d a1c7 e33d 4805 c13d f4c5 a73d
00000250: 2def ab3d 1514 b73d b52c bd3d 8ce1 bb3d
00000260: 0cf1 bd3d 9fd2 d23d ef9e ed3d 3cdc 053e
00000270: 334f 1a3e ef48 2e3e 6572 423e f414 573e
00000280: 3470 f2bc 6c46 233d ebb2 7bbe b213 71be
00000290: 1886 65be a41a 5bbe c36b 49be 10d1 38be
000002a0: c48c 24be 87ac 0abe c5ab e2bd 24fd a8bd
000002b0: 9738 56bd 74c2 efbc b0a0 4fbb 55c6 953c
000002c0: df9d 043d e0ab 4c3d cb98 893d bcf4 ae3d
000002d0: 3380 87be f328 38be b810 d5bd deaf b6bd
000002e0: 9b72 9abd 5ee0 9fbd 6224 97bd 9806 9bbd
000002f0: 6fe7 b8bd b079 adbd 8c29 a4bd 55c7 8bbd
00000300: e3fa 64bd f81a 41bd 7066 0bbd c6c8 1bbd
00000310: 4aa7 63bd 6b13 8cbd 6a81 a8bd cbb3 b3bd
00000320: 5b46 1fbd 6f1f abbc 648c 77bc 87a2 a2bc
00000330: ec96 a0bc 8e91 e4bc 0c1b 0abd c861 27bd
00000340: c615 47bd 39b4 5fbd 0eb7 71bd d805 66bd
00000350: c898 71bd 3bf0 91bd 6294 9dbd a08a b2bd
00000360: a8aa d0bd 6cd8 e1bd 63f1 eabd 2827 fabd
00000370: dfa0 053e e45a 59bd 84df ecbd ba23 bfbd
00000380: dba1 97bd 5946 6fbd 21fa 13bd 88a7 6cbc
00000390: 6770 6e39 2446 c43c 5727 593d 2ab9 8a3d
000003a0: a4ab a43d dce7 ca3d 3bfc e43d 6911 013e
000003b0: e898 103e f3ec 1a3e 6408 213e 703d 243e
000003c0: 11be 00be 2f13 863e f920 003e c959 d43d
000003d0: a31c c03d 380f aa3d f106 873d 04fb 5b3d
000003e0: 1ddf 5e3d dbde 6d3d a98d 733d cda5 7d3d
000003f0: 48a2 883d 1335 9b3d ccae ba3d eb3e dd3d
-0.21079554 0.12761578 -0.11900765 -0.11508231 -0.10935993 -0.10551042 -0.103007324 -0.0947731
-0.07512997 -0.05936569 -0.04696341 -0.02456608 0.004452637 0.034457877 0.08163802 0.11726296
0.14554276 0.17948517 0.21131092 0.2425153 0.11374064 0.26001787 0.16688216 0.12724249
0.08679471 0.044664524 0.0032607971 -0.030330084 -0.049181588 -0.06429413 -0.06869969 -0.061330292
-0.048423577 -0.028479677 0.0025611622 0.046240598 0.098839834 0.16268063 0.2315505 0.30760843
-0.046477374 -0.0048076413 -0.17998697 -0.16579153 -0.14851473 -0.1253664 -0.097379856 -0.083675146
-0.061928898 -0.050712973 -0.04691128 -0.03509606 -0.029392734 -0.03022333 -0.025944734 -0.024037898
-0.027300026 -0.030616436 -0.03611027 -0.04303851 -0.30183992 -0.13839424 -0.092109986 -0.07965484
-0.064250275 -0.06846092 -0.072851345 -0.07642283 -0.09210308 -0.09175867 -0.09002072 -0.08487719
-0.07875408 -0.073469765 -0.06722946 -0.069322 -0.083681986 -0.09670597 -0.10930357 -0.12300896
-0.19055685 -0.005205396 -0.4733186 -0.4199227 -0.35648373 -0.29502532 -0.22597662 -0.1719976
-0.1392655 -0.10278291 -0.073451295 -0.041373957 -0.0037395798 0.024171395 0.049782876 0.07285167
0.094630964 0.11225307 0.12316442 0.1297462 -0.28642637 -0.16212721 -0.10541354 -0.09134097
-0.075746626 -0.073860265 -0.07000638 -0.06820104 -0.073155954 -0.06868157 -0.06595046 -0.059088152
-0.04808675 -0.041138344 -0.028625088 -0.03333734 -0.05445745 -0.06804451 -0.085701965 -0.09387628
-0.039806627 -0.009122643 -0.014352622 -0.017071057 -0.015858376 -0.023201583 -0.02793513 -0.03498876
-0.04138317 -0.047443554 -0.051888496 -0.047484536 -0.050884463 -0.061348297 -0.06627126 -0.07527974
-0.08946835 -0.097773895 -0.10388739 -0.10876288 -0.13418007 0.29139346 0.15185703 0.1327373
0.121503934 0.111220606 0.094248354 0.081920534 0.083952285 0.08939377 0.09237043 0.09173879
0.09274492 0.10294079 0.1160258 0.13072294 0.15069275 0.1702001 0.1898895 0.21004087
-0.029594518 0.03986208 -0.2457997 -0.2354267 -0.22414434 -0.21396881 -0.19670014 -0.18048501
-0.16069323 -0.13542376 -0.11067919 -0.08251408 -0.052300062 -0.029267527 -0.003168147 0.018283049
0.03237712 0.0499686 0.06718596 0.08542773 -0.26464996 -0.17984371 -0.104035795 -0.08920263
-0.075413905 -0.078064665 -0.07379986 -0.07569617 -0.090285175 -0.08470476 -0.08015737 -0.06825129
-0.055903327 -0.04714486 -0.03403324 -0.03803327 -0.05557946 -0.06839641 -0.08227809 -0.08774527
-0.038885456 -0.020889012 -0.015109155 -0.01985289 -0.019603215 -0.027901437 -0.0337172 -0.040864736
-0.04860475 -0.054615233 -0.059012465 -0.056157917 -0.058983594 -0.071258985 -0.076943174 -0.08717847
-0.101888 -0.11027607 -0.11471822 -0.122145 0.13049649 -0.053065196 -0.1156607 -0.09332986
-0.07403918 -0.058416698 -0.036127213 -0.014444239 0.00022739322 0.023959227 0.053016033 0.067735985
0.0804055 0.09907505 0.11180922 0.12604298 0.14120829 0.15129451 0.15725857 0.16039062
-0.12572505 0.2618651 0.12512578 0.10368688 0.09380462 0.08303684 0.06593121 0.053706184
0.054411996 0.05807386 0.05946127 0.061925698 0.06671578 0.075784825 0.09115371 0.10803016

bias f4 [16]
00000000: fdf8 1bbc cd03 be3e f992 6a3d 7198 683e
00000010: 17a4 993e 4a15 763e fc71 de3d e9b3 c03c
00000020: d6dd de3d 9ca6 813e 51c3 fb3d 479d f0bd
00000030: 99bc 353d 520a 5cbc 7e43 d83d 398f fd3c
-0.009519813 0.37112275 0.05726907 0.22714402 0.30008003 0.24031559 0.108615845 0.023523288
0.108821556 0.25322425 0.12293113 -0.11748748 0.044369314 -0.013430195 0.10559748 0.030952083

weight f4 [16, 20]
00000000: d412 22b4 1383 88b4 f35d 79b3 a160 b8b3
00000010: 8e02 32b4 a808 93b3 11f6 1234 377c 9633
00000020: 63bc 5234 2f9e 23b3 b6de 98b2 97c3 c9b4
00000030: a3a3 a3b3 4f8b 65b4 812b 18b4 42a8 4fb4
00000040: 854d 88b3 e651 45b3 4c6f 7d34 8eee 8633
00000050: b0f0 6fb4 2ab6 72b3 1d7f b531 9a30 6433
00000060: 38aa 13b4 f36a 81b4 651b 4434 b845 51b4
00000070: 6d5b cd34 a6b1 d1b3 c530 41b4 bc95 dbb3
00000080: 03a5 9db3 57a0 5833 efaa 3c34 1231 8f33
00000090: 1d89 fdb3 0765 8534 8551 8534 0598 49b4
000000a0: 14c3 d63a 6e66 ac33 b123 0033 895e f1b3
000000b0: 935c 87b3 af16 61b3 1b6a fdb4 087f f4b4
000000c0: 286c cab4 7e93 83b5 5fc3 19b5 50d4 85b5
000000d0: b5c4 8ab5 c6ea 40b5 7806 77b5 237d 4fb5
000000e0: 69ec 2fb5 ab7b 7db4 ede4 f0b4 05c2 49b4
000000f0: 8345 1fb4 1d4c 48b4 1254 cab4 1871 3534
00000100: 6015 4c34 5bbb 6b33 ae10 12b4 f254 9cb3
00000110: c6b2 afb3 9bb8 0234 15a2 2634 3b62 4034
00000120: 7aab 1734 7615 8ab4 d305 8f33 55fa 2bb4
00000130: 8ae5 0a34 6eae 79b4 d774 58b3 da15 ca34
00000140: 5075 8e3d 3295 00bd be13 7bbd 8508 6bbd
00000150: 1a3c 59bd 2b26 3ebd 9f80 20bd b016 05bd
00000160: ff96 c6bc 901d 81bc 9fc8 38bc 81d8 82bb
00000170: cbbd 993b f32b 853c 8a57 e53c 7b1d 1e3d
00000180: 5af9 523d 4cad 813d 93d5 973d 3b66 b33d
00000190: 7ab9 bd3c fd57 59be 5017 35be 759f 37be
000001a0: 96a9 3abe 64f5 3dbe eed2 42be 38c5 46be
000001b0: 608e 4bbe 5cb7 51be ae40 58be dd4c 5dbe
000001c0: ebb6 64be fa3e 6cbe 9aea 70be f70b 78be
000001d0: 4174 7dbe 1b4a 81be 49d0 84be 98d0 87be
000001e0: c1be ee3a 8059 e433 8819 31b1 0507 8db3
000001f0: 8e65 aab4 5878 b5b4 ec0f b3b4 e40e 81b4
00000200: 830c 92b5 406c 4cb5 71bc 94b5 f453 90b5
00000210: 7735 25b5 989a f9b4 a176 0ab5 f766 edb4
00000220: 00bd e8b4 49a4 4eb4 9c94 b134 d4c7 f834
00000230: eaa1 e4bb 87a2 04be 4735 08be 352d 0dbe
00000240: 1cde 12be 7433 17be 46b2 1ebe b199 23be
00000250: 862d 2bbe 740e 34be 0997 3bbe 1aac 43be
00000260: eb8a 4cbe d283 56be 590f 5ebe a968 67be
00000270: 8cbe 72be 68b0 7abe 1bb0 82be 7aa7 87be
00000280: ff19 c83a ad97 1b34 2558 aab3 be37 65b3
00000290: c116 8cb4 bd27 0db5 ea1b 82b4 f76c 2eb5
000002a0: 0849 86b5 e5ee 55b5 67fd a7b5 93f8 6eb5
000002b0: 1997 8fb5 0a4f 81b5 b2e7 4ab5 d06b 3db5
000002c0: 50b4 deb4 a54c 4ab4 9094 9c33 48da 8a34
000002d0: 3633 99b3 a70b 4ab4 8110 d0b2 0796 15b2
000002e0: 7370 82b4 4b48 3c32 2317 1334 6ffc 16b3
000002f0: 335f 1cb4 f856 0bb2 937d 1e34 afdf fe31
00000300: bdad 7f31 9aa6 0a34 b77f 02b4 ea1b 7bb3
00000310: 5e10 5f34 8189 73b3 f4b9 1c33 9c5f dcb4
00000320: 4f0b f3bb 7f41 a4be 0cb7 9fbe e373 a1be
00000330: c279 a2be 31e3 a3be 8dd5 a4be fc40 a6be
00000340: 655c a7be d281 a9be b58b abbe cd49 adbe
00000350: 64f0 afbe 58f3 b1be ab53 b4be d86f b7be
00000360: 9f5d babe 3b4e bcbe cd75 bfbe 388c c2be
00000370: c12e 3b3d 5df8 63bf 2f7b 42bf 1384 3ebf
00000380: b81b 3bbf f1df 36bf a1e4 32bf f139 2ebf
00000390: 9a0e 29bf d056 24bf fe29 1fbf 4ac8 19bf
000003a0: 5be1 14bf 78c7 0fbf 10c2 0abf f18f 05bf
000003b0: 811d 01bf 24ea f8be 16f9 f0be da56 eabe
000003c0: ad6a a932 a575 0ab4 e8fb 89b4 4681 df32
000003d0: 3de4 d832 c131 9533 6d3d bab0 7a75 a6b3
000003e0: 264c 7534 1810 7132 bde9 2cb3 af74 bab3
000003f0: 2606 60b3 b2b7 5fb4 b041 e033 5f28 1d34
-1.5094275e-07 -2.5427343e-07 -5.8060277e-08 -8.5857444e-08 -1.6578471e-07 -6.8467955e-08 1.3686828e-07 7.007514e-08
1.9626309e-07 -3.8095262e-08 -1.7796406e-08 -3.7581478e-07 -7.620044e-08 -2.1377967e-07 -1.417193e-07 -1.9339589e-07
-6.347094e-08 -4.5942123e-08 2.360295e-07 6.283254e-08 -2.2346171e-07 -5.6510693e-08 5.2822444e-09 5.312959e-08
-1.3752367e-07 -2.4105938e-07 1.8263889e-07 -1.9490005e-07 3.8250747e-07 -9.764635e-08 -1.7992268e-07 -1.0225219e-07
-7.340898e-08 5.0437247e-08 1.757105e-07 6.667882e-08 -1.1806171e-07 2.4846688e-07 2.4832494e-07 -1.8774888e-07
0.0016385042 8.028006e-08 2.9834784e-08 -1.1239633e-07 -6.3032665e-08 -5.2407525e-08 -4.7202124e-07 -4.554097e-07
-3.7704126e-07 -9.803186e-07 -5.7281244e-07 -9.971063e-07 -1.033905e-06 -7.1867214e-07 -9.2024084e-07 -7.7295607e-07
-6.55366e-07 -2.3607451e-07 -4.487005e-07 -1.8790168e-07 -1.4833317e-07 -1.8654141e-07 -3.76866e-07 1.6898082e-07
1.9006757e-07 5.48856e-08 -1.3603378e-07 -7.2797675e-08 -8.181591e-08 1.2174353e-07 1.551892e-07 1.791713e-07
1.4125354e-07 -2.5720118e-07 6.660016e-08 -1.6016686e-07 1.2935757e-07 -2.3253389e-07 -5.0397684e-08 3.764133e-07
0.06955969 -0.031392284 -0.061298124 -0.05738117 -0.053035833 -0.04642312 -0.039185163 -0.03249234
-0.024241922 -0.015761167 -0.011278301 -0.0039930944 0.0046918145 0.016256308 0.027995843 0.038602334
0.05150733 0.06331882 0.07413783 0.08759733 0.023159731 -0.21224971 -0.17684674 -0.17931922
-0.18228754 -0.1855064 -0.19025776 -0.1941117 -0.1987853 -0.20480102 -0.21118423 -0.21611352
-0.22335403 -0.23070899 -0.23526993 -0.24223314 -0.24751379 -0.2525185 -0.2594016 -0.26526332
0.0018214808 1.0633357e-07 -2.5771403e-09 -6.567101e-08 -3.1738858e-07 -3.380144e-07 -3.3352933e-07 -2.4038957e-07
-1.0881489e-06 -7.6153447e-07 -1.1081703e-06 -1.075327e-06 -6.154509e-07 -4.6492346e-07 -5.1581634e-07 -4.4219607e-07
-4.3350883e-07 -1.9245012e-07 3.3076947e-07 4.6338994e-07 -0.0069773095 -0.12952624 -0.13301574 -0.13786776
-0.1434254 -0.14765722 -0.15497693 -0.15976597 -0.16716585 -0.17583638 -0.18319334 -0.1910862
-0.19974868 -0.20948723 -0.21685542 -0.22598518 -0.237055 -0.24481356 -0.25524983 -0.26494962
0.0015266537 1.4490679e-07 -7.932275e-08 -5.3368915e-08 -2.6093588e-07 -5.258442e-07 -2.4234697e-07 -6.4978616e-07
-1.0005033e-06 -7.969632e-07 -1.2516219e-06 -8.902363e-07 -1.0698305e-06 -9.634252e-07 -7.5588025e-07 -7.0564874e-07
-4.1481917e-07 -1.8840599e-07 7.2913394e-08 2.5863324e-07 -7.133933e-08 -1.8816955e-07 -2.4221892e-08 -8.707054e-09
-2.4296205e-07 1.0959478e-08 1.3698859e-07 -3.5154184e-08 -1.4563265e-07 -8.110639e-09 1.476058e-07 7.417803e-09
3.7206143e-09 1.2912861e-07 -1.2153656e-07 -5.846588e-08 2.0774448e-07 -5.6702905e-08 3.6490704e-08 -4.1047758e-07
-0.0074171196 -0.3208122 -0.3119434 -0.31533727 -0.3173352 -0.3200927 -0.32194176 -0.32471454
-0.3268768 -0.33106858 -0.33505026 -0.33845368 -0.3436309 -0.3475597 -0.35220084 -0.35827518
-0.36399552 -0.36778435 -0.37394562 -0.37997603 0.045698885 -0.8905085 -0.75969213 -0.7442028
-0.7308917 -0.7143546 -0.6988011 -0.6805716 -0.66037905 -0.64194965 -0.6217345 -0.6007124
-0.58156365 -0.5616374 -0.54202366 -0.5217276 -0.50435644 -0.48616135 -0.47065037 -0.45769387
1.97227e-08 -1.289505e-07 -2.5701524e-07 2.6019404e-08 2.52495e-08 6.9474034e-08 -1.3550739e-09 -7.751346e-08
2.2845106e-07 1.4031706e-08 -4.0259454e-08 -8.6825246e-08 -5.2159656e-08 -2.0835321e-07 1.0442761e-07 1.4636451e-07

bias f4 [16]
00000000: dc89 ee32 36e0 e7b3 e436 af3a 1fd7 29b3
00000010: 5e83 923d da15 0a3d 249f c33a d70f 943c
00000020: ea75 9b3a 746f 1a34 3b3f 683d 9743 fd3c
00000030: 3f2f 1db4 a866 953d df22 103d 97ab a83d
2.7769538e-08 -1.07975595e-07 0.0013367799 -3.954403e-08 0.071539626 0.033712246 0.0014924747 0.01807396
0.0011860703 1.4382914e-07 0.056700926 0.030916018 -1.4638952e-07 0.07294971 0.035189506 0.08235853

weight f4 [8, 16]
00000000: 68c1 963d 7aa6 1cbc b246 783d ef2b 90be
00000010: 615b bbbe 2947 06be 0915 133c 4009 2b3e
00000020: 58e6 463e af50 02be 082e 1f3c 7324 eebd
00000030: bfb1 093e 541d d23d d05c 483e 8224 1a3e
00000040: 3306 5c3e bbee 8c3e daaa 7c3d 3a0f 67be
00000050: 3a37 e1be cf33 25be 4d70 7d3d 3498 7a3e
00000060: 053e b23d 459a 28be cacf a83d ef56 cabd
00000070: 82fd 583e a7d5 c63e 8b28 bc3d cd70 e53e
00000080: 0d59 3c3e e185 aa3e bc27 cdbd 4b29 5bb3
00000090: 206f d0be 8b6d 98bd 2899 16be fc07 303e
000000a0: 472d 4fbe fc7d c4bd 2274 1fbe 7106 6b3d
000000b0: 0857 213e 90bb 503e 0a41 5ebe 866c 5f3e
000000c0: 1ede 3f3d fedc 4bbd 361d 8e3d a6dd e33e
000000d0: a4ec de3e d7ce 003f 760f a13d 1c9a 3e3e
000000e0: af59 bd3e cdb2 003f 69c6 c23d 7d64 4abd
000000f0: 2e4a 223e 596e 173d 6c5c a43e 9328 013e
00000100: 4eeb 983e 964c 5bbe 677e 173d ebfc 163f
00000110: 6ea9 193f f621 0b3f 38c8 b13d 9e2a 59be
00000120: d648 583e c0b3 103f c715 8b3d 7559 973d
00000130: a9e7 60be 37d7 743e b768 ad3e bda0 0f3f
00000140: 3a83 5e3e 8797 963e a2f8 d33d adab 89be
00000150: 331c 9cbe 628a 25be 4214 b93d 2599 583e
00000160: ff3b 773d eab5 41be 01a1 dd3d f375 16be
00000170: 4290 3a3e 70b0 c23e c580 373d 55a0 e63e
00000180: d0bd 983d 9726 9cbc 318f 763d 49a2 9ebe
00000190: 5998 a9be fcc1 56be 71a9 7a3c efca 1f3e
000001a0: 2195 553e 3d98 45be ae05 873c c802 0fbe
000001b0: 1d32 013e a412 d53d 4437 583e 8424 183e
000001c0: 969f 2f3e 549c 6f3e 2fb4 dc3d a832 90be
000001d0: 3569 6abe d8cb 1cbe 93be 023e b027 253e
000001e0: c77f 8c3d e10f 47be ac00 073e 080f 2dbe
000001f0: 41b1 083e 6ac6 a13e 53bd 413d 5708 bf3e
0.07361108 -0.0095611755 0.060614295 -0.2815852 -0.36593154 -0.13113083 0.008977183 0.16702747
0.19423807 -0.12726091 0.009715565 -0.11628046 0.13446711 0.102595 0.19566655 0.15052989
0.2148674 0.27525887 0.061686374 -0.22564402 -0.43987447 -0.16133045 0.061874676 0.24472123
0.087032355 -0.16465099 0.082427576 -0.098798625 0.21190456 0.3883488 0.091874205 0.44812623
0.18393345 0.33305266 -0.10017344 -5.1027467e-08 -0.40709782 -0.07442769 -0.14706862 0.17190546
-0.20232116 -0.09594342 -0.15571645 0.05737919 0.15755856 0.2038405 -0.21704498 0.21818742
0.046842687 -0.0497713 0.06939165 0.44505042 0.43539917 0.5031561 0.07864277 0.18613476
0.36982486 0.5027283 0.095105 -0.04941224 0.1584861 0.03697047 0.32101762 0.12613134
0.29867023 -0.21415934 0.03698578 0.5897967 0.60024154 0.54348695 0.08680767 -0.21207663
0.21121535 0.56524277 0.06791263 0.073901094 -0.21963371 0.23910223 0.33868954 0.5610464
0.21729746 0.2941248 0.10350157 -0.2688879 -0.30490264 -0.1616607 0.09037067 0.2115217
0.06035995 -0.18917051 0.10821725 -0.14693432 0.18219092 0.38025236 0.04480054 0.450442
0.07458079 -0.01906137 0.06019515 -0.3098319 -0.33124045 -0.20972437 0.015299187 0.15604757
0.2085767 -0.19296356 0.0164822 -0.13965905 0.12616773 0.10403946 0.21114832 0.1485768
0.17150721 0.23399478 0.10776555 -0.28163648 -0.22891696 -0.15312135 0.12768011 0.16128421
0.06860309 -0.19439651 0.1318385 -0.16900265 0.13348867 0.3159669 0.047299694 0.3731105

bias f4 [8]
00000000: ef44 2b3d 8a21 193e d3cc 233e a8aa 113d
00000010: 352c b73d c30b 0f3e e392 503d e8f7 0f3e
0.041813787 0.149542 0.15996103 0.03556314 0.08943979 0.1396933 0.050921332 0.14059412

weight f4 [8, 16]
00000000: c2a7 3f33 0bc7 2a34 2e1c 7dba 4b3a 3bb2
00000010: 3fdf 203d 5a6f ba3d aee4 8fba 48bd 1c3e
00000020: 61fd 9bba 2efe d433 bd12 a63e 488a bd3e
00000030: fc87 cd33 d4a8 47be d976 0c3e 1441 2dbe
00000040: 6c71 17b4 edc1 c531 eab6 ad3a 1483 edb3
00000050: c909 373d 67b7 23bd eadf cb3a 8202 213d
00000060: 0421 973a 71ec f4b3 7d71 8d3c 8cbc 0cbe
00000070: 16ab 7733 4867 cc3d 22bc 1dbd ad76 cf3d
00000080: cdf1 6734 cadf dfb1 bf06 a53a ba20 33b4
00000090: 35b9 5bbd 3bc4 ff3c e8f5 aa3a cd58 7bb3
000000a0: c4ff 663a 52a8 59b4 32b4 00b4 17f8 98be
000000b0: dbe3 fab3 c274 953e 4372 933a 39f6 813e
000000c0: 9343 c7b4 755b b433 4ac5 c63a e116 0533
000000d0: deda fb3d 590a 36bd f501 e53a b1f0 313b
000000e0: dc6b b13a dcaa bf33 6b7a f1bc d243 29be
000000f0: f0f3 0fb3 701a 213e 100e 31bd ad5c 0f3e
00000100: 168d 15b4 0b08 27b4 995d 33b4 f39a 0eb4
00000110: 2d38 6b34 a4db f533 bb24 e133 4eeb 83b4
00000120: 8995 c834 3109 b233 3eef 31b4 69f6 6fb3
00000130: 887c 2fb4 7bbf fd32 853a 61b3 a544 af31
00000140: 0011 9d33 3560 3034 ebef c53a 2fe3 dab3
00000150: 6234 ed3d 50a6 3abd 4b5b d43a 2c60 ed38
00000160: 2696 b43a b2d4 8333 1c24 14bd 0ef2 28be
00000170: 9642 aeb2 9199 223e 6a9f 37bd 5ae0 103e
00000180: b5fc 2cb4 b5bf 0932 37b5 c33a 1833 b032
00000190: 910f 033e 82ee 31bd 4dc4 e23a 3a50 123b
000001a0: a296 b33a a7aa f5b3 97cc eabc bbde 25be
000001b0: 4738 5e34 6d59 213e 50de 2dbd c804 113e
000001c0: aa63 85b3 c2f7 d4b2 8cd4 c23a d9e5 c133
000001d0: d1c0 093e fe27 38bd ef76 e13a d374 02bb
000001e0: e61b b23a c98a 08b3 854f 4fbc 965a 26be
000001f0: d959 24b4 c3a9 213e c6a2 34bd 04e9 123e
4.4623228e-08 1.5904895e-07 -0.0009655383 -1.0898087e-08 0.039275404 0.0910327 -0.0010978186 0.1530658
-0.0011901074 9.918254e-08 0.3243617 0.37019563 9.570792e-08 -0.19497997 0.13717212 -0.16919357
-1.4104234e-07 5.7555014e-09 0.0013253365 -1.10600155e-07 0.044687066 -0.039969828 0.0015554402 0.039309032
0.0011530225 -1.1405144e-07 0.01726603 -0.137438 5.766477e-08 0.09980637 -0.038509496 0.101300575
2.1601518e-07 -6.515596e-09 0.0012590511 -1.668258e-07 -0.053643424 0.0312215 0.0013043256 -5.8521255e-08
0.0008811916 -2.0270934e-07 -1.1986484e-07 -0.29876778 -1.1682979e-07 0.29190642 0.0011249263 0.25383165
-3.7115805e-07 8.398539e-08 0.0015164998 3.0987284e-08 0.12297605 -0.044443462 0.0017471897 0.002715152
0.0013536173 8.92521e-08 -0.029477319 -0.16529778 -3.3516642e-08 0.15732741 -0.0432263 0.14000197
-1.3928033e-07 -1.5556013e-07 -1.6704725e-07 -1.3281151e-07 2.1906517e-07 1.1448654e-07 1.048406e-07 -2.4571858e-07
3.7361704e-07 8.290443e-08 -1.6571445e-07 -5.5870633e-08 -1.6343449e-07 2.9540152e-08 -5.2440118e-08 5.1009743e-09
7.3139745e-08 1.6426277e-07 0.0015101408 -1.01927405e-07 0.11582257 -0.045568764 0.0016201524 0.00011318954
0.0013777658 6.138852e-08 -0.03616725 -0.16498587 -2.0286546e-08 0.15878893 -0.044829763 0.14148083
-1.6110683e-07 8.018039e-09 0.0014931326 2.0512331e-08 0.12798907 -0.04344035 0.0017300934 0.002232565
0.0013701508 -1.1439743e-07 -0.02866201 -0.16198246 2.0695835e-07 0.1575677 -0.04244834 0.1416198
-6.211424e-08 -2.4792715e-08 0.0014864369 9.029072e-08 0.1345246 -0.044960015 0.0017201583 -0.0019906058
0.0013588637 -3.1791192e-08 -0.012653236 -0.16245493 -1.5306377e-07 0.15787415 -0.044100545 0.14346701

bias f4 [8]
00000000: f96d 4d3d 0e7f 123e 9789 15be 8cb3 023e
00000010: e089 8032 f974 013e 356a 023e ee0d 003e
0.050153706 0.1430628 -0.14603268 0.12763804 1.496386e-08 0.12642278 0.12735827 0.12505314

weight_ih_l0 f4 [72, 19]
00000000: 0973 ef3c 6380 80be c907 02be 45d3 df3c
00000010: dbaf 9dbe ad37 efbe c03e d5bd 344e 77be
00000020: 6c05 cfbd 6d98 263d 5857 73be 91f3 fabe
00000030: 5f38 6dbe ad81 88b4 d919 6fbe 2bfd 70be
00000040: 16bf 72be baa2 ffbe 52c7 633e 8054 82be
00000050: 7f8a b13c 5681 163e 09dd 1d3e 8433 223d
00000060: 7c36 a9bd 3b17 173e 3f2a 143d 008a 063e
00000070: 0b64 643e 4994 f6be 6e9b 45bf f25f 04bf
00000080: b75d 2e34 4c07 05bf 9755 05bf b178 06bf
00000090: e070 1abc a32a cdbd 696c d53d 46bd 36be
000000a0: c6a0 b7bc 3383 1bbd ca9a 02be 80e0 c1be
000000b0: e709 e13d 87b6 d7bd 4c28 283e d756 983e
000000c0: 6a42 a4be ab49 b7be b3a6 a2be 9d60 b2b3
000000d0: edd4 a3be ba2a a3be 0299 a3be 7a69 90be
000000e0: ae9d 8b3e 1ad7 08be 6721 13bd c846 81bd
000000f0: ccb8 24be 8528 8dbe cd49 16bf b218 89bd
00000100: eab7 0dbd 2d87 63bd 31dd a63e 0e38 13be
00000110: df2b 013f dd1d 47bd 5146 4233 886d 41bd
00000120: 15df 4cbd 0e84 50bd bfe8 1cbf effb 813f
00000130: b2ad 51be e5c4 fdbd 03c9 5dbd 29db 6cbd
00000140: 4b08 1abe 05c3 80be 5ca2 4ebd 2d1c e9bd
00000150: d7bc 53bd d6bd 96bd c5a0 d9be 4de7 13bf
00000160: a796 dcbe b641 bf34 4954 dcbe 49d6 debe
00000170: 424a e1be fcbf 0abf 7e25 85be d766 a93c
00000180: 70b9 89bd 26f4 143d ae65 943d 0236 19bd
00000190: a256 ebbd e9b6 7c3d b8ab 0cbd d929 7d3d
000001a0: 7bc1 983e 3da2 b7be 3113 0ebf ed96 c2be
000001b0: 4c62 3d34 f843 c4be 2900 c4be f8fa c5be
000001c0: ba20 f0bd b90f 14be 5fe2 3f3e 6ac0 f93b
000001d0: fda9 a93d b31b 1d3e 5838 7abd 2d26 18be
000001e0: 5996 d23d e7fe ff3c 941d 013e 6d83 ea3e
000001f0: 0da0 0fbe 8eaa cfbe e2de fabd 05cc 4e34
00000200: 4558 febd a607 febd f8f4 febd b27f 503d
00000210: 7d23 ed3e 77b9 6bbd 42b9 f63d 1c9a 103e
00000220: 85fa 803d 3dc8 bb3d 4218 cfbd 7642 5b3e
00000230: d78f 1e3e 98f1 5f3e 0202 013e 120c dbbd
00000240: 389f 16be b80b 0abe abe2 9332 0948 0cbe
00000250: 88f0 08be 171f 08be 7e98 88be 98c4 d53e
00000260: fc59 1c3d 6645 c5bd ee27 c33c 60f2 bf3d
00000270: cef6 bf3c 4631 1fbd 9d45 0a3c ca58 d8bd
00000280: 376d 093a ff19 b53d 29e9 bc3c 87a2 223d
00000290: 3fa7 303c 044d 8a34 06f8 1d3c ecf5 3e3c
000002a0: 6a01 553c 475f 183e 7395 ea3e f923 833d
000002b0: 977b 33be ff00 0abe aafa 32bd 0ac2 b0be
000002c0: 24ed f7be 1f73 1ebe 1eaa 31be 34d9 11be
000002d0: fdae c03e 180a 4dbe 1d5c 0abe 4ada 32be
000002e0: 5a9c c032 a6aa 34be a8e3 37be b7ca 3cbe
000002f0: 6355 0dbf a5f8 973d 7595 593c 7a43 62bd
00000300: c436 c0bd dcf0 00be eaff 0d3e a4de 3a3d
00000310: 6a95 17bd 8289 98bc ba72 3cbc 0617 18be
00000320: 1d2e 95bd 6fd6 84be 05f9 a3bd 9a40 8432
00000330: cb98 a8bd 95ec a1bd ee35 a2bd 9f04 383e
00000340: e39d 0d3f 8ab3 b1bd 23b1 80bd 2aef cebc
00000350: b21f 80bd dfca 9b3d 810f 9dbc 9f9b 6bbc
00000360: 4932 4dbd 8af1 02bc 19b2 823e 545c cfbd
00000370: 3dc2 e8bd 1434 e8bd 001e b4b3 6b7b e9bd
00000380: a962 e7bd 1d94 e5bd fd49 8c3e abff 51bb
00000390: 998d 47bd 0d2b 17be 9ced 24be 0a36 06be
000003a0: 2657 03be 3533 1cbe e60d 19be 7968 0fbe
000003b0: 1bda 0bbe 5a6e 23ba 7c98 3dbe aa72 d0be
000003c0: 44f0 57be c728 b6b3 d267 5bbe acc2 57be
000003d0: 09e4 57be 116e 33be 9c39 bcbe 44af e33c
000003e0: 7438 723d 42c9 b43d d57d f9bc 305c 0c3e
000003f0: 8c35 17be 2dbd 063e 1a6e c13d ac06 2d3e
0.029229658 -0.2509795 -0.12698282 0.02732242 -0.3079823 -0.46722165 -0.10412359 -0.24150926
-0.10108456 0.04067271 -0.23763788 -0.4901395 -0.23166035 -2.5426326e-07 -0.23349704 -0.23534076
-0.23705706 -0.49928838 0.22244003 -0.25455093 0.021672485 0.14697775 0.1541635 0.03959991
-0.08262345 0.14754955 0.0361731 0.1313858 0.22303788 -0.48160008 -0.7719029 -0.517089
1.6239106e-07 -0.5196426 -0.52083725 -0.5252791 -0.009426326 -0.10017898 0.10421068 -0.1784564
-0.02241553 -0.03796692 -0.1275436 -0.37866592 0.10988217 -0.10532861 0.16421622 0.29753754
-0.3208192 -0.35798392 -0.31767806 -8.306345e-08 -0.31998387 -0.31868535 -0.31952673 -0.28205472
0.27268738 -0.13363305 -0.035920527 -0.063123286 -0.1608612 -0.27569976 -0.5870636 -0.066941634
-0.034599222 -0.055548836 0.3259063 -0.14376852 0.50457567 -0.048612464 4.5233097e-08 -0.047223598
-0.050017435 -0.050907187 -0.6129264 1.0155009 -0.20476416 -0.1239107 -0.054146778 -0.057826195
-0.15042226 -0.25148788 -0.050447807 -0.11382327 -0.051693764 -0.07360427 -0.4250547 -0.5777481
-0.4308369 3.5624333e-07 -0.43033054 -0.43522862 -0.44001967 -0.54199195 -0.26005167 0.02067892
-0.067248225 0.03636565 0.07245956 -0.03740502 -0.11491133 0.061697874 -0.03434345 0.061807487
0.29835114 -0.35865965 -0.55498034 -0.38005772 1.7637757e-07 -0.38333106 -0.38281372 -0.38668036
-0.11724992 -0.14459123 0.18738697 0.0076218145 0.08284376 0.15342598 -0.06108889 -0.14858313
0.10282583 0.031249477 0.1260894 0.45803395 -0.14025898 -0.4055981 -0.12249543 1.9259467e-07
-0.1241918 -0.124038026 -0.12449068 0.05090303 0.46316138 -0.05754992 0.12047054 0.14121288
0.06297783 0.09169052 -0.10112049 0.21412072 0.15484558 0.21869504 0.12598422 -0.106956616
-0.14709175 -0.13481033 1.7216129e-08 -0.13699354 -0.13373005 -0.1329311 -0.26678842 0.41751552
0.038171753 -0.09632377 0.02382275 0.09372401 0.023433115 -0.03886535 0.008439449 -0.1056381
0.00052424095 0.08842849 0.023060398 0.03970578 0.010782062 2.576054e-07 0.009641653 0.011655312
0.013000825 0.14880095 0.45817146 0.064033456 -0.17527615 -0.13476942 -0.043696083 -0.3452304
-0.4842311 -0.15473603 -0.17350051 -0.14243013 0.37633505 -0.20023382 -0.13511701 -0.17466083
2.2422842e-08 -0.17643222 -0.17957938 -0.18436705 -0.55208415 0.07420472 0.013280262 -0.055240132
-0.09385446 -0.1259188 0.13867155 0.045622483 -0.037007727 -0.018620256 -0.011501962 -0.14852533
-0.07284186 -0.2594485 -0.08006481 1.53962e-08 -0.08232268 -0.079064526 -0.079204425 0.17970513
0.5531904 -0.086768225 -0.06283786 -0.025260527 -0.062560454 0.07607054 -0.019172432 -0.014380365
-0.050096784 -0.007992158 0.25526503 -0.10125032 -0.11365173 -0.11338058 -8.38736e-08 -0.11400493
-0.11298115 -0.11209891 0.274002 -0.003204326 -0.048719022 -0.14762516 -0.16106266 -0.13106552
-0.12826213 -0.15253909 -0.14946708 -0.14004697 -0.1365742 -0.00062344 -0.185152 -0.40712482
-0.21087748 -8.482453e-08 -0.21426323 -0.21070355 -0.21083082 -0.17522456 -0.36762702 0.027793534
0.05913587 0.088274494 -0.03045551 0.13707042 -0.1476652 0.13158102 0.09444828 0.16897076

weight_hh_l0 f4 [72, 18]
00000000: c043 a63d 5427 d5bd fcc0 94be 09ac ea3e
00000010: c1d8 5abe 5e49 c1bc 5de9 0e3e a0d0 e63d
00000020: 92f7 dabd 59d2 4fbe 6425 bebe 803f 873c
00000030: 4e86 66bd 66c2 3fbe ea13 f3bd 598e 0e3e
00000040: 57a6 223e adaf 3cbe 8221 c6be 3193 aa3e
00000050: d7c7 08bf a506 633e a79b f5be 93aa 70be
00000060: 83ed 96be 475b c03e d5db 95be 6a7a 04bf
00000070: 6369 bfbe ca81 f93e cffc d73e 6b8d 17bf
00000080: fc88 62be 7b2f fdbd 96e4 0b3d 0ac4 183e
00000090: 16b3 c8bc 6c87 6b3d 9cfc 233c cbd5 a93d
000000a0: 4c7d a13d 5044 3c3d 17f5 3d3e 7535 03bc
000000b0: 9360 05bd 1304 8abd b35d 6abc 1315 473d
000000c0: b93a 043d ec29 44bd 9a3b bebc fc22 dcbd
000000d0: f05a 9fbd ef52 a3bc a5e9 18bf 21eb 053f
000000e0: 690b 8abe 75a0 c5bd 1552 7bbe dc3d 0abf
000000f0: deca 84be 8ed1 943d cbf4 e8bc 5555 48be
00000100: b260 aabe 1be8 0a3e 082a a53e baca 5ebe
00000110: 6573 a83e f321 af3e 750e bbbd a98c 03bf
00000120: dc77 90be 2263 873e d4ba b6be 43d9 bd3d
00000130: 05b7 8ebe 6796 f1bd fa75 6fbd 5c77 0f3f
00000140: f899 9bbe 9697 3cbe 07d1 efbe 114b 0e3f
00000150: db79 ee3d d14b e6be a487 a3be fa9d c83e
00000160: 4c20 af3d a454 3d3e 6647 c7be c436 0c3f
00000170: 9c97 3abf 4811 e63e 52ac 41bf 33a8 a5be
00000180: 58cc 76be d466 a73e a0f4 d2bd 0c87 23bf
00000190: 3cbc 8ebe 8575 c23e 0dc7 093e 0b24 3dbf
000001a0: 7957 bebd 97bf 193d a9ca c83d 6430 193d
000001b0: 013a 82be 83e5 d73e c8d6 febe e392 c03e
000001c0: 6e6c 85be 6aa8 90be 0876 10bd fabc 8fbd
000001d0: 222e ea3a 8f15 d2be dff5 06be eb49 e93d
000001e0: f133 21bb bee9 02bf 35f3 183e 5325 a6bd
000001f0: e361 853e c57a b0be d66c 143d 7622 04be
00000200: d6d7 74bd aa8a 9cbd fea9 fd3d 2040 c13d
00000210: b73a 063e 396e cabd 6d61 4b3d 44c5 1ebe
00000220: 9ad6 903d 5531 90bd 486e 3dbe 1076 7abd
00000230: 7b3c 723d e3f0 b3bd a031 1abd 2035 b7be
00000240: 9a46 d8bd 8675 4c3e cb2d 4abe b9b2 dd3d
00000250: 3f78 4bbe 8d4f 52bd 27a9 0dbe 6e09 87bb
00000260: 76c1 ef3a 6b42 69be 10c8 aabd 4552 193e
00000270: eeb3 c83d bb99 56be ef29 e83c dca0 52be
00000280: 4fcf c4bc 7864 66be 637b 99be 214a cf3e
00000290: 6aea abbe 331e 803e 298c 6bbe e2ac bbbe
000002a0: 3886 8a3d 7c56 603e 7b1d ccbd fbeb 3cbe
000002b0: 5858 8cbe 66fb a03d 1725 cb3d 1a81 d8be
000002c0: 7258 71bb afb8 5a3c 30f4 8e3e e09a 7cbe
000002d0: f335 bbbd 9ce0 1fbe 0a8e c7bc c118 4cbd
000002e0: 4b08 d53d 62f7 003e b4b8 6d3d 016f 463e
000002f0: 3de5 04be fcfe 36be 547d 5abe e298 343e
00000300: b4ff 89be 57df 8fbe 5f27 89bd 389a 4fbc
00000310: e1e4 b4be 6015 7abe 84ef 4dbe 8a93 8c3e
00000320: 6f46 2bbe 4f23 083d bbef 7cbe 26e7 4ebd
00000330: 2212 1bbd 7360 b63d aac3 d9bd 3625 a9be
00000340: efb5 30be ebd5 073e 3b3e 503e 24b6 433d
00000350: 480c 0abe 899c e4bc d9d4 083c 7e94 6ebe
00000360: c794 02bd 56bc aa3e fe72 c5be 0da1 0d3d
00000370: 191b eabe 12f5 4dbc b2a9 343d 205c c33e
00000380: 2d6f e2bd 2ed0 4abe 95cf 41be 64cc f23d
00000390: a8c1 1a3e 087f eebe 1ac5 ddbd 4cd6 0ebd
000003a0: a270 eebd b4bf 07be 067b 483e 19ef 7bbe
000003b0: d77c 8cbc 9b45 12bc f538 5a3e 429d 603e
000003c0: 0dd6 783d 3e85 41bd 7b93 c6bc 635e c8bd
000003d0: a21a 84be ab43 f1bd fade 48be ef8c 85be
000003e0: df77 9dbc 3063 96bd 4933 57be cf23 81be
000003f0: 33b1 b0be 4d0c bb3e 7fd6 a5be 8c05 813c
0.08118391 -0.10407892 -0.29053485 0.45834377 -0.21371748 -0.023594555 0.13956209 0.11270261
-0.106917515 -0.20295085 -0.37137902 0.016509771 -0.056280427 -0.18726501 -0.11869033 0.13921489
0.15883766 -0.1842639 -0.3869744 0.33315423 -0.5342993 0.22170503 -0.47970316 -0.23502569
-0.29478082 0.3756964 -0.2926928 -0.5174929 -0.3738509 0.48731834 0.42185065 -0.5920016
-0.22122568 -0.12362572 0.034153543 0.14918533 -0.024499457 0.057502195 0.010008957 0.08292731
0.078852266 0.045963585 0.18550526 -0.008008351 -0.032562803 -0.06739058 -0.014304566 0.048604082
0.032282565 -0.047891542 -0.02322178 -0.1074886 -0.07781017 -0.019937007 -0.59731513 0.52311903
-0.2696183 -0.096497454 -0.2454303 -0.5400064 -0.25936025 0.07266532 -0.028437039 -0.19563802
-0.33276898 0.13565104 0.3225863 -0.21757022 0.3290054 0.3420559 -0.09133617 -0.51386505
-0.28216445 0.2644282 -0.35689414 0.09269955 -0.27874008 -0.11796265 -0.05846212 0.560415
-0.30390906 -0.184172 -0.46839163 0.5558329 0.11644336 -0.44979718 -0.31939423 0.39183027
0.08551082 0.18489319 -0.3892166 0.54771066 -0.7288759 0.4493506 -0.75653565 -0.32354888
-0.24101388 0.3269564 -0.10300565 -0.6387794 -0.27877986 0.37980285 0.13454838 -0.7388312
-0.09294028 0.03753623 0.09804279 0.037399665 -0.25434878 0.4216729 -0.4977324 0.37612066
-0.26059288 -0.2825349 -0.035268813 -0.07018466 0.0017866532 -0.41032073 -0.1317973 0.11391052
-0.002459761 -0.5113791 0.14936526 -0.08112588 0.26051244 -0.34468666 0.036236607 -0.12903771
-0.05977615 -0.076436356 0.12385939 0.09436059 0.13108335 -0.098843046 0.04965346 -0.15504938
0.07072182 -0.07040659 -0.184991 -0.06114775 0.05913971 -0.0878618 -0.037644982 -0.3578272
-0.10560341 0.19966707 -0.19744031 0.10825104 -0.19870089 -0.051345397 -0.13834058 -0.004120997
0.0018291909 -0.22779243 -0.0833894 0.1497279 0.09799944 -0.20957081 0.028340308 -0.20569175
-0.024024634 -0.22499263 -0.2997695 0.40486243 -0.3357728 0.2502304 -0.23002686 -0.36655337
0.067638814 0.21907991 -0.099665605 -0.18449394 -0.2741115 0.078604504 0.09919184 -0.42285997
-0.00368264 0.013349696 0.27920675 -0.24668455 -0.09141149 -0.15613025 -0.024359722 -0.049828295
0.104019724 0.12594369 0.058037475 0.19378282 -0.12978072 -0.17870706 -0.21336871 0.17636445
-0.26952899 -0.28100082 -0.066969626 -0.012671046 -0.3533087 -0.24422216 -0.20110899 0.27456313
-0.16726087 0.033236798 -0.24700825 -0.05051341 -0.03785909 0.08905115 -0.10633023 -0.33036202
-0.17256902 0.13265197 0.20336239 0.047781125 -0.13481247 -0.027906673 0.008351528 -0.23298833
-0.031880166 0.33346814 -0.38564295 0.034577418 -0.457238 -0.012570636 0.044107147 0.38156223
-0.11056361 -0.19805977 -0.18926843 0.11855391 0.15112936 -0.46581292 -0.1082861 -0.03487234
-0.11642577 -0.13256723 0.1957818 -0.24602927 -0.017149372 -0.008927728 0.2131079 0.21934989
0.06075101 -0.04724621 -0.024240246 -0.09783628 -0.2580157 -0.11780485 -0.19616309 -0.26084086
-0.019222198 -0.07343137 -0.21015657 -0.25222632 -0.34510192 0.36532822 -0.3239021 0.015749715

bias_ih_l0 f4 [72]
00000000: e50f b93d 7c5c e3bc 5960 913e e802 da3c
00000010: e2ce 133d 8b96 323e ccf7 923e 9318 163e
00000020: a476 1e3e 33d0 0e3e 987e d93d 5850 423d
00000030: deed c43d 395f 233e 0a24 6f3e fffa ad3d
00000040: 122c 993d f297 c73d 471d 263e 4c4e 953d
00000050: 456c 9f3e 9af0 633e 0ef2 613e 2a35 1f3e
00000060: 3ccc e23d 1eb2 363d 1aa7 da3c c4a2 ff3d
00000070: d3b5 253e 4b27 a83d c1ed 1f3e c035 583e
00000080: 2c46 b33d 61fe 6a3e e36f 753e bc88 813e
00000090: 0823 4dbd 76f9 753c c59f 9bbc 4192 24bd
000000a0: 497b 10bd 3df9 9bbc 5ec9 28bd 57d9 86bd
000000b0: 3c04 f73d d0b1 7cbd 4637 0c3d 869c 69bc
000000c0: 10f7 41bd 6c16 5cbb 1728 123e 3aaf b03b
000000d0: 8b3c b7bc 038b 14bd ae56 1d3e 26d1 793d
000000e0: 78ce 703e 9923 4f3e b450 393e 8ded 613e
000000f0: 1a08 173e 5e8b 653e 8635 8bb8 b908 0a3e
00000100: 9a06 3c3e a29a be3d 0c62 dd3d 73b5 883e
00000110: 1f99 073e b726 083e 445f 723e 48d9 5a3e
0.09036235 -0.02775406 0.2839382 0.026612714 0.03608597 0.1744024 0.2870468 0.14657812
0.15474945 0.13946609 0.10619849 0.047439903 0.09615682 0.15954293 0.23353592 0.08495139
0.07479109 0.09745778 0.16222106 0.072903246 0.3113729 0.22259751 0.22064993 0.15547624
0.11074111 0.04460346 0.026691008 0.12482217 0.16182642 0.082106195 0.1561804 0.21114254
0.087536186 0.229486 0.23968463 0.25299633 -0.050082237 0.015013089 -0.018997082 -0.04017854
-0.035273824 -0.019039745 -0.041207664 -0.06584423 0.120613545 -0.061693013 0.0342324 -0.0142585095
-0.047354758 -0.00335827 0.14273106 0.0053919824 -0.022367736 -0.036265384 0.15365097 0.060990475
0.23516262 0.20228423 0.18097192 0.22063275 0.14749184 0.22416446 -6.638006e-05 0.1347989
0.18361893 0.093068376 0.108097166 0.26700935 0.13242005 0.13296019 0.23669153 0.21371949

bias_hh_l0 f4 [72]
00000000: 313c b63d 5258 e5bc 9011 923e e740 dd3c
00000010: e150 193d 61a1 323e a8f3 933e 2f20 163e
00000020: cbcb 1e3e a0cd 0d3e 855b d93d 5c62 473d
00000030: 1ea9 c53d 3ff5 223e 9b68 6e3e e496 ad3d
00000040: 98e9 983d adcd c73d 53eb 263e c77f 953d
00000050: 33c3 9f3e 1bb9 633e a8cd 613e d0ea 1d3e
00000060: ad3b e63d 4aff 333d 63cf dd3c 5e23 023e
00000070: 877b 253e 0bdc aa3d 19fe 213e f372 573e
00000080: 3f40 b13d 7a8f 6a3e 6785 753e e6a5 813e
00000090: 4b4e 4dbd 114c 5c3c 7ba8 d2bc 9c51 2abd
000000a0: 9d49 25bd dcf7 99bc 61d1 1bbd fb7f 86bd
000000b0: 7a21 f63d e4ae 88bd 2e37 db3c 200c 7bbc
000000c0: 7fe0 4dbd ed0a d0ba b95c 123e fae1 da3b
000000d0: f4ce b1bc f466 16bd c7b6 1d3e e1d9 7b3d
000000e0: 407c 713e 7d55 4f3e 693c 393e 07d8 613e
000000f0: 9c8e 173e 85b1 653e 611b dd39 3a4e 0b3e
00000100: 2b80 3b3e d03d ba3d 8e9d db3d 4c7d 893e
00000110: 2c8b 053e 6ab0 073e 3b07 723e 050d 5b3e
0.08898199 -0.027996216 0.28529024 0.027008487 0.037430648 0.17444374 0.28896832 0.14660715
0.15507428 0.13847971 0.10613159 0.048677787 0.09651397 0.15913866 0.23282091 0.08476046
0.074664295 0.097560264 0.16300707 0.07299762 0.31203613 0.22238581 0.22051108 0.15421605
0.11241851 0.043944634 0.027076429 0.12708804 0.16160403 0.08342751 0.15819587 0.21039943
0.08654832 0.22906294 0.2397667 0.25321883 -0.050123494 0.01344587 -0.025715103 -0.041581735
-0.040353406 -0.018794946 -0.038041476 -0.06567379 0.12018104 -0.06673983 0.02675971 -0.015322715
-0.050262924 -0.0015872397 0.14293183 0.0066797705 -0.021705128 -0.036719278 0.15401755 0.061487082
0.23582554 0.20247455 0.18089451 0.22055064 0.14800495 0.22431 0.00042172804 0.1360406
0.18310611 0.09093821 0.107234105 0.26853406 0.13041371 0.1325089 0.2363557 0.21391685

weight f4 [16, 21]
00000000: 3235 9a3d 1f5f 463e c66c 38bd 3123 8cbd
00000010: 1efc 99bd 1038 9fbd d285 acbd 8254 b7bd
00000020: a8dd b6bd 71c4 b9bd b481 c9bd 35d3 cebd
00000030: e79d d0bd 0f02 cfbd 29f9 d2bd f666 ecbd
00000040: 2e34 ffbd 1042 e7bd 7934 09be 0e50 83be
00000050: c305 cf3b 8c8a 973d 9d5d 4f3e 27d3 24bd
00000060: eb9c 81bd e433 8fbd 0175 94bd 9ea3 a2bd
00000070: 6859 acbd 8bbe abbd 82a2 b1bd 48f7 bfbd
00000080: b952 c4bd 400a c8bd cfb8 c6bd d562 c8bd
00000090: 8ec9 e2bd e4a6 f6bd 6f77 dcbd 69bd 04be
000000a0: 3b3d 81be b90d dd3b d70d dd3d 12c7 803e
000000b0: abf6 85bb 7cd3 edbc 9640 18bd 744d 2abd
000000c0: 3063 4bbd 3018 62bd caa8 62bd 898b 73bd
000000d0: 0c0e 8bbd 7819 91bd 2536 94bd 3c2f 94bd
000000e0: b46b 99bd 0a45 b4bd d341 c8bd c472 adbd
000000f0: c8c8 dcbd 30a2 6cbe a46c 5b3d 68d4 8ebc
00000100: c9cd babe 65c1 eabd f9ee 9fbd 9d76 73bd
00000110: 5304 4ebd 9183 2dbd 2648 0dbd d2d5 f9bc
00000120: 8896 b8bc 6f3a 08bc 61c9 2e3b 3f30 033c
00000130: 0914 b53a 3ab4 26bc 8874 8dbc 4234 c7bc
00000140: d1d5 34bd 7420 81bc 82f5 fb3d 57f7 ebbd
00000150: 3ef9 f43c aec9 17bf 6548 803c 9b44 1abc
00000160: e3e2 eb3a b165 c53c ca07 2b3d 0dad 6b3d
00000170: fc62 5a3d 24ae 253d bce2 323d 3280 973d
00000180: 429d d93d beee fa3d 421d b83d 97db 233d
00000190: aeae 223c fed0 193c 453e 663d c366 353e
000001a0: 1cef 81bc f145 bc3d 58c7 cdbe e9e3 db3d
000001b0: 8992 a23d 03d1 6d3d 4ba2 2b3d 7037 ee3c
000001c0: d9ea db3c d9b3 083d 5d57 2a3d 19ec 4d3d
000001d0: 97b8 6c3d 64c6 6b3d be57 263d c91e 2c3c
000001e0: 2ccb c1bb 7cfc 7cbc 4f2f 19bd 9fc7 56bd
000001f0: 9a75 26bd 4273 85bd 4318 ff3c f698 b5be
00000200: 2cf8 8abd 9565 21bd c9c1 ecbc 3d93 dfbc
00000210: ccd9 bebc 2b3c b8bc 277a b2bc 80e0 93bc
00000220: e767 4dbc 6cb0 3cbc 5ecd 88bc 26ea ddbc
00000230: bd51 1dbd b16f 22bd 7058 27bd 6f4e 73bd
00000240: d61f 23bd 4818 a83d efa1 d9bc 0975 093e
00000250: 0a72 a43e 11c8 903c 9e33 cabb 062b 66bc
00000260: f992 90bc 4dbf c4bc 9603 eebc d369 e5bc
00000270: 1cee ffbc 8686 22bd 3718 30bd 464b 33bd
00000280: faad 2cbd a2d5 2cbd 78bb 59bd 8fb3 7abd
00000290: 3549 44bd 7da3 92bd e56e 48be 0267 ef3d
000002a0: 36de fa3d 63a9 933e cd1f 0c3c b745 8abc
000002b0: 73d2 d3bc 01c3 f6bc 7b80 1abd eba4 32bd
000002c0: 7eca 33bd 73b3 41bd 68b0 64bd c060 72bd
000002d0: cfcf 78bd e923 77bd f51a 77bd c95c 92bd
000002e0: a444 a3bd 8ac1 89bd aa96 b7bd 4bd2 5abe
000002f0: db46 9b3d 8c02 ea3d 8d28 873e 7fde 423b
00000300: 8924 b3bc 5855 01bd 49ce 12bd be9c 33bd
00000310: b029 4abd 5d2f 4fbd 0ad0 58bd 41a1 7dbd
00000320: e56b 86bd c43d 89bd cf49 8abd 5c24 8fbd
00000330: 5352 a8bd 061e babd 2c49 a1bd 8195 cfbd
00000340: 1e1c 67be f514 813d a5b3 da3c 69aa 12bf
00000350: 9b40 c13d 9a5c 403d 022e 023d b608 c63c
00000360: 3988 8b3c ee68 ac3c 7364 cd3c df50 dd3c
00000370: 8227 4e3d 5bc6 b73d 1fdc f43d 2c9a ff3d
00000380: 339a a03d 615d 713c 3e9c cfbc 49b4 1ebd
00000390: 57b6 79bb b91d c33d dfef e2bb b3f1 02bd
000003a0: 95c6 b2be 820a 08be d6c7 c1bd b11f 96bd
000003b0: ccb6 80bd 3f66 55bd 62d5 46bd 04a3 42bd
000003c0: 484b 28bd e0c7 eebc 6317 a5bc 89b9 86bc
000003d0: 6b17 91bc 0717 abbc ba37 8ebc 929c 6cbc
000003e0: 2419 edbc 1c9c 443b bf80 113e 6fe4 11be
000003f0: 380a 3e3d d306 00bf d370 653d 4cd1 f63c
0.075296775 0.19372223 -0.04502561 -0.0684265 -0.07518791 -0.07774365 -0.08423962 -0.089516655
-0.08928996 -0.09070671 -0.09839192 -0.10098878 -0.101863675 -0.101078145 -0.1030143 -0.11543076
-0.12461124 -0.11291897 -0.13398923 -0.25647014 0.0063178255 0.073994726 0.20250554 -0.040240433
-0.06328758 -0.06992319 -0.07248879 -0.07941364 -0.084154904 -0.083859526 -0.08673574 -0.09373337
-0.095860906 -0.0976758 -0.09703218 -0.09784476 -0.110736 -0.120435506 -0.10764968 -0.12962879
-0.25242028 0.0067460206 0.10793655 0.2515188 -0.004088243 -0.029031508 -0.03717097 -0.04157777
-0.04965514 -0.05519885 -0.05533675 -0.059459243 -0.067897886 -0.07084936 -0.0723689 -0.07235572
-0.07491246 -0.08802231 -0.0977818 -0.084691554 -0.107804835 -0.23108745 0.053570405 -0.017435268
-0.36485127 -0.11462668 -0.07809252 -0.05943929 -0.050297093 -0.0423618 -0.034492634 -0.030497465
-0.022532716 -0.008314713 0.0026670324 0.008007108 0.0013815175 -0.010174805 -0.01726748 -0.02431691
-0.044149224 -0.015762545 0.12302686 -0.11521786 0.029904004 -0.59292114 0.01565952 -0.009415771
0.0017996695 0.024096342 0.041755475 0.05753808 0.053317055 0.040449277 0.043673262 0.07397498
0.10625698 0.12252568 0.089899555 0.04000434 0.009929342 0.0093882065 0.05621173 0.17714982
-0.015861087 0.09193028 -0.4019115 0.1073683 0.079381056 0.058060657 0.04190282 0.029079169
0.026845383 0.03337464 0.041587222 0.05027399 0.057793226 0.057562247 0.04061102 0.010505387
-0.0059141126 -0.015441056 -0.037398633 -0.052436467 -0.040639497 -0.06516124 0.031139499 -0.35468262
-0.06785616 -0.039403517 -0.028900998 -0.027291888 -0.023297213 -0.022489628 -0.021786762 -0.018051386
-0.012536979 -0.011516672 -0.01669949 -0.02708919 -0.03840803 -0.0396573 -0.040855825 -0.059400972
-0.039825283 0.08207756 -0.026566474 0.13423552 0.32118255 0.017673524 -0.006170704 -0.0140483435
-0.017648207 -0.024017 -0.029054444 -0.028004562 -0.03124147 -0.039679073 -0.042991843 -0.04377296
-0.042158104 -0.042195924 -0.0531573 -0.061206397 -0.04792138 -0.07160089 -0.19573553 0.11689569
0.122494146 0.2884017 0.008552504 -0.016878946 -0.025857186 -0.030122282 -0.037720185 -0.04361431
-0.043894283 -0.047290277 -0.055832297 -0.0591743 -0.060745057 -0.06033698 -0.060328443 -0.071466036
-0.079720765 -0.06726368 -0.08964284 -0.21369283 0.07581874 0.11426267 0.26398125 0.0029734669
-0.021868007 -0.03157553 -0.03584126 -0.043850653 -0.049356163 -0.05058228 -0.052932777 -0.06192136
-0.06563548 -0.06701234 -0.06752359 -0.06989357 -0.08218827 -0.09087758 -0.078752846 -0.101359375
-0.2256932 0.06302825 0.02669699 -0.57291275 0.09436151 0.04696331 0.031782158 0.024174076
0.01703273 0.021046128 0.025072312 0.027016101 0.050330646 0.0897338 0.11956047 0.12480578
0.07841911 0.014731736 -0.025343057 -0.038746152 -0.0038103068 0.095271535 -0.0069255675 -0.031968784
-0.3491713 -0.13285258 -0.09461944 -0.073302634 -0.06284866 -0.052099463 -0.04854334 -0.047518745
-0.04108742 -0.029148042 -0.020152753 -0.016445892 -0.017711362 -0.020885004 -0.017360557 -0.014441626
-0.028942652 0.0030000275 0.14209269 -0.14247297 0.046396464 -0.5001041 0.0560158 0.030129097

bias f4 [16]
00000000: 6c89 8ebc bafa acbc 2d6c dbbb a52a 1b3e
00000010: 3bb4 913c bbdc 95bd 7bfb 313e 52dd a03b
00000020: 47c3 afbb 1fc0 c8bb 8830 e43c ec3d b43d
00000030: ed84 c5bc 4269 99bc e33a acbc f1c4 c6bb
-0.017399512 -0.02111565 -0.006696245 0.15152986 0.017786136 -0.073174916 0.17381088 0.004909196
-0.005363855 -0.0061264182 0.027855173 0.08800873 -0.024111236 -0.018726949 -0.021024173 -0.0060659577

weight f4 [16, 21]
00000000: 0dd6 523d 6963 54be e532 e3bd e395 b2bd
00000010: 77d7 89bd e363 47bd 1889 fbbc a54d 56bc
00000020: 229d 803b 44dc a83c 5ac1 193d 25eb 613d
00000030: b960 953d 471d b33d 1ca2 d43d a4d9 fb3d
00000040: 5f69 103e 1b50 243e 1f22 393e aa14 523e
00000050: d8e6 663d 1108 b63d b6d0 493c e9f1 4b3d
00000060: a6e9 c93c 5538 243b 8057 98bc b1b1 1abd
00000070: b645 73bd 4e78 acbd 31b2 d8bd 3740 fbbd
00000080: dd2b 11be 54ab 21be 24f5 29be 6c72 32be
00000090: 74dc 42be c5d7 57be 2f0f 68be 55c5 70be
000000a0: ed7a 79be 06c0 283e 83ed 253d c2fa 39be
000000b0: b081 4d3c 8e56 c5bc 37ec 8dbd f301 dfbd
000000c0: 2adf 08be a57b 1ebe 1d73 3dbe a2c3 68be
000000d0: 6e73 86be 61cc 90be a54f 92be 2793 86be
000000e0: 814c 7bbe b413 86be 0409 99be 6f0d a9be
000000f0: 0b8c b3be cc6d c5be 89e3 123d 7c28 f7be
00000100: ef8f b83e ca95 12bd e79a 39bd 21c2 23bd
00000110: f12e 2bbd 1d23 61bd 0c54 60bd 5695 89bc
00000120: 8eb9 4f3d 9db2 e03d 26e3 023e e90a c23d
00000130: c1eb d93b 47d3 a1bd 7026 f6bd ce0f 0dbe
00000140: b255 43be ef90 96be 0520 cdbe 70ff 7fbb
00000150: ac5c 813d e077 873e dbad 213e 8f28 0b3e
00000160: 510a ec3d f526 c73d d401 a53d 07bb 773d
00000170: 9304 333d f2b8 ee3c eb30 443c f445 98bb
00000180: 8309 b2bc 3e0d 16bd afa6 58bd ebfd 90bd
00000190: 40e3 babd 1175 e1bd e0ee 04be 4fd3 1dbe
000001a0: 363d 2a3c feb3 fe3d f8e6 753e e8e3 2e3e
000001b0: 42c8 093e 1e85 cf3d 1277 913d d20b 2e3d
000001c0: 2545 803c db97 2cbc 6aa9 17bd 1630 82bd
000001d0: e06f b7bd cb9b e7bd 9ce3 08be 8fa0 1cbe
000001e0: ce84 30be b469 43be 34c0 53be f4d1 62be
000001f0: ebe7 71be ce37 ec3d 39e5 43bc aa9b e7be
00000200: 53b8 a6be 2bb5 a7be f68b adbe 51b5 b1be
00000210: c3e7 b0be c957 b0be d267 b7be ae89 c5be
00000220: b108 cdbe 690e cdbe df40 c7be 153f b9be
00000230: 7305 b4be 025f c7be 4985 e6be b8e6 ffbe
00000240: 7670 07bf 476d 11bf d1d8 423d 1aa5 fbbe
00000250: ccc8 b63e e004 1dbd da14 42bd cf12 33bd
00000260: c99e 35bd 55a5 71bd ffc4 6bbd efbf 9ebc
00000270: 9c30 463d 814b dc3d 2735 003e ca3b bc3d
00000280: f3e0 613b 175c aabd 7cc4 febd 88ee 10be
00000290: f11b 46be d952 98be e62d cfbe f0e1 b1bb
000002a0: 2239 913d 677e 8a3e c301 263e 7287 0e3e
000002b0: 632a f23d 02c8 cb3d 07e0 a33d cf3c 7b3d
000002c0: e9f3 343d fa79 dd3c 79df 153c 7ec7 12bc
000002d0: 09e6 d2bc 1a87 27bd b598 6dbd 17be 9bbd
000002e0: de51 c5bd c73c eebd eb97 0cbe ed99 24be
000002f0: 75a7 f33a 1f67 0f34 9387 28b4 c966 fc32
00000300: 5d16 d433 eceb 8034 877e fbb3 b59b 32b4
00000310: fbd8 72b3 9dbc 56b2 6ce0 f7b3 9dfc 0eb4
00000320: 5aea 3134 3626 56b3 4e28 53b3 3d43 0cb3
00000330: 288b ee33 ddce 0933 1d36 8732 8eab 83b3
00000340: 84c9 fa33 088a 0bb4 a8f9 06bf fcd9 8c3e
00000350: bc6d 06be c903 0fbe 3efd 04be 7aa8 04be
00000360: 1e67 11be e5fb 0dbe afa9 c9bd ce06 dcbc
00000370: 885e 073d 4f63 513d 9d29 9d3c 2744 84bd
00000380: e4e8 1cbe 0bff 45be 0306 58be f3a8 85be
00000390: 0375 babe 7032 f1be acf5 c93c f77a 963c
000003a0: 408a 67be e85d e7bd 3dbb b0bd 630a 84bd
000003b0: 8f69 34bd fd94 bbbc 5784 1aba 9397 9f3c
000003c0: 56c8 193d 3a23 693d 6134 9c3d 882f c23d
000003d0: 673c e33d fa5b 013e 0831 153e 2f1f 283e
000003e0: 730e 3d3e 0668 513e bbc6 683e a899 9b3d
000003f0: 8493 d33c 45b1 65be 1e37 ebbd 6937 b8bd
0.051473666 -0.20741047 -0.11093692 -0.08719995 -0.0673055 -0.048679244 -0.03070502 -0.013080035
0.0039249817 0.020612843 0.03753791 0.055155892 0.07293839 0.087458186 0.103824824 0.12297371
0.14102696 0.16046183 0.18079422 0.20515695 0.056372494 0.08888257 0.012317827 0.04979125
0.024647545 0.002505799 -0.01859641 -0.037767116 -0.059392653 -0.08421384 -0.10580862 -0.122681074
-0.14176889 -0.15788013 -0.1659742 -0.17426461 -0.19029409 -0.21078403 -0.22662042 -0.23512776
-0.24363299 0.16479501 0.040509712 -0.18162063 0.012543127 -0.024089124 -0.0692982 -0.10889044
-0.1336638 -0.15476854 -0.18500943 -0.22730878 -0.2625994 -0.2828093 -0.2857639 -0.26284143
-0.24540903 -0.26186907 -0.2988969 -0.33018062 -0.35067782 -0.3856033 0.035861526 -0.48273075
0.36047313 -0.03578738 -0.045313742 -0.039980058 -0.041792814 -0.054965127 -0.054767653 -0.016794842
0.050714068 0.10971568 0.12781963 0.09474737 0.0066504185 -0.07901626 -0.1201905 -0.1377556
-0.19075659 -0.2940745 -0.4006349 -0.0039062165 0.06316504 0.26458645 0.15788977 0.1358969
0.11525405 0.09724227 0.08056989 0.060481098 0.043705534 0.029140923 0.011974554 -0.004647011
-0.021733051 -0.036633722 -0.052893337 -0.07079681 -0.09125376 -0.11008657 -0.12981749 -0.15412639
0.01039057 0.124366745 0.24013889 0.17079127 0.13455299 0.10132812 0.07102789 0.04249174
0.01565797 -0.010534252 -0.0370268 -0.06356828 -0.08956885 -0.11309012 -0.13368076 -0.15295623
-0.17238161 -0.19083291 -0.20678788 -0.22150403 -0.23623626 0.115340814 -0.011956506 -0.4523595
-0.32562503 -0.32755408 -0.33895844 -0.34708646 -0.3455182 -0.34441975 -0.35821396 -0.38581604
-0.40045694 -0.40050057 -0.3891668 -0.3618094 -0.35160407 -0.38939673 -0.45023564 -0.49980712
-0.52905977 -0.5680737 0.047570053 -0.491494 0.3570007 -0.038334727 -0.047383167 -0.04371911
-0.044340882 -0.058995564 -0.057560917 -0.01937863 0.0483862 0.10756589 0.12520276 0.09191091
0.0034466356 -0.08318346 -0.1243982 -0.14153492 -0.19346596 -0.29750708 -0.40464705 -0.005428545
0.07090975 0.27049562 0.1621161 0.13918856 0.11824491 0.09950258 0.08001714 0.06133729
0.044177923 0.027035702 0.009147518 -0.008958695 -0.025744455 -0.040900327 -0.05800696 -0.07604616
-0.096347556 -0.11632686 -0.13729827 -0.16074343 0.0018589335 1.3355428e-07 -1.5695541e-07 2.9383402e-08
9.876087e-08 2.4013514e-07 -1.17111135e-07 -1.6634188e-07 -5.654236e-08 -1.2499325e-08 -1.1542656e-07 -1.3316681e-07
1.6569666e-07 -4.986051e-08 -4.9163923e-08 -3.2657443e-08 1.1108051e-07 3.208594e-08 1.5740676e-08 -6.1313685e-08
1.1678188e-07 -1.2995599e-07 -0.52724695 0.2751006 -0.13127798 -0.13966288 -0.12987229 -0.12954894
-0.14199492 -0.13865621 -0.09846818 -0.026858713 0.033049136 0.0511201 0.019184882 -0.064583115
-0.15323216 -0.19335572 -0.21096043 -0.2610546 -0.36417398 -0.47108793 0.024653278 0.018369181
-0.22611332 -0.11297208 -0.08629463 -0.064472936 -0.04404598 -0.022898192 -0.0005894354 0.019481456
0.03754457 0.05691836 0.07627178 0.09481722 0.11095505 0.12632743 0.14569485 0.16418146
0.18462543 0.20449838 0.2273206 0.07597667 0.025827177 -0.22430904 -0.11485122 -0.08994944

bias f4 [16]
00000000: 0496 b83d 2952 c03d a988 0f3e 244e 863e
00000010: daac da3c bc1a c33d 0c1c 0a3e caca 8a3e
00000020: bada df3c ea38 1833 60cc 6e3e 920b b23d
00000030: 35b9 b33d 295d 593e 4541 6bbd 0e7c 853e
0.09012988 0.09390671 0.14016975 0.26231492 0.02669375 0.095265836 0.13487262 0.2710784
0.027325977 3.544202e-08 0.2332015 0.08693613 0.0877556 0.21226944 -0.057435293 0.2607121
