vehicle/autoware_raw_vehicle_cmd_converter/src/vehicle_adaptor/autoware_vehicle_adaptor/vehicle_models/vehicle_model_4.pth (torch, 56844 bytes, 30 tensors)

weight f4 [16, 20]
0	0xbe457ef7	-0.19286714
1	0x3e0a0f35	0.13482364
2	0xbde45b95	-0.111502804
3	0xbde5e8fc	-0.11226079
4	0xbde8bbbe	-0.11363934
5	0xbddf30ff	-0.10898017
6	0xbdd490a5	-0.10379151
7	0xbdc46b26	-0.095907494
8	0xbda59d5c	-0.080866545
9	0xbd850328	-0.06494743
10	0xbd7d2400	-0.06180191
11	0xbd043354	-0.032275513
12	0x3c4b56db	0.012410845
13	0x3d55e193	0.052217077
14	0x3dcfe6e6	0.10151462
15	0x3e15214f	0.14563487
16	0x3e37104e	0.17877313
17	0x3e5be34d	0.21473427
18	0x3e8031b8	0.25037932
19	0x3e914e6d	0.28380147
20	0x3ddcc6ac	0.10780081
21	0x3e692a85	0.22770126
22	0x3df70910	0.120622754
23	0x3db20f66	0.08694343
24	0x3d45dc49	0.048305783
25	0x3c115a4d	0.008871627
26	0xbcebb8cd	-0.028774643
27	0xbd769655	-0.06020196
28	0xbd9e37e9	-0.07725508
29	0xbdae7bfd	-0.08519743
30	0xbdab41ea	-0.083621815
31	0xbd91d28d	-0.071202375
32	0xbd4f50ab	-0.05061404
33	0xbcc52168	-0.02406378
34	0x3c63635d	0.0138786705
35	0x3d80b1a2	0.06283881
36	0x3df82420	0.12116265
37	0x3e442361	0.19154121
38	0x3e882320	0.26589298
39	0x3eb180ba	0.34668523
40	0xbd0aa15d	-0.033845294
41	0xbc0c98f9	-0.008581393
42	0xbe3a7914	-0.1821025
43	0xbe2b254d	-0.16713448
44	0xbe1a0997	-0.1504272
45	0xbdfe5bf8	-0.124198854
46	0xbdc3b270	-0.095555186
47	0xbdaa2a64	-0.083088666
48	0xbd863d83	-0.06554701
49	0xbd57192b	-0.052514236
50	0xbd3ed709	-0.046591792
51	0xbd1d22be	-0.03836321
52	0xbd00c68b	-0.031439345
53	0xbcdbfd91	-0.026854308
54	0xbc9ce65c	-0.019152813
55	0xbc16ee43	-0.009212079
56	0xbc246c7a	-0.010035628
57	0xbc52f566	-0.01287589
58	0xbc8901a6	-0.016724419
59	0xbcae6b04	-0.021291263
60	0xbe8138f1	-0.25238755
61	0xbe0e405c	-0.13891739
62	0xbe0440d4	-0.12915355
63	0xbdf0f5f8	-0.11765665
64	0xbdd424f5	-0.103586115
65	0xbdc3bb14	-0.09557167
66	0xbdba15b5	-0.090861715
67	0xbdafb5e8	-0.08579618
68	0xbdb436e9	-0.08799536
69	0xbdb29f0f	-0.08721744
70	0xbda9c19f	-0.082888834
71	0xbd981fd3	-0.07427945
72	0xbd8f34a7	-0.069924645
73	0xbd82bbb5	-0.063834585
74	0xbd6e8c1c	-0.058239087
75	0xbd5ce27d	-0.053926934
76	0xbd80d6a4	-0.062909395
77	0xbd97bcc9	-0.07409055
78	0xbdbdc876	-0.092667505
79	0xbdf6b237	-0.120457105
80	0xbe48e147	-0.19617186
81	0x38b0c45a	8.428907e-05
82	0xbf015376	-0.50517976
83	0xbee91a4e	-0.4552788
84	0xbec83c0f	-0.3910832
85	0xbea2ee73	-0.31822547
86	0xbe7a69f0	-0.24454474
87	0xbe3b5305	-0.18293388
88	0xbe0cdbfd	-0.13755794
89	0xbdd6692f	-0.10469281
90	0xbd9ba539	-0.07599873
91	0xbd306f47	-0.043074872
92	0xbc154901	-0.009111644
93	0x3c8d28e0	0.017231405
94	0x3d2a9054	0.04164155
95	0x3d89ce6a	0.067288235
96	0x3db4905c	0.08816597
97	0x3dccaadf	0.099935286
98	0x3de24cc4	0.11049798
99	0x3e012326	0.12611064
100	0xbe87fddb	-0.26560864
101	0xbe0acae1	-0.13553955
102	0xbe081a43	-0.13291268
103	0xbdf4fb9b	-0.119620524
104	0xbdd9baf8	-0.106313646
105	0xbdc61362	-0.09671666
106	0xbdb63e7e	-0.08898638
107	0xbda5f739	-0.081037946
108	0xbd95c113	-0.073122166
109	0xbd89e0c7	-0.06732326
110	0xbd78fb15	-0.060786325
111	0xbd4b5901	-0.049645428
112	0xbd1cd63a	-0.03829024
113	0xbce669bf	-0.028126596
114	0xbc7bc43c	-0.01536661
115	0xbb81acca	-0.0039573656
116	0xbba187ba	-0.00492951
117	0xbc813a0e	-0.015774753
118	0xbcdcd8df	-0.026958881
119	0xbca23f41	-0.019805552
120	0xbb5c8acc	-0.0033652065
121	0xbc9c5faa	-0.019088585
122	0xbc9c39d3	-0.019070541
123	0xbca94d38	-0.020666704
124	0xbca8c217	-0.020600362
125	0xbcafbe77	-0.021453125
126	0xbcd66e91	-0.026175769
127	0xbd0a68f6	-0.033791505
128	0xbd1d447d	-0.038395394
129	0xbd2f14fb	-0.042744618
130	0xbd47cc9e	-0.048779123
131	0xbd4a2d32	-0.049359508
132	0xbd4f3d9f	-0.050595876
133	0xbd652b9d	-0.055949796
134	0xbd776ee7	-0.0604085
135	0xbd80d77b	-0.062911
136	0xbd737bbc	-0.059444174
137	0xbd87b073	-0.06625452
138	0xbd92d70a	-0.07169922
139	0xbd9a105d	-0.07522652
140	0xbe2ee4c6	-0.17079458
141	0x3e827f6b	0.25487837
142	0x3d8a4134	0.06750718
143	0x3d58bea8	0.0529162
144	0x3d31e6c3	0.043432962
145	0x3d04a36c	0.032382414
146	0x3cc819a9	0.024426298
147	0x3cc42f08	0.023948207
148	0x3cde623d	0.027146453
149	0x3d3a6970	0.04551071
150	0x3d79268a	0.06082777
151	0x3d885505	0.06656841
152	0x3d98f76f	0.07469069
153	0x3dbe644e	0.09296475
154	0x3de9c2fe	0.11414145
155	0x3e0cf308	0.13764584
156	0x3e2abeb2	0.16674307
157	0x3e4825b0	0.19545627
158	0x3e659640	0.22420597
159	0x3e812f2c	0.25231302
160	0xbcc08968	-0.02350302
161	0x3d16c6bd	0.036810625
162	0xbe824584	-0.2544366
163	0xbe78b330	-0.24287105
164	0xbe6a2354	-0.22865039
165	0xbe58ed2b	-0.21184222
166	0xbe44ff74	-0.19238073
167	0xbe314e4e	-0.17315027
168	0xbe1bf50d	-0.15230198
169	0xbe00718f	-0.12543319
170	0xbdc9be72	-0.09850778
171	0xbd94a243	-0.072575115
172	0xbd314ecc	-0.043288037
173	0xbca303ef	-0.019899337
174	0x3b9e428d	0.004829711
175	0x3cf8846c	0.030336581
176	0x3d650970	0.055917203
177	0x3d929170	0.07156646
178	0x3dba66ba	0.09101625
179	0x3dd97611	0.106182225
180	0xbe854a72	-0.2603336
181	0xbe137101	-0.14398576
182	0xbe0b9fc8	-0.1363517
183	0xbdfa2a7d	-0.12215135
184	0xbddd4343	-0.10803845
185	0xbdc7076b	-0.09718212
186	0xbdb18ae1	-0.08669067
187	0xbd9ead16	-0.07747857
188	0xbd91655b	-0.0709941
189	0xbd800204	-0.062503844
190	0xbd639365	-0.05556049
191	0xbd320adc	-0.043467388
192	0xbd028871	-0.031868402
193	0xbcaab47f	-0.02083802
194	0xbc08ecb4	-0.008357216
195	0x3b03c3cc	0.0020105718
196	0x3a7b1af2	0.00095789053
197	0xbc18f51f	-0.009335785
198	0xbcdb35c5	-0.026759038
199	0xbc38f85d	-0.011289683
200	0xbb84f47e	-0.004057466
201	0xbce86a01	-0.02837086
202	0xbc6ef475	-0.01458465
203	0xbc929ad3	-0.017896092
204	0xbc974ade	-0.018468317
205	0xbca78019	-0.020446824
206	0xbcd83cec	-0.026396237
207	0xbd0c34af	-0.03422993
208	0xbd2719bb	-0.040796023
209	0xbd3c1325	-0.045916695
210	0xbd580a2e	-0.052744083
211	0xbd626e65	-0.05528106
212	0xbd691dfd	-0.056913365
213	0xbd845566	-0.06461601
214	0xbd900ba9	-0.07033474
215	0xbd998484	-0.074959785
216	0xbd968a3d	-0.073505856
217	0xbda5c029	-0.08093292
218	0xbdad08e0	-0.084489584
219	0xbdb8bbb3	-0.09020176
220	0x3dfbf28e	0.12302123
221	0xbb7307d0	-0.0037083514
222	0xbd91b326	-0.07114248
223	0xbd5003e0	-0.050784945
224	0xbd074fb2	-0.033034988
225	0xbc947d2c	-0.018126093
226	0xbc06bd01	-0.008223773
227	0x3c2d46f5	0.0105759995
228	0x3cebd5cc	0.02878847
229	0x3d39e11e	0.045380704
230	0x3d852e76	0.06503002
231	0x3d99fe24	0.075191766
232	0x3da49ef5	0.08038131
233	0x3dbae6a5	0.09126023
234	0x3dc54f19	0.09634227
235	0x3dd0ddd6	0.10198562
236	0x3ddd6342	0.108099476
237	0x3de03da0	0.10949254
238	0x3ddb629c	0.107121676
239	0x3dd461cc	0.10370216
240	0xbe30ca2a	-0.1726462
241	0x3e6792a3	0.22614531
242	0x3d2c6972	0.042092748
243	0x3ccd8235	0.025086502
244	0x3c8b265c	0.016986065
245	0x3ba8c4a4	0.0051503945
246	0xbc028837	-0.007967046
247	0xbc3d4fa9	-0.011554637
248	0xbc26b3a3	-0.010174665
249	0x3c073aca	0.0082537625
250	0x3ccb90c7	0.024849309
251	0x3d0add28	0.033902317
252	0x3d3abed6	0.04559215
253	0x3d7f8540	0.062382936
254	0x3dafba85	0.08580498
255	0x3de463c3	0.111518405

bias f4 [16]
0	0x3c68db1a	0.014212394
1	0x3ebfe4d8	0.3747928
2	0x3d6b2bfe	0.057415
3	0x3e7c4a1a	0.24637643
4	0x3e88dbbb	0.2673014
5	0x3e6c40bf	0.23071574
6	0x3e101d36	0.14073643
7	0xbd0443f7	-0.03229138
8	0x3dd7d017	0.10537737
9	0x3e7b790b	0.24557893
10	0x3e1e1fd7	0.15441833
11	0xbe07e445	-0.13270672
12	0xbcb89ccd	-0.022535706
13	0x3bd90bf6	0.0066237403
14	0x3dce61fa	0.10077281
15	0x3d4e9151	0.050431553

weight f4 [16, 20]
0	0x33b9355b	8.624439e-08
1	0x33eaef55	1.09400084e-07
2	0xb3de82b6	-1.0361457e-07
3	0x32ddc7f0	2.5818707e-08
4	0xb46a422d	-2.1817023e-07
5	0x3445da22	1.8426411e-07
6	0xb41f0c4b	-1.4812501e-07
7	0x342ba9c2	1.5987374e-07
8	0xb39d6623	-7.329461e-08
9	0x3499ab24	2.8622992e-07
10	0x33d77640	1.0033227e-07
11	0x34ca0904	3.7631992e-07
12	0x34ca122e	3.763866e-07
13	0xb40abc06	-1.2920654e-07
14	0xb454e7c3	-1.9828353e-07
15	0x33129fde	3.4138672e-08
16	0x341385c1	1.3739101e-07
17	0x32a9fe21	1.9789754e-08
18	0x3224858b	9.5764205e-09
19	0x31fee2fd	7.4181785e-09
20	0x333f02a8	4.447307e-08
21	0xb455976b	-1.9892256e-07
22	0x326d75fd	1.3822043e-08
23	0x340bacb7	1.3008217e-07
24	0xb3543a3d	-4.9413064e-08
25	0xb18aa62b	-4.0352197e-09
26	0x32c9a3c5	2.3473953e-08
27	0x319b9807	4.5283772e-09
28	0x34844c59	2.4642466e-07
29	0x32e3db5c	2.6526031e-08
30	0x32c19329	2.2535078e-08
31	0xb42618e9	-1.5469017e-07
32	0xb386d8fb	-6.27933e-08
33	0x3204cf1c	7.7305025e-09
34	0xb368b020	-5.4176894e-08
35	0xb45db2c8	-2.0647269e-07
36	0x33c12cd6	8.9954185e-08
37	0xb29d782f	-1.8331859e-08
38	0x33691a32	5.4273364e-08
39	0xb469b68b	-2.1766225e-07
40	0x3a71c175	0.0009222248
41	0x33d5e663	9.9604925e-08
42	0x35363122	6.787178e-07
43	0x356cca1c	8.821096e-07
44	0x355a77c5	8.1385616e-07
45	0x34cf4f22	3.861433e-07
46	0x349e3fac	2.947612e-07
47	0x33e07d0e	1.045356e-07
48	0xb30538a5	-3.1017994e-08
49	0x3571c5dd	9.0067425e-07
50	0x34a01f15	2.9824938e-07
51	0x353ec06b	7.106052e-07
52	0x35da1ad5	1.6250075e-06
53	0x359927b1	1.141094e-06
54	0x35a30715	1.2146508e-06
55	0x35d1fd34	1.5645405e-06
56	0x35ea636c	1.7463294e-06
57	0x363a7e9d	2.7789858e-06
58	0x362e6db4	2.5991876e-06
59	0x364565e4	2.9414596e-06
60	0x39a18089	0.0003080408
61	0xb2aa3bbf	-1.9817774e-08
62	0xb42c33c1	-1.6037576e-07
63	0xb499771e	-2.858514e-07
64	0xb49a9de9	-2.879963e-07
65	0xb446c951	-1.8513425e-07
66	0xb4445a48	-1.8286767e-07
67	0xb4155aca	-1.3909735e-07
68	0xb3eebd10	-1.1117129e-07
69	0xb4422033	-1.8079372e-07
70	0xb3d14b3e	-9.7460074e-08
71	0x344e841b	1.9233305e-07
72	0xb482bfc3	-2.4353912e-07
73	0xb4392600	-1.7243292e-07
74	0x311c5228	2.2747688e-09
75	0xb3fc7813	-1.1756506e-07
76	0xb3eeb056	-1.1114814e-07
77	0xb437349d	-1.7062344e-07
78	0xb19418f2	-4.310203e-09
79	0xb454ca45	-1.9817624e-07
80	0x3d7a6a32	0.061136432
81	0xbd60b571	-0.054860536
82	0xbd66d364	-0.05635394
83	0xbd4c6b5e	-0.04990708
84	0xbd30a3df	-0.04312503
85	0xbd0c2d4c	-0.034222886
86	0xbcce07ca	-0.025150198
87	0xbc8b9aab	-0.017041525
88	0xbbe14ffe	-0.006875991
89	0x3b350040	0.0027618557
90	0x3c343cfb	0.011000867
91	0x3c9cc17d	0.019135231
92	0x3cfb9899	0.030712413
93	0x3d2c8f34	0.042128757
94	0x3d61047a	0.05493591
95	0x3d88fbd4	0.066886574
96	0x3da1183f	0.07865953
97	0x3db8ad61	0.090174444
98	0x3dd0b4b9	0.1019072
99	0x3de9e1bb	0.11420008
100	0x3cfc3d7b	0.030791035
101	0xbe31cb55	-0.17362721
102	0xbe251350	-0.16120648
103	0xbe284a4c	-0.16434592
104	0xbe2c1851	-0.16806151
105	0xbe307f32	-0.17236021
106	0xbe356eee	-0.17718098
107	0xbe39055c	-0.1806845
108	0xbe3e6c01	-0.18595888
109	0xbe444c42	-0.19169715
110	0xbe497b46	-0.19675931
111	0xbe4ec7ba	-0.20193377
112	0xbe56283c	-0.20913786
113	0xbe5b9c50	-0.21446347
114	0xbe6074d6	-0.2191957
115	0xbe685422	-0.22688344
116	0xbe6c8ecd	-0.23101349
117	0xbe7078fe	-0.23483655
118	0xbe77dbe1	-0.24204971
119	0xbe7beea7	-0.24602757
120	0x3ccec62a	0.025240976
121	0xbc2adeac	-0.010429066
122	0xbcb29454	-0.021799244
123	0xbcc8fbf6	-0.024534207
124	0xbcdb1d80	-0.026747465
125	0xbcea4254	-0.02859608
126	0xbcfe469e	-0.031039532
127	0xbd09595c	-0.033532485
128	0xbd179135	-0.037003715
129	0xbd2596cf	-0.040427025
130	0xbd34ffed	-0.044189382
131	0xbd43af14	-0.04777439
132	0xbd556fc6	-0.05210855
133	0xbd64c8ed	-0.05585568
134	0xbd76f214	-0.060289457
135	0xbd83beb9	-0.06432862
136	0xbd8a6466	-0.06757431
137	0xbd8e9a33	-0.06963005
138	0xbd98279a	-0.074294284
139	0xbd9df016	-0.077118084
140	0xbbbe3bf5	-0.0058054873
141	0xbdb58842	-0.0886388
142	0xbdde1a12	-0.10844816
143	0xbde8f54b	-0.11374911
144	0xbdf5aa93	-0.11995425
145	0xbe01558a	-0.12630287
146	0xbe0953dc	-0.13410896
147	0xbe0e2f75	-0.13885291
148	0xbe162856	-0.14663824
149	0xbe1ebeef	-0.15502523
150	0xbe2592f9	-0.16169347
151	0xbe2db282	-0.16962627
152	0xbe364835	-0.17800982
153	0xbe3f0c87	-0.18657123
154	0xbe4685d8	-0.19386995
155	0xbe4fccd1	-0.20292975
156	0xbe59714e	-0.21234629
157	0xbe607efb	-0.21923439
158	0xbe6b00e6	-0.22949561
159	0xbe733ac9	-0.23752894
160	0xb394b457	-6.924591e-08
161	0xb4183865	-1.417662e-07
162	0xb3ce91d5	-9.619149e-08
163	0xb3bd62d7	-8.818977e-08
164	0x34d07aef	3.8832465e-07
165	0xb3a2c948	-7.580326e-08
166	0xb4ca43b9	-3.7674707e-07
167	0xb423f911	-1.5271168e-07
168	0xb43679c2	-1.6994366e-07
169	0xb3bcf03f	-8.798133e-08
170	0x3369c33a	5.4427097e-08
171	0x34d95bd2	4.0486208e-07
172	0x3482d85a	2.4371803e-07
173	0xb4bf431e	-3.5625357e-07
174	0x323a6904	1.0850503e-08
175	0xb23da3ba	-1.1038475e-08
176	0x329007a2	1.6767277e-08
177	0x34a612b4	3.0933518e-07
178	0xb4c62e42	-3.691403e-07
179	0xb1c7bd64	-5.8131935e-09
180	0x3a493186	0.0007674921
181	0xbe2c83ec	-0.16847199
182	0xbe1da584	-0.1539517
183	0xbe19417f	-0.14966391
184	0xbe167c02	-0.14695743
185	0xbe144b8d	-0.14481945
186	0xbe11c3ca	-0.14234844
187	0xbe0f81c8	-0.14014351
188	0xbe0db1c8	-0.1383735
189	0xbe0b2151	-0.13586928
190	0xbe08080c	-0.1328432
191	0xbe0671fb	-0.13129418
192	0xbe034c3f	-0.12822054
193	0xbe007545	-0.12544735
194	0xbdfef1c2	-0.124484554
195	0xbdf89162	-0.121371046
196	0xbdf450c3	-0.119294666
197	0xbdeffa2e	-0.1171764
198	0xbde9aa36	-0.11409418
199	0xbde53c60	-0.11193156
200	0xbb923a6b	-0.0044625304
201	0xbe8f6158	-0.28003955
202	0xbe91d8d0	-0.28485727
203	0xbe939743	-0.2882634
204	0xbe94b689	-0.29045513
205	0xbe9655de	-0.29362386
206	0xbe97560e	-0.29557842
207	0xbe9943e7	-0.29934618
208	0xbe9a6f7d	-0.30163184
209	0xbe9c46ba	-0.3052271
210	0xbe9dbd7d	-0.3080863
211	0xbe9f6097	-0.3112838
212	0xbea1c1d5	-0.31593195
213	0xbea2f001	-0.31823733
214	0xbea53136	-0.32264107
215	0xbea82ddb	-0.32847485
216	0xbeaa112e	-0.33216232
217	0xbeab7198	-0.33485103
218	0xbeae6f45	-0.34069267
219	0xbeb0923c	-0.34486568
220	0x3d56ddfb	0.05245779
221	0xbf598f4b	-0.8498427
222	0xbf3c7b0d	-0.7362526
223	0xbf388017	-0.7207045
224	0xbf351f6f	-0.7075109
225	0xbf30fff6	-0.69140565
226	0xbf2cdd76	-0.6752542
227	0xbf27f877	-0.656135
228	0xbf22d54d	-0.6360672
229	0xbf1de4aa	-0.6167704
230	0xbf18401b	-0.5947282
231	0xbf12d147	-0.5735058
232	0xbf0dc75c	-0.55382323
233	0xbf081646	-0.53158987
234	0xbf030533	-0.5117981
235	0xbefbaff4	-0.4915768
236	0xbef244f1	-0.47318223
237	0xbee84616	-0.4536597
238	0xbee04573	-0.43802986
239	0xbed88efe	-0.42296594
240	0x3a23c857	0.00062478095
241	0xb98149ae	-0.00024659693
242	0xb98059b1	-0.00024480888
243	0xb9869af8	-0.00025673932
244	0xb98566c6	-0.0002544431
245	0xb98f5c6e	-0.0002734395
246	0xb99773dd	-0.0002888729
247	0xb9988544	-0.0002909099
248	0xb999d2b6	-0.00029339426
249	0xb99ed77d	-0.0003029666
250	0xb99c9f6d	-0.0002987342
251	0xb9a5ec48	-0.00031647296
252	0xb9a277c4	-0.0003098828
253	0xb9a2dc3c	-0.00031063135
254	0xb9ab9f0e	-0.00032734167
255	0xb9b377f2	-0.00034230907

bias f4 [16]
0	0xb4075f74	-1.260758e-07
1	0xb3fb36a1	-1.1698035e-07
2	0x3a2209fa	0.0006181296
3	0x39234428	0.00015570282
4	0x3d92cb3c	0.0716767
5	0x3cdf84cd	0.027285004
6	0x3cf108de	0.029423174
7	0x3c670de6	0.014102435
8	0xb45cca4b	-2.056269e-07
9	0xb8b38b0b	-8.561284e-05
10	0x3d4eb754	0.050467804
11	0x3cc610cb	0.02417793
12	0x3a1daea8	0.00060151005
13	0x3d9de9dc	0.07710621
14	0x3ce6055d	0.02807873
15	0x3daeec96	0.08541219

weight f4 [8, 16]
0	0x3dc9c6f6	0.09852402
1	0x3b61b074	0.003443745
2	0x3d52e316	0.051486097
3	0xbe56baf8	-0.2096976
4	0xbeafa671	-0.34306672
5	0xbd9d7e44	-0.07690099
6	0xbb948bff	-0.0045332904
7	0x3e25cbf1	0.16191079
8	0x3e4646df	0.19362973
9	0xbd94dddb	-0.07268878
10	0xbb9cec25	-0.004788893
11	0xbdcd2c68	-0.100182354
12	0x3e079f3e	0.1324434
13	0x3dd93c06	0.10607152
14	0x3e4be445	0.19911297
15	0x3e19597d	0.14975543
16	0x3e878e5b	0.26475796
17	0x3e9441d2	0.28956467
18	0x3d64c874	0.05585523
19	0xbe2f5ab8	-0.1712445
20	0xbee71aa9	-0.45137528
21	0xbe10fea7	-0.14159642
22	0x3d98bb9e	0.0745766
23	0x3e6fcb42	0.2341738
24	0x3da01e0e	0.078182325
25	0xbe198567	-0.14992295
26	0x3dc4718d	0.095919706
27	0xbdbe7ab6	-0.09300749
28	0x3e58107a	0.21100035
29	0x3ede0468	0.43362737
30	0x3da9daed	0.0829371
31	0x3efba1e4	0.4914695
32	0x3e4e2f65	0.20135267
33	0x3e9ef27f	0.31044385
34	0xbdb86e1a	-0.09005375
35	0xbd5b091a	-0.053475477
36	0xbede4cb5	-0.43417898
37	0xbe2c2a8e	-0.16813108
38	0xbdb8068c	-0.08985624
39	0x3e1b65a6	0.15175495
40	0xbe3d4fe3	-0.18487506
41	0xbe8422c5	-0.25807777
42	0xbdb7a501	-0.08967019
43	0x3d3dff88	0.04638627
44	0x3e15cded	0.14629336
45	0x3e5b437d	0.21412463
46	0xbe3c2bcd	-0.18376084
47	0x3e727334	0.23676759
48	0x3d71b7fe	0.05901336
49	0xbd600e8a	-0.054701366
50	0x3d6dc9e8	0.05805388
51	0x3eeeabb9	0.4661539
52	0x3ee1b123	0.44080457
53	0x3f05f832	0.5233184
54	0x3d8d6ff7	0.06906121
55	0x3e272a2f	0.16324686
56	0x3ebc7748	0.36809754
57	0x3f07302f	0.528079
58	0x3daed89a	0.08537407
59	0xbd404e20	-0.046949506
60	0x3e0aea70	0.13565993
61	0x3cee5633	0.029093837
62	0x3ea58a9a	0.32332307
63	0x3deea354	0.11652246
64	0x3ea1dc61	0.31613448
65	0xbe863889	-0.26215008
66	0x3d77d9c4	0.06051041
67	0x3f1a6075	0.6030343
68	0x3f1e0fd5	0.6174291
69	0x3f0e1611	0.5550242
70	0x3dc46c3b	0.09590956
71	0xbe58ffa9	-0.21191277
72	0x3e709969	0.23496021
73	0x3f13c128	0.5771661
74	0x3d9b81be	0.07593106
75	0x3d84fcef	0.06493556
76	0xbe61f84c	-0.22067374
77	0x3e8052dc	0.25063217
78	0x3eb9c44e	0.3628258
79	0x3f1295fc	0.5726011
80	0x3e840aec	0.25789583
81	0x3ea67d4b	0.32517466
82	0x3dcc7a15	0.09984223
83	0xbe5734dc	-0.21016258
84	0xbe9de0db	-0.30835614
85	0xbe054856	-0.13015875
86	0x3dce73d1	0.10080684
87	0x3e6e5e90	0.2327826
88	0x3d60cad7	0.054880943
89	0xbe275124	-0.16339546
90	0x3df5673f	0.11982583
91	0xbdeab5f2	-0.114604846
92	0x3e5cf707	0.21578608
93	0x3ed984be	0.42484087
94	0x3d20a84d	0.039223004
95	0x3efe258c	0.4963802
96	0x3dcfb3bb	0.10141703
97	0xbcb27821	-0.021785798
98	0x3d432936	0.047646724
99	0xbe5419b9	-0.20712937
100	0xbea1ea22	-0.31623942
101	0xbdf571a6	-0.11984567
102	0xbb114ffa	-0.0022172914
103	0x3e1dd6f4	0.1541403
104	0x3e505032	0.20343092
105	0xbddb8c1f	-0.10720085
106	0xbace7bb9	-0.0015753425
107	0xbe0654bb	-0.1311826
108	0x3e030dac	0.12798184
109	0x3de3acec	0.111169666
110	0x3e5615f6	0.20906815
111	0x3e1cd96f	0.1531732
112	0x3e52993d	0.20566268
113	0x3e86a397	0.26296684
114	0x3dd42bc5	0.10359911
115	0xbe74998d	-0.238867
116	0xbe6a8a5f	-0.22904347
117	0xbe06735a	-0.1312994
118	0x3e059c98	0.13048017
119	0x3e4ccf3c	0.20000929
120	0x3d85af81	0.06527615
121	0xbe348207	-0.17627726
122	0x3e0ad1b3	0.13556556
123	0xbe0e640b	-0.13905351
124	0x3e3ddf81	0.18542291
125	0x3eb62594	0.35575545
126	0x3d35ead6	0.04441341
127	0x3ed4a7a6	0.41534156

bias f4 [8]
0	0x3d694066	0.05694618
1	0x3e27f976	0.16403756
2	0x3e0ebae8	0.13938487
3	0x3cbe8da3	0.023260897
4	0x3d68f88f	0.05687767
5	0x3e23a7d2	0.15981987
6	0x3d1fede5	0.039045233
7	0x3e29ee51	0.16594817

weight f4 [8, 16]
0	0x334396fb	4.553929e-08
1	0xb407cf0b	-1.2648177e-07
2	0xb79f353d	-1.8979068e-05
3	0x39992dfe	0.000292167
4	0x3d2484f9	0.040165875
5	0x3d8d7147	0.069063716
6	0x3caecd1a	0.021338034
7	0x3e04e80b	0.12979142
8	0xb3820be5	-6.05576e-08
9	0x3c69e331	0.014275358
10	0x3e966c7e	0.29379648
11	0x3eaef5db	0.34171948
12	0x3bb2f72f	0.0054615955
13	0xbe41039c	-0.18849033
14	0x3de87d2f	0.11352002
15	0xbe28288b	-0.16421716
16	0x34182cc7	1.4172393e-07
17	0xb4cd1414	-3.8198834e-07
18	0x3a479c15	0.00076145056
19	0xb9574423	-0.0002052938
20	0x3d23076e	0.039802007
21	0xbd48c4f7	-0.049015965
22	0xbd06d008	-0.032913238
23	0x3cb8e9a0	0.022572339
24	0x32059818	7.776201e-09
25	0x3b43719f	0.0029822362
26	0x3c22a5fa	0.009927267
27	0xbe1546a8	-0.14577734
28	0x394fae96	0.00019806097
29	0x3dd86846	0.105667636
30	0xbd422344	-0.047396913
31	0x3ddaa34a	0.10675676
32	0x3402d9f6	1.2186487e-07
33	0x337d2524	5.8939932e-08
34	0x3a6e01d6	0.0009079253
35	0xb8f71bfd	-0.00011783091
36	0xbd36901c	-0.044571027
37	0x3dfeff9c	0.12451097
38	0x3c094b7b	0.008379812
39	0x3401a884	1.2075367e-07
40	0xb4799d54	-2.3247168e-07
41	0x3c310450	0.010804251
42	0xbdc1b6b9	-0.0945868
43	0xbe97b10d	-0.29627267
44	0xb9ad50f4	-0.00033057446
45	0x3e95e4f3	0.29276237
46	0x3da3f900	0.08006477
47	0x3e82815e	0.25489324
48	0xb4097d27	-1.280465e-07
49	0x32b9007b	2.1537053e-08
50	0x3aa7e45e	0.0012809148
51	0xb94e722b	-0.00019688222
52	0x3df710af	0.12063729
53	0xbd435d88	-0.04769662
54	0xbd0130b7	-0.0315406
55	0xbb8481af	-0.00404378
56	0xb38178d8	-6.029012e-08
57	0x3c1ee9d3	0.009699303
58	0xbce632c0	-0.028100371
59	0xbe2a2e75	-0.16619284
60	0x395e4673	0.00021197814
61	0x3e1be22c	0.15222996
62	0xbd3c39cb	-0.045953553
63	0x3e0b6950	0.13614392
64	0x339e2a48	7.365139e-08
65	0xb420e1a8	-1.4983254e-07
66	0x3a461101	0.00075556344
67	0x3662730a	3.3743586e-06
68	0x3cc85812	0.024456058
69	0x3db5e786	0.0888205
70	0x3d18646d	0.03720515
71	0x3dfc0f32	0.12307586
72	0xb4bfd043	-3.5728053e-07
73	0xbe752a11	-0.23941828
74	0x3e013e6f	0.12621473
75	0x3dda6694	0.106640965
76	0x3c5de7ad	0.013544005
77	0xbd9b2465	-0.07575301
78	0x3dc04354	0.09387842
79	0xbd87f623	-0.06638744
80	0xb458813c	-2.0163583e-07
81	0xb3960893	-6.986479e-08
82	0x3aa3a80e	0.0012485997
83	0xb9533797	-0.00020143237
84	0x3de8930c	0.11356172
85	0xbd48755c	-0.048940048
86	0xbd0252b3	-0.03181715
87	0xbbf367eb	-0.0074281595
88	0x33b7d69e	8.56064e-08
89	0x3c3079da	0.010771239
90	0xbd114b7f	-0.03547239
91	0xbe2a09d8	-0.16605318
92	0x3982431f	0.0002484554
93	0x3e1d2ddb	0.15349524
94	0xbd43619c	-0.04770051
95	0x3e0cdc20	0.13755846
96	0xb45802ee	-2.0117633e-07
97	0x339ae803	7.2133865e-08
98	0x3aaae019	0.0013036757
99	0xb951feb0	-0.00020026672
100	0x3e00698e	0.12540266
101	0xbd415c3f	-0.047207113
102	0xbd01b73b	-0.031668883
103	0xbbbf55fe	-0.0058391085
104	0x31f8c8a8	7.240562e-09
105	0x3c16ad5a	0.009196604
106	0xbce884b4	-0.02838359
107	0xbe278c25	-0.16362055
108	0x3993d784	0.00028198597
109	0x3e1c29fa	0.15250388
110	0xbd3b589d	-0.045738805
111	0x3e0d208f	0.13781951
112	0x32569372	1.2489965e-08
113	0x30c3dc6a	1.4250763e-09
114	0x3a9eb186	0.001210735
115	0xb9518e4c	-0.00019984803
116	0x3e0700ff	0.13183974
117	0xbd4847b0	-0.04889649
118	0xbd014120	-0.03155625
119	0xbc300de6	-0.010745501
120	0xb3116b45	-3.3858004e-08
121	0x3c169f2d	0.009193224
122	0xbc5389d4	-0.012911279
123	0xbe284a14	-0.16434509
124	0x3946f09b	0.00018972384
125	0x3e1c8a78	0.15287197
126	0xbd42fcb2	-0.04760427
127	0x3e0ee2c5	0.13953693

bias f4 [8]
0	0x3d2ce004	0.042205825
1	0x3e1089a6	0.14115009
2	0xbe094cef	-0.13408254
3	0x3e03ffd2	0.12890556
4	0x3d4a11df	0.04933345
5	0x3e02a9a9	0.12760033
6	0x3e035e5a	0.12828961
7	0x3e00c56c	0.1257531

weight_ih_l0 f4 [72, 19]
0	0x3ba7a82b	0.0051164827
1	0xbdc2cb72	-0.0951146
2	0x3c6158c5	0.013754074
3	0x3e169cec	0.14708298
4	0xbe68bb24	-0.22727638
5	0xbed83c67	-0.42233583
6	0x3d02f548	0.0319722
7	0xbdaf749f	-0.085671656
8	0x3cdea3b8	0.027177677
9	0xbc6b2b8c	-0.014353644
10	0xbe8e2eb0	-0.27769995
11	0xbefd2e52	-0.49449402
12	0xbe8b7723	-0.27239332
13	0xbe3078de	-0.17233607
14	0xbe8c625e	-0.27418798
15	0xbe8d24d3	-0.27567157
16	0xbe8df2d1	-0.27724317
17	0xbef43fc2	-0.47704893
18	0x3d458efc	0.048232064
19	0xbe42ddba	-0.19029894
20	0x3d85005a	0.06494208
21	0x3e51add5	0.20476468
22	0x3e525b1e	0.20542571
23	0x3cc856b5	0.024455408
24	0xbe263ffc	-0.16235346
25	0x3e548875	0.20755179
26	0x3db4a626	0.08820753
27	0x3e447461	0.1918502
28	0x3ec014e0	0.37515926
29	0xbf048d0a	-0.5177771
30	0xbf4b3933	-0.79384154
31	0xbf0f54ac	-0.55988574
32	0xbc1cba7d	-0.009565947
33	0xbf0fed69	-0.56221634
34	0xbf105194	-0.5637448
35	0xbf1171ee	-0.5681447
36	0xbdb7b905	-0.089708365
37	0x3ca35be0	0.01994127
38	0x3db768fb	0.0895557
39	0xbde00367	-0.10938149
40	0x3d8b4674	0.06800547
41	0x3cee89fe	0.029118534
42	0xbdf9da50	-0.12199843
43	0xbec6d0f7	-0.38831303
44	0x3e3c4147	0.18384276
45	0xbd88d93e	-0.06682061
46	0x3e5c6929	0.2152449
47	0x3eb1a199	0.34693602
48	0xbeac9c32	-0.33712918
49	0xbeb97cac	-0.3622793
50	0xbeaa2cf6	-0.33237427
51	0x3d4f0bb3	0.050548267
52	0xbeab16e1	-0.33415893
53	0xbeaabcec	-0.3334726
54	0xbeab1df9	-0.33421305
55	0xbe95be59	-0.29246786
56	0x3e83fd44	0.25779164
57	0xbded670c	-0.1159192
58	0x3cfae476	0.030626517
59	0x3c4f6c16	0.012660047
60	0xbda567ce	-0.0807644
61	0xbe62c6ff	-0.22146223
62	0xbf1f499c	-0.62221694
63	0x3be4ae05	0.0069787526
64	0x3ceffb7c	0.029294722
65	0x3c7c20b6	0.015388658
66	0x3ed092c6	0.4073698
67	0xbe223090	-0.15838838
68	0x3ee3af05	0.44469467
69	0xbd91fcf0	-0.07128322
70	0x3d8b6c97	0.06807821
71	0xbd90f65a	-0.07078238
72	0xbd946e0a	-0.07247551
73	0xbd9762f0	-0.07391918
74	0xbf0de7db	-0.5543191
75	0x3f80deed	1.0068032
76	0xbe2770d9	-0.16351642
77	0xbe050593	-0.12990408
78	0xbd5061e5	-0.05087461
79	0xbd58e0a3	-0.052948605
80	0xbe288e43	-0.16460519
81	0xbe85d478	-0.26138663
82	0xbd3fc669	-0.046820078
83	0xbdf61d63	-0.12017324
84	0xbd4212c4	-0.047381178
85	0xbd82de78	-0.06390089
86	0xbed10553	-0.40824375
87	0xbf0606f0	-0.52354336
88	0xbed1d0a0	-0.4097948
89	0xbe47e9b0	-0.19522738
90	0xbed196c1	-0.4093533
91	0xbed3ea0b	-0.41389498
92	0xbed632b1	-0.4183555
93	0xbf047073	-0.51734084
94	0xbe5bd38e	-0.2146742
95	0xbcfbbf29	-0.0307308
96	0xbc1090c7	-0.00882358
97	0x3dc5cf75	0.0965871
98	0x3df4ddfb	0.11956402
99	0xbc8f3f46	-0.017486226
100	0xbe00732d	-0.12543936
101	0x3df75123	0.120760225
102	0x3cad9bd7	0.021192474
103	0x3defd7e3	0.11711099
104	0x3e719bb5	0.23594554
105	0xbeb24cd7	-0.3482425
106	0xbf0c1a11	-0.54727274
107	0xbebd3484	-0.3695413
108	0xbd97ac9b	-0.07405969
109	0xbebe955d	-0.3722333
110	0xbebec61c	-0.3726052
111	0xbec0cc21	-0.37655738
112	0x3d1b518c	0.037919566
113	0xbe316f84	-0.17327696
114	0x3e1fccb6	0.15605435
115	0xbc8e16bb	-0.017344823
116	0x3d4566d5	0.04819377
117	0x3df5bc04	0.11998752
118	0xbdbb0553	-0.09131875
119	0xbe3ba9cd	-0.18326493
120	0x3d89aceb	0.067224346
121	0x3b504484	0.003177912
122	0x3db6e828	0.08930999
123	0x3eefc2d5	0.46828333
124	0xbe04a7b1	-0.12954594
125	0xbebe6eec	-0.37194002
126	0xbddb3d8f	-0.10705101
127	0x3cceab33	0.025228119
128	0xbdde22f0	-0.108465075
129	0xbdde8186	-0.108645484
130	0xbddf417f	-0.10901164
131	0x3dd9ec10	0.106407285
132	0x3ec9dc97	0.3942611
133	0xbd45c0e0	-0.048279643
134	0x3e2f5654	0.17122775
135	0x3e2f1ca8	0.17100775
136	0x3d655051	0.0559848
137	0x3e0d6b41	0.13810445
138	0xbd8675bb	-0.06565424
139	0x3e7207ca	0.23635784
140	0x3e527bd6	0.20555052
141	0x3e77c3a6	0.24195728
142	0x3e34e9ab	0.17667262
143	0xbd51542e	-0.05110567
144	0xbd89e03c	-0.067322224
145	0xbd929d73	-0.07158937
146	0xbdc4f94f	-0.09617864
147	0xbd9523fc	-0.07282254
148	0xbd90f1c4	-0.07077363
149	0xbd8f1702	-0.0698681
150	0xbe5bf7b9	-0.21481217
151	0x3effb5e4	0.4994346
152	0x3d08cb41	0.033396963
153	0x3d07f36a	0.033191122
154	0x3ddb7201	0.10715104
155	0x3e1585a8	0.14601767
156	0x3d5d4ca4	0.05402817
157	0xbcd28ac1	-0.025700929
158	0x3dcc7fa0	0.0998528
159	0x3d021344	0.031756654
160	0x3dc271c8	0.09494358
161	0x3d59fa52	0.05321724
162	0x3d7b8b95	0.061412413
163	0x3d9783d1	0.07398189
164	0x3d4ccdc6	0.05000093
165	0xbbd928f1	-0.006627195
166	0x3d488830	0.048958004
167	0x3d4f124d	0.050554562
168	0x3d5370ec	0.051621363
169	0x3e28e98c	0.16495341
170	0x3ed40169	0.41407326
171	0x3d8b4bcc	0.068015665
172	0xbe0e2bf1	-0.1388395
173	0xbdc872ba	-0.09787507
174	0xbb8c3c75	-0.004279668
175	0xbea2af0a	-0.3177417
176	0xbeef08c9	-0.4668639
177	0xbdedcbac	-0.11611113
178	0xbdfe4f92	-0.124175206
179	0xbdd5f8df	-0.10447859
180	0x3e990437	0.29886028
181	0xbe51a05b	-0.20471327
182	0xbe161538	-0.14656532
183	0xbe3c0b0b	-0.18363588
184	0xbdb41fcc	-0.08795127
185	0xbe3e0343	-0.18555932
186	0xbe40fb65	-0.188459
187	0xbe4628ab	-0.19351451
188	0xbf08283f	-0.5318641
189	0x3e0516a9	0.12996925
190	0xbc2dba96	-0.010603568
191	0xbc943802	-0.018093113
192	0xbd6cfdd8	-0.05785927
193	0xbdcfc614	-0.10145202
194	0x3e268d6e	0.16264889
195	0x3d825583	0.06363966
196	0xbb4e35e0	-0.0031465217
197	0x3c546798	0.012964152
198	0x3c9a390d	0.018826032
199	0xbe3e5ab7	-0.18589292
200	0xbd49fed1	-0.049315277
201	0xbe7c6e00	-0.24651337
202	0xbd6668c8	-0.05625227
203	0xbd08f8e4	-0.033440486
204	0xbd6e6064	-0.058197394
205	0xbd644132	-0.055726238
206	0xbd655fb8	-0.055999488
207	0x3e6e652e	0.23280784
208	0x3edb964b	0.42888102
209	0xbd58dedf	-0.05294692
210	0xbcc5dfe2	-0.024154607
211	0x3d0a79af	0.033807453
212	0xba0f3237	-0.00054624997
213	0x3d8fe3bc	0.07025859
214	0xbd09421c	-0.033510312
215	0x3d399fa7	0.045318272
216	0xbc48733c	-0.012234505
217	0x3d503b05	0.050837535
218	0x3eab07bd	0.3340434
219	0xbde99d65	-0.11406974
220	0xbe48906e	-0.19586346
221	0xbe00c3ef	-0.12574743
222	0x3cfb62fe	0.030686852
223	0xbe0173d9	-0.12641849
224	0xbe00972d	-0.12557669
225	0xbdffcc0e	-0.12490092
226	0x3e48486f	0.19558881
227	0x3e15dd72	0.14635256
228	0xbc906b44	-0.017629273
229	0xbe477902	-0.19479755
230	0xbe525e2c	-0.20543736
231	0xbe1edb52	-0.15513352
232	0xbe20cc2f	-0.1570289
233	0xbe1fb990	-0.1559813
234	0xbe40bbbc	-0.18821615
235	0xbe3978bb	-0.18112461
236	0xbe28a7fc	-0.16470331
237	0x3e0ebf8b	0.13940255
238	0xbe301322	-0.17194799
239	0xbec1107b	-0.37707886
240	0xbe4121be	-0.18860528
241	0xbe47a5cb	-0.19496839
242	0xbe437610	-0.19088006
243	0xbe413e93	-0.18871526
244	0xbe417b39	-0.18894662
245	0xbe871859	-0.26385763
246	0xbe68133b	-0.22663586
247	0x3d4fbdf8	0.050718278
248	0x3da0eb97	0.07857435
249	0x3e467ad7	0.19382797
250	0x3db920c6	0.09039454
251	0x3da614bb	0.08109423
252	0xbe5306c0	-0.20608044
253	0x3e5f99b3	0.21835975
254	0x3dc020ff	0.093812935
255	0x3e6b6555	0.22987874

weight_hh_l0 f4 [72, 18]
0	0xbc91e0ec	-0.017807446
1	0x3e8756b0	0.26433325
2	0xbe909f0a	-0.28246337
3	0x3eeaf7ae	0.4589209
4	0xbeb4711e	-0.35242552
5	0xbcc4ac79	-0.024008023
6	0x3cd95b57	0.026532812
7	0x3ea85ade	0.32881826
8	0xbdcf2c40	-0.10115862
9	0xbea175e3	-0.31535253
10	0xbec0a111	-0.37622884
11	0xbc5ba047	-0.013404912
12	0x3da08d37	0.078394346
13	0xbe52a46a	-0.20570531
14	0xbdc60fbd	-0.096709706
15	0x38ad28a2	8.256851e-05
16	0x3e2c5629	0.16829742
17	0xbe4fbb7a	-0.2028636
18	0xbef9c0b5	-0.48779836
19	0x3e9171b7	0.2840707
20	0xbee0d925	-0.43915668
21	0x3e0b2768	0.13589251
22	0xbec11cfc	-0.37717426
23	0xbeb883cc	-0.36038053
24	0xbea25f93	-0.31713542
25	0x3e779910	0.24179482
26	0xbe81127d	-0.25209418
27	0xbebbf26e	-0.36708397
28	0xbe98a40f	-0.29812667
29	0x3f2190ab	0.6311137
30	0x3efe17a7	0.4962742
31	0xbef76add	-0.48323718
32	0xbdb26dd7	-0.087123565
33	0xbdeb724a	-0.11496408
34	0x3df1923f	0.11795472
35	0x3dcd363e	0.100201115
36	0xbe201bda	-0.15635625
37	0x3da4e40d	0.0805131
38	0x3c862f72	0.016380046
39	0x3d91e66c	0.071240276
40	0x3db21ef2	0.086973086
41	0xbb3f9fa5	-0.0029239443
42	0x3e15166a	0.14559332
43	0x3ba4d59f	0.0050303484
44	0xbd3fd77f	-0.046836372
45	0xbd5bfe15	-0.05370911
46	0xbce426c6	-0.02785052
47	0x3dae0815	0.08497635
48	0x3da27194	0.079318196
49	0xbc9a39a0	-0.018826306
50	0x3c413062	0.0117913205
51	0xbdc17994	-0.09447017
52	0xbd01d2d6	-0.03169521
53	0xbd1a4ac8	-0.037668973
54	0xbf0d8f2f	-0.55296606
55	0x3ee0ae9c	0.43883216
56	0xbe5fbd66	-0.21849594
57	0xbe0c2b40	-0.13688374
58	0xbe8867fd	-0.26641837
59	0xbedbb826	-0.42913932
60	0xbec4827d	-0.38380805
61	0x3d10a346	0.03531196
62	0x3ccb4da3	0.024817294
63	0xbe41b6b3	-0.1891735
64	0xbea3c6dd	-0.31987658
65	0x3e199e95	0.150019
66	0x3edb5090	0.42834902
67	0xbde97243	-0.11398747
68	0x3ecc6bf9	0.39926127
69	0x3e9d600c	0.3073734
70	0x3ccfc753	0.0253636
71	0xbf0dcd14	-0.5539105
72	0xbe9f6ff0	-0.3114009
73	0x3e858a5b	0.2608212
74	0xbeacc979	-0.3374746
75	0x3dfa5c1a	0.12224598
76	0xbe8f045c	-0.27933013
77	0xbe0d9042	-0.13824561
78	0xbd86bb30	-0.06578672
79	0x3f0148ac	0.50501513
80	0xbe969ec1	-0.29417995
81	0xbe465ae9	-0.19370617
82	0xbf001f0b	-0.5004737
83	0x3f178a89	0.5919576
84	0x3e315f58	0.17321527
85	0xbee50dfa	-0.44737226
86	0xbe8b6f5b	-0.27233395
87	0x3eef6ac3	0.4676114
88	0x3d9e2658	0.07722157
89	0x3e1d26fb	0.15346901
90	0xbe9bd8e6	-0.30438918
91	0x3f100426	0.5625633
92	0xbf40b235	-0.7527192
93	0x3ef3a98d	0.47590294
94	0xbf30f092	-0.6911708
95	0xbe730a16	-0.23734316
96	0xbe46020e	-0.19336721
97	0x3ed00d56	0.40635175
98	0xbe18940d	-0.14900227
99	0xbf2cc1c2	-0.6748315
100	0xbe954287	-0.2915232
101	0x3ec317da	0.38104135
102	0x3e184e17	0.14873539
103	0xbf38dc40	-0.72211075
104	0xbe197934	-0.14987642
105	0x3db76e75	0.08956615
106	0x3d99e126	0.07513647
107	0xbcbc63ba	-0.022996772
108	0xbe943412	-0.28945976
109	0x3eff008f	0.49805114
110	0xbf087bbf	-0.5331382
111	0x3ef228eb	0.47296843
112	0xbeb9e3f4	-0.36306727
113	0xbe987cbb	-0.29782662
114	0xbceeb59d	-0.029139334
115	0x3d5a40f8	0.053284615
116	0xbbacc6a3	-0.005272703
117	0xbed856da	-0.42253762
118	0xbe1dfb11	-0.15427805
119	0x3ddb2252	0.106999055
120	0x3cf7ce93	0.03024987
121	0xbf088b08	-0.53337145
122	0x3dd9fe67	0.106442265
123	0xbcc74696	-0.02432565
124	0x3e5c451a	0.21510735
125	0xbea46712	-0.32109886
126	0x3d9119f8	0.07085031
127	0xbdcc5d0f	-0.09978687
128	0xbd64d3c6	-0.055866025
129	0xbd066ee0	-0.032820582
130	0x3da0ed1a	0.078577235
131	0x3e0baa67	0.13639222
132	0x3db234ef	0.087015025
133	0xbd8fbc00	-0.0701828
134	0x3d1a0cf4	0.03761001
135	0xbe306402	-0.1722565
136	0x3db60573	0.08887758
137	0xbda2c87d	-0.07948396
138	0xbe04c48b	-0.129656
139	0xbdf7c1f6	-0.12097542
140	0x3d989c4e	0.07451688
141	0x3c710965	0.0147117125
142	0xbd2902d7	-0.041262474
143	0xbeab9222	-0.33509928
144	0xbdc525cb	-0.09626349
145	0x3e3d2ee6	0.18474922
146	0xbe476574	-0.19472295
147	0x3c7793aa	0.015110889
148	0xbe501eca	-0.20324245
149	0xbd1c1d8d	-0.03811412
150	0xbdf46b54	-0.11934534
151	0x3dd2b9b3	0.102893256
152	0xbac6e9e0	-0.0015175901
153	0xbe425a26	-0.18979701
154	0xbdbcef56	-0.09225337
155	0x3e325ec9	0.1741897
156	0x3e1d6ca4	0.15373474
157	0xbe46f14e	-0.19427988
158	0x3ba84ec9	0.005136345
159	0xbdf7eccb	-0.121057115
160	0xbd236c4c	-0.0398982
161	0xbe5d28fe	-0.21597669
162	0xbed24259	-0.41066244
163	0x3ed14f2d	0.4088072
164	0xbeb28deb	-0.348739
165	0x3e745af4	0.23862821
166	0xbe4bbb04	-0.1989556
167	0xbea9a018	-0.33129954
168	0x3c8b796a	0.017025668
169	0x3e76ea6a	0.2411286
170	0xbda95323	-0.0826781
171	0xbe7921d0	-0.24329305
172	0xbe8e7b68	-0.27828526
173	0x3e08bbc6	0.1335288
174	0x3dd98eb0	0.106229186
175	0xbedcd6e5	-0.43132702
176	0x3bf94fa5	0.0076083713
177	0x3c920932	0.01782665
178	0x3e9ef46e	0.3104586
179	0xbe7ced02	-0.24699786
180	0xbdade9ba	-0.084918454
181	0xbdf7c0e9	-0.120973416
182	0xbd485905	-0.04891302
183	0xbd8697fb	-0.06571957
184	0xbbc2cecd	-0.0059450627
185	0x3e08c59f	0.13356636
186	0x3d944e32	0.07241477
187	0x3e8594f8	0.26090217
188	0xbe1be7f9	-0.1522521
189	0xbe282305	-0.16419609
190	0xbe3212f1	-0.17390038
191	0x3db1c273	0.08679666
192	0xbe8afed9	-0.27147558
193	0xbea14206	-0.31495684
194	0xbdcc0a4d	-0.09962902
195	0x3db4b356	0.08823268
196	0xbec48de4	-0.38389504
197	0xbe608247	-0.21924697
198	0xbe41e9bc	-0.18936819
199	0x3e59aba1	0.21256877
200	0xbdc58321	-0.096441515
201	0xbbb703d5	-0.0055851736
202	0xbe49311c	-0.1964764
203	0xbd96ace1	-0.07357193
204	0xbde77609	-0.1130181
205	0xbd8da688	-0.06916529
206	0xbdc541c8	-0.096316874
207	0xbe8de13d	-0.27710906
208	0xbdfcca2b	-0.12343248
209	0x3e4ef57c	0.20210832
210	0x3e68c20c	0.22730273
211	0x3dbc9400	0.09207916
212	0xbd809501	-0.0627842
213	0xbcfb8813	-0.030704534
214	0x3d89f3e7	0.06735974
215	0xbe68d9e0	-0.22739363
216	0xbd216461	-0.03940237
217	0x3e79cabd	0.24393745
218	0xbebc766a	-0.36809093
219	0x3dbfe8c8	0.093705714
220	0xbed32268	-0.41237187
221	0x3b6d78e1	0.003623538
222	0xbccfe9d6	-0.025380056
223	0x3e7c14a2	0.24617246
224	0xbdd5a754	-0.10432306
225	0xbe8a0a7e	-0.2696113
226	0xbe6028a8	-0.21890509
227	0x3e5c92cd	0.21540375
228	0x3e3b5c3c	0.18296903
229	0xbec36d6f	-0.3816943
230	0xbd9ad29a	-0.075597
231	0xbd59c3f6	-0.0531654
232	0xbcf3b147	-0.029747618
233	0xbe1e979e	-0.15487525
234	0x3dfb35f8	0.12266153
235	0xbe92741d	-0.28604212
236	0xbad23720	-0.0016038157
237	0xbb5e60f5	-0.0033932303
238	0x3dfed651	0.12443221
239	0x3e0f196c	0.13974541
240	0x3c9feb69	0.019521432
241	0xbd848155	-0.064699806
242	0xbce1ef08	-0.0275798
243	0xbd81838d	-0.063239194
244	0xbe764038	-0.24047935
245	0xbcfdb30b	-0.030969163
246	0xbe119e66	-0.1422058
247	0xbe772263	-0.24134211
248	0x3c1570c9	0.009121128
249	0xbe0826b8	-0.1329602
250	0xbe22a3e7	-0.15882836
251	0xbe9318a5	-0.2872974
252	0xbed0e4e6	-0.40799636
253	0x3ea59dfc	0.32347095
254	0xbea26901	-0.31720737
255	0xbd45f8c1	-0.048332933

bias_ih_l0 f4 [72]
0	0x3da6f6cd	0.08152542
1	0x3d32b262	0.04362715
2	0x3e8a4341	0.27004436
3	0x3d913846	0.070908114
4	0x3d6458bd	0.05574869
5	0x3e11b207	0.14228068
6	0x3e7d5420	0.24739122
7	0x3e322b3f	0.1739931
8	0x3e19a0fa	0.15002814
9	0x3e2a5a8f	0.16636108
10	0x3db9325a	0.09042807
11	0x3db1a475	0.08673946
12	0x3dfb9206	0.12283711
13	0x3e313489	0.17305197
14	0x3e80d7e5	0.25164714
15	0x3dc78715	0.09742562
16	0x3d4bde31	0.049772445
17	0x3db9f0a8	0.09079105
18	0x3e197d21	0.14989139
19	0x3db138b6	0.08653395
20	0x3ea17ec6	0.31542033
21	0x3e49e6d0	0.19716954
22	0x3e553052	0.20819214
23	0x3e0340ef	0.12817739
24	0x3dc558fa	0.096361116
25	0x3cfc77be	0.030818816
26	0xb972939a	-0.00023133904
27	0x3def3355	0.11679713
28	0x3e31e48f	0.17372344
29	0x3dbfccd8	0.09365243
30	0x3e13c0a1	0.14428951
31	0x3e3cb3b7	0.18427931
32	0x3d98418b	0.07434376
33	0x3e81a0f0	0.25318098
34	0x3e75961b	0.23983042
35	0x3e45ce30	0.19316936
36	0xbd489abc	-0.04897569
37	0xbc49f0b1	-0.012325452
38	0xbc8075c4	-0.015681155
39	0xbd657e16	-0.056028448
40	0xbc79b090	-0.01523985
41	0xbc4c7c03	-0.012480739
42	0xbd350a33	-0.04419918
43	0xbd65945e	-0.056049697
44	0x3dabbb29	0.08385307
45	0xbcea58f5	-0.028606871
46	0x3cd7fbe0	0.02636522
47	0xbc4c9dc9	-0.012488791
48	0xbccd46ba	-0.02505814
49	0xbc800eb6	-0.015632015
50	0x3e08811c	0.13330501
51	0xbb27e8b0	-0.002562087
52	0xbc95245f	-0.01820582
53	0xbcb4fc35	-0.022092918
54	0x3df37c7c	0.11888978
55	0x3e0408be	0.1289396
56	0x3e6ee653	0.23330049
57	0x3e74cc6e	0.23906109
58	0x3e5c0b44	0.21488672
59	0x3e21c3ba	0.1579732
60	0x3decd1f3	0.11563482
61	0x3e74c6f0	0.23904014
62	0x3c35b4f8	0.01109051
63	0x3e32bd3b	0.17454998
64	0x3e336cf2	0.17522028
65	0x3e033233	0.12812118
66	0x3db08beb	0.08620437
67	0x3e73e78f	0.23818801
68	0x3ddcbccd	0.107781984
69	0x3e099e39	0.13439263
70	0x3e6119da	0.21982518
71	0x3e5c3ec9	0.21508326

bias_hh_l0 f4 [72]
0	0x3da42283	0.08014395
1	0x3d31b2ed	0.043383528
2	0x3e8af4a8	0.27139783
3	0x3d9207f8	0.07130426
4	0x3d69db2c	0.057093784
5	0x3e11bce1	0.14232208
6	0x3e7f4ca6	0.24931583
7	0x3e3232de	0.17402217
8	0x3e19f647	0.15035354
9	0x3e2957af	0.16537355
10	0x3db90f43	0.09036114
11	0x3db42e9c	0.087979525
12	0x3dfc4db4	0.12319508
13	0x3e30ca70	0.17264724
14	0x3e8079ed	0.25093022
15	0x3dc722f9	0.097234674
16	0x3d4b5935	0.04964562
17	0x3dba265e	0.09089349
18	0x3e1a4b4b	0.15067784
19	0x3db16a40	0.08662844
20	0x3ea1d5bc	0.3160838
21	0x3e49af4e	0.1969578
22	0x3e550be9	0.20805325
23	0x3e01f663	0.12691645
24	0x3dc8c909	0.098039694
25	0x3cf7114d	0.030159617
26	0x38f45fcf	0.000116526724
27	0x3df3d7fb	0.119064294
28	0x3e31aa36	0.17350087
29	0x3dc28243	0.09497502
30	0x3e15d173	0.1463068
31	0x3e3bf0d9	0.18353595
32	0x3d963b1f	0.07335495
33	0x3e816976	0.25275773
34	0x3e75aba1	0.23991252
35	0x3e460895	0.19339211
36	0xbd48c5ff	-0.04901695
37	0xbc63850a	-0.013886699
38	0xbcb78814	-0.022403754
39	0xbd6b3d6a	-0.057431616
40	0xbca67663	-0.020320123
41	0xbc487947	-0.012235946
42	0xbd2811f1	-0.041032735
43	0xbd64e1a1	-0.05587924
44	0x3daad847	0.08342033
45	0xbd09d967	-0.033654597
46	0x3c9ac473	0.018892502
47	0xbc5e0ffc	-0.013553616
48	0xbce51b78	-0.0279672
49	0xbc6313ff	-0.013859748
50	0x3e08b5c1	0.13350584
51	0xbaa76646	-0.0012771569
52	0xbc8fb6ad	-0.017543161
53	0xbcb8b403	-0.022546774
54	0x3df43d12	0.11925711
55	0x3e048b48	0.12943757
56	0x3e6f9445	0.23396404
57	0x3e74fe66	0.2392517
58	0x3e5bf6ef	0.21480916
59	0x3e21ae2d	0.15789099
60	0x3deddf7d	0.11614893
61	0x3e74ed21	0.23918582
62	0x3c3de1d4	0.011589486
63	0x3e3402f7	0.17579256
64	0x3e32e670	0.17470717
65	0x3e01033a	0.12598887
66	0x3daec61a	0.085338786
67	0x3e757819	0.23971595
68	0x3dd89f57	0.10577267
69	0x3e0927b8	0.13394058
70	0x3e60c1b3	0.2194889
71	0x3e5c728d	0.21528073

weight f4 [16, 21]
0	0x3d9a3532	0.075296775
1	0x3e465f1f	0.19372223
2	0xbd386cc6	-0.04502561
3	0xbd8c2331	-0.0684265
4	0xbd99fc1e	-0.07518791
5	0xbd9f3810	-0.07774365
6	0xbdac85d2	-0.08423962
7	0xbdb75482	-0.089516655
8	0xbdb6dda8	-0.08928996
9	0xbdb9c471	-0.09070671
10	0xbdc981b4	-0.09839192
11	0xbdced335	-0.10098878
12	0xbdd09de7	-0.101863675
13	0xbdcf020f	-0.101078145
14	0xbdd2f929	-0.1030143
15	0xbdec66f6	-0.11543076
16	0xbdff342e	-0.12461124
17	0xbde74210	-0.11291897
18	0xbe093479	-0.13398923
19	0xbe83500e	-0.25647014
20	0x3bcf05c3	0.0063178255
21	0x3d978a8c	0.073994726
22	0x3e4f5d9d	0.20250554
23	0xbd24d327	-0.040240433
24	0xbd819ceb	-0.06328758
25	0xbd8f33e4	-0.06992319
26	0xbd947501	-0.07248879
27	0xbda2a39e	-0.07941364
28	0xbdac5968	-0.084154904
29	0xbdabbe8b	-0.083859526
30	0xbdb1a282	-0.08673574
31	0xbdbff748	-0.09373337
32	0xbdc452b9	-0.095860906
33	0xbdc80a40	-0.0976758
34	0xbdc6b8cf	-0.09703218
35	0xbdc862d5	-0.09784476
36	0xbde2c98e	-0.110736
37	0xbdf6a6e4	-0.120435506
38	0xbddc776f	-0.10764968
39	0xbe04bd69	-0.12962879
40	0xbe813d3b	-0.25242028
41	0x3bdd0db9	0.0067460206
42	0x3ddd0dd7	0.10793655
43	0x3e80c712	0.2515188
44	0xbb85f6ab	-0.004088243
45	0xbcedd37c	-0.029031508
46	0xbd184096	-0.03717097
47	0xbd2a4d74	-0.04157777
48	0xbd4b6330	-0.04965514
49	0xbd621830	-0.05519885
50	0xbd62a8ca	-0.05533675
51	0xbd738b89	-0.059459243
52	0xbd8b0e0c	-0.067897886
53	0xbd911978	-0.07084936
54	0xbd943625	-0.0723689
55	0xbd942f3c	-0.07235572
56	0xbd996bb4	-0.07491246
57	0xbdb4450a	-0.08802231
58	0xbdc841d3	-0.0977818
59	0xbdad72c4	-0.084691554
60	0xbddcc8c8	-0.107804835
61	0xbe6ca230	-0.23108745
62	0x3d5b6ca4	0.053570405
63	0xbc8ed468	-0.017435268
64	0xbebacdc9	-0.36485127
65	0xbdeac165	-0.11462668
66	0xbd9feef9	-0.07809252
67	0xbd73769d	-0.05943929
68	0xbd4e0453	-0.050297093
69	0xbd2d8391	-0.0423618
70	0xbd0d4826	-0.034492634
71	0xbcf9d5d2	-0.030497465
72	0xbcb89688	-0.022532716
73	0xbc083a6f	-0.008314713
74	0x3b2ec961	0.0026670324
75	0x3c03303f	0.008007108
76	0x3ab51409	0.0013815175
77	0xbc26b43a	-0.010174805
78	0xbc8d7488	-0.01726748
79	0xbcc73442	-0.02431691
80	0xbd34d5d1	-0.044149224
81	0xbc812074	-0.015762545
82	0x3dfbf582	0.12302686
83	0xbdebf757	-0.11521786
84	0x3cf4f93e	0.029904004
85	0xbf17c9ae	-0.59292114
86	0x3c804865	0.01565952
87	0xbc1a449b	-0.009415771
88	0x3aebe2e3	0.0017996695
89	0x3cc565b1	0.024096342
90	0x3d2b07ca	0.041755475
91	0x3d6bad0d	0.05753808
92	0x3d5a62fc	0.053317055
93	0x3d25ae24	0.040449277
94	0x3d32e2bc	0.043673262
95	0x3d978032	0.07397498
96	0x3dd99d42	0.10625698
97	0x3dfaeebe	0.12252568
98	0x3db81d42	0.089899555
99	0x3d23db97	0.04000434
100	0x3c22aeae	0.009929342
101	0x3c19d0fe	0.0093882065
102	0x3d663e45	0.05621173
103	0x3e3566c3	0.17714982
104	0xbc81ef1c	-0.015861087
105	0x3dbc45f1	0.09193028
106	0xbecdc758	-0.4019115
107	0x3ddbe3e9	0.1073683
108	0x3da29289	0.079381056
109	0x3d6dd103	0.058060657
110	0x3d2ba24b	0.04190282
111	0x3cee3770	0.029079169
112	0x3cdbead9	0.026845383
113	0x3d08b3d9	0.03337464
114	0x3d2a575d	0.041587222
115	0x3d4dec19	0.05027399
116	0x3d6cb897	0.057793226
117	0x3d6bc664	0.057562247
118	0x3d2657be	0.04061102
119	0x3c2c1ec9	0.010505387
120	0xbbc1cb2c	-0.0059141126
121	0xbc7cfc7c	-0.015441056
122	0xbd192f4f	-0.037398633
123	0xbd56c79f	-0.052436467
124	0xbd26759a	-0.040639497
125	0xbd857342	-0.06516124
126	0x3cff1843	0.031139499
127	0xbeb598f6	-0.35468262
128	0xbd8af82c	-0.06785616
129	0xbd216595	-0.039403517
130	0xbcecc1c9	-0.028900998
131	0xbcdf933d	-0.027291888
132	0xbcbed9cc	-0.023297213
133	0xbcb83c2b	-0.022489628
134	0xbcb27a27	-0.021786762
135	0xbc93e080	-0.018051386
136	0xbc4d67e7	-0.012536979
137	0xbc3cb06c	-0.011516672
138	0xbc88cd5e	-0.01669949
139	0xbcddea26	-0.02708919
140	0xbd1d51bd	-0.03840803
141	0xbd226fb1	-0.0396573
142	0xbd275870	-0.040855825
143	0xbd734e6f	-0.059400972
144	0xbd231fd6	-0.039825283
145	0x3da81848	0.08207756
146	0xbcd9a1ef	-0.026566474
147	0x3e097509	0.13423552
148	0x3ea4720a	0.32118255
149	0x3c90c811	0.017673524
150	0xbbca339e	-0.006170704
151	0xbc662b06	-0.0140483435
152	0xbc9092f9	-0.017648207
153	0xbcc4bf4d	-0.024017
154	0xbcee0396	-0.029054444
155	0xbce569d3	-0.028004562
156	0xbcffee1c	-0.03124147
157	0xbd228686	-0.039679073
158	0xbd301837	-0.042991843
159	0xbd334b46	-0.04377296
160	0xbd2cadfa	-0.042158104
161	0xbd2cd5a2	-0.042195924
162	0xbd59bb78	-0.0531573
163	0xbd7ab38f	-0.061206397
164	0xbd444935	-0.04792138
165	0xbd92a37d	-0.07160089
166	0xbe486ee5	-0.19573553
167	0x3def6702	0.11689569
168	0x3dfade36	0.122494146
169	0x3e93a963	0.2884017
170	0x3c0c1fcd	0.008552504
171	0xbc8a45b7	-0.016878946
172	0xbcd3d273	-0.025857186
173	0xbcf6c301	-0.030122282
174	0xbd1a807b	-0.037720185
175	0xbd32a4eb	-0.04361431
176	0xbd33ca7e	-0.043894283
177	0xbd41b373	-0.047290277
178	0xbd64b068	-0.055832297
179	0xbd7260c0	-0.0591743
180	0xbd78cfcf	-0.060745057
181	0xbd7723e9	-0.06033698
182	0xbd771af5	-0.060328443
183	0xbd925cc9	-0.071466036
184	0xbda344a4	-0.079720765
185	0xbd89c18a	-0.06726368
186	0xbdb796aa	-0.08964284
187	0xbe5ad24b	-0.21369283
188	0x3d9b46db	0.07581874
189	0x3dea028c	0.11426267
190	0x3e87288d	0.26398125
191	0x3b42de7f	0.0029734669
192	0xbcb32489	-0.021868007
193	0xbd015558	-0.03157553
194	0xbd12ce49	-0.03584126
195	0xbd339cbe	-0.043850653
196	0xbd4a29b0	-0.049356163
197	0xbd4f2f5d	-0.05058228
198	0xbd58d00a	-0.052932777
199	0xbd7da141	-0.06192136
200	0xbd866be5	-0.06563548
201	0xbd893dc4	-0.06701234
202	0xbd8a49cf	-0.06752359
203	0xbd8f245c	-0.06989357
204	0xbda85253	-0.08218827
205	0xbdba1e06	-0.09087758
206	0xbda1492c	-0.078752846
207	0xbdcf9581	-0.101359375
208	0xbe671c1e	-0.2256932
209	0x3d8114f5	0.06302825
210	0x3cdab3a5	0.02669699
211	0xbf12aa69	-0.57291275
212	0x3dc1409b	0.09436151
213	0x3d405c9a	0.04696331
214	0x3d022e02	0.031782158
215	0x3cc608b6	0.024174076
216	0x3c8b8839	0.01703273
217	0x3cac68ee	0.021046128
218	0x3ccd6473	0.025072312
219	0x3cdd50df	0.027016101
220	0x3d4e2782	0.050330646
221	0x3db7c65b	0.0897338
222	0x3df4dc1f	0.11956047
223	0x3dff9a2c	0.12480578
224	0x3da09a33	0.07841911
225	0x3c715d61	0.014731736
226	0xbccf9c3e	-0.025343057
227	0xbd1eb449	-0.038746152
228	0xbb79b657	-0.0038103068
229	0x3dc31db9	0.095271535
230	0xbbe2efdf	-0.0069255675
231	0xbd02f1b3	-0.031968784
232	0xbeb2c695	-0.3491713
233	0xbe080a82	-0.13285258
234	0xbdc1c7d6	-0.09461944
235	0xbd961fb1	-0.073302634
236	0xbd80b6cc	-0.06284866
237	0xbd55663f	-0.052099463
238	0xbd46d562	-0.04854334
239	0xbd42a304	-0.047518745
240	0xbd284b48	-0.04108742
241	0xbceec7e0	-0.029148042
242	0xbca51763	-0.020152753
243	0xbc86b989	-0.016445892
244	0xbc91176b	-0.017711362
245	0xbcab1707	-0.020885004
246	0xbc8e37ba	-0.017360557
247	0xbc6c9c92	-0.014441626
248	0xbced1924	-0.028942652
249	0x3b449c1c	0.0030000275
250	0x3e1180bf	0.14209269
251	0xbe11e46f	-0.14247297
252	0x3d3e0a38	0.046396464
253	0xbf0006d3	-0.5001041
254	0x3d6570d3	0.0560158
255	0x3cf6d14c	0.030129097

bias f4 [16]
0	0xbc8e896c	-0.017399512
1	0xbcacfaba	-0.02111565
2	0xbbdb6c2d	-0.006696245
3	0x3e1b2aa5	0.15152986
4	0x3c91b43b	0.017786136
5	0xbd95dcbb	-0.073174916
6	0x3e31fb7b	0.17381088
7	0x3ba0dd52	0.004909196
8	0xbbafc347	-0.005363855
9	0xbbc8c01f	-0.0061264182
10	0x3ce43088	0.027855173
11	0x3db43dec	0.08800873
12	0xbcc584ed	-0.024111236
13	0xbc996942	-0.018726949
14	0xbcac3ae3	-0.021024173
15	0xbbc6c4f1	-0.0060659577
