vehicle/autoware_raw_vehicle_cmd_converter/src/vehicle_adaptor/autoware_vehicle_adaptor/vehicle_models/vehicle_model_5.pth (torch, 56844 bytes, 30 tensors)

weight f4 [16, 20]
0	0xbe428aba	-0.18998232
1	0x3e23dad1	0.1600144
2	0xbe2400ed	-0.16015978
3	0xbe2351be	-0.15949151
4	0xbe25fa9f	-0.16208886
5	0xbe2665e2	-0.16249803
6	0xbe25aa6d	-0.16178294
7	0xbe18b9b9	-0.14914598
8	0xbddd26a4	-0.10798386
9	0xbd9bde86	-0.07610802
10	0xbd572d91	-0.05253369
11	0xbc9ba76d	-0.019000733
12	0x3cd6bc22	0.026212756
13	0x3d83670f	0.06416141
14	0x3def3675	0.11680309
15	0x3e248b81	0.16068842
16	0x3e4207a7	0.18948232
17	0x3e6785e5	0.2260967
18	0x3e85a02e	0.2609877
19	0x3e9583ea	0.29202205
20	0x3df7a9e0	0.12092948
21	0x3e6fb52d	0.23408957
22	0x3de37ddf	0.111079924
23	0x3d993f0a	0.07482727
24	0x3d161124	0.03663744
25	0xbb8922c0	-0.0041850507
26	0xbd31c4a0	-0.043400407
27	0xbd9a7576	-0.07541935
28	0xbdbc7851	-0.09202636
29	0xbdcd83d7	-0.10034912
30	0xbdcc269a	-0.099683
31	0xbdae4f36	-0.08511202
32	0xbd75d189	-0.06001428
33	0xbd04a11a	-0.0323802
34	0x3c0c208b	0.008552681
35	0x3d7f0488	0.06226018
36	0x3df9148f	0.12162124
37	0x3e43811a	0.19092217
38	0x3e877839	0.2645891
39	0x3eb10008	0.34570336
40	0xbd160f8d	-0.036635924
41	0x3c5bbea5	0.013412152
42	0xbe4826f5	-0.19546111
43	0xbe39faa3	-0.18162017
44	0xbe278224	-0.16358238
45	0xbe0d57ff	-0.13803099
46	0xbde0a3ef	-0.10968768
47	0xbdc478e5	-0.09593371
48	0xbd9d5304	-0.076818496
49	0xbd80457e	-0.062632546
50	0xbd619fa9	-0.055083904
51	0xbd2634af	-0.040577587
52	0xbcd1fa8f	-0.025632171
53	0xbc963619	-0.018336343
54	0xbb8e198e	-0.0043365424
55	0x3c452a6a	0.012034038
56	0x3c93bcdb	0.01803439
57	0x3cbcd161	0.023049058
58	0x3cb9eaf0	0.022695035
59	0x3c8b5f1f	0.01701313
60	0xbe95b866	-0.29242247
61	0xbd46ff0e	-0.048583083
62	0xbe183074	-0.14862233
63	0xbe0c99d1	-0.13730551
64	0xbdf9f682	-0.12205221
65	0xbdebb319	-0.115087695
66	0xbde2cc68	-0.11074144
67	0xbdd57dbc	-0.104243726
68	0xbddce616	-0.10786073
69	0xbddc1614	-0.107463986
70	0xbdccfd08	-0.100091994
71	0xbdb9b116	-0.090669796
72	0xbdae6b08	-0.08516508
73	0xbd9ca2cc	-0.076482385
74	0xbd8c1207	-0.06839376
75	0xbd7a3e33	-0.061094474
76	0xbd878540	-0.06617212
77	0xbd909a4b	-0.07060679
78	0xbd942aa5	-0.07234696
79	0xbdaae94a	-0.083452776
80	0xbe3f73e5	-0.18696554
81	0x3c16a641	0.009194911
82	0xbf063871	-0.5242987
83	0xbef1f3f3	-0.4725643
84	0xbed120ee	-0.40845436
85	0xbeaaeaa2	-0.33382136
86	0xbe85534b	-0.2604011
87	0xbe487ef7	-0.19579683
88	0xbe1d7344	-0.15376002
89	0xbdfa5108	-0.12222487
90	0xbdb5106f	-0.08841025
91	0xbd69d09f	-0.057083722
92	0xbcc98654	-0.024600185
93	0x3ba0659d	0.0048949257
94	0x3d0106d0	0.031500638
95	0x3d6915c1	0.05690551
96	0x3d9fbcc1	0.07799674
97	0x3dc5493e	0.096331105
98	0x3de137e4	0.109969884
99	0x3de944e0	0.1139009
100	0xbea045c5	-0.3130323
101	0xbce1ac84	-0.027548082
102	0xbe2114e1	-0.15730621
103	0xbe145278	-0.14484584
104	0xbe058bd2	-0.13041618
105	0xbdf914ca	-0.12162168
106	0xbde95d7f	-0.11394786
107	0xbdd494fd	-0.1037998
108	0xbdc9344c	-0.09824428
109	0xbdbf20ac	-0.093324035
110	0xbdaaa84c	-0.08332881
111	0xbd931bc6	-0.07183032
112	0xbd735f19	-0.059416864
113	0xbd3d289e	-0.046181314
114	0xbcf66ebe	-0.030082103
115	0xbc8bb556	-0.017054241
116	0xbc7eacbc	-0.015544113
117	0xbc3f1eb6	-0.011665037
118	0xbbb225dd	-0.0054366426
119	0xbbb95ac4	-0.005656572
120	0xbcae464e	-0.021273758
121	0x3c1ffda3	0.009765062
122	0xbd0e2d0a	-0.03471092
123	0xbd17307e	-0.03691148
124	0xbd0b94e5	-0.034077544
125	0xbd16d4d8	-0.036824077
126	0xbd2be23c	-0.0419638
127	0xbd422039	-0.04739401
128	0xbd57f215	-0.0527211
129	0xbd6f643c	-0.0584452
130	0xbd82a91a	-0.0637991
131	0xbd7420ca	-0.059601583
132	0xbd638cfb	-0.05555437
133	0xbd6ed3dd	-0.058307517
134	0xbd5eb0ac	-0.054367706
135	0xbd405364	-0.046954527
136	0xbd45c8e2	-0.04828728
137	0xbd24a1aa	-0.040193237
138	0xbd06679f	-0.032813665
139	0xbd0d3cd3	-0.034481835
140	0xbe1ef628	-0.15523589
141	0x3e95173d	0.29119292
142	0x3ddcf867	0.107895665
143	0x3dc13177	0.09433263
144	0x3daea648	0.085278094
145	0x3d9c10af	0.0762037
146	0x3d89c94d	0.06727848
147	0x3d7aae46	0.061201356
148	0x3d8b6fa7	0.06808405
149	0x3da9b043	0.082855724
150	0x3dc0e03c	0.09417769
151	0x3dccbf6c	0.09997448
152	0x3ddbb4b1	0.107278235
153	0x3dfde9ba	0.123980954
154	0x3e126863	0.14297633
155	0x3e27d6cc	0.16390532
156	0x3e42c634	0.19020921
157	0x3e5c6796	0.2152389
158	0x3e761876	0.24032769
159	0x3e87cde1	0.2652426
160	0xbd1b8a2c	-0.037973568
161	0x3d8efc9a	0.06981774
162	0xbe887c63	-0.266574
163	0xbe832bc1	-0.2561932
164	0xbe774df0	-0.24150825
165	0xbe667320	-0.22504854
166	0xbe522fc9	-0.20526041
167	0xbe3c7dee	-0.18407413
168	0xbe261b81	-0.1622143
169	0xbe0973be	-0.13423058
170	0xbdd51dab	-0.10406049
171	0xbd963b83	-0.0733557
172	0xbd1fc89c	-0.039009675
173	0xbc35f416	-0.011105558
174	0x3ca596e1	0.020213546
175	0x3d4a12a0	0.04933417
176	0x3d8eb442	0.06967975
177	0x3dc82181	0.09772015
178	0x3e04c6eb	0.12966506
179	0x3e1809e6	0.14847526
180	0xbe9b10d9	-0.3028629
181	0xbd23ac98	-0.03995952
182	0xbe228110	-0.15869546
183	0xbe15b064	-0.14618069
184	0xbe071eeb	-0.13195388
185	0xbdfa61f4	-0.12225714
186	0xbde57c98	-0.11205405
187	0xbdce63b9	-0.10077614
188	0xbdc694e4	-0.096963674
189	0xbdb7844c	-0.089607805
190	0xbda23ca6	-0.07921724
191	0xbd896702	-0.067091
192	0xbd5f8774	-0.054572538
193	0xbd25c770	-0.0404734
194	0xbccceab1	-0.025014253
195	0xbc4addd0	-0.012381986
196	0xbc282bcc	-0.010264348
197	0xbbfd7d7d	-0.0077359066
198	0xbaa52075	-0.0012598174
199	0xbae0db98	-0.0017155288
200	0xbc97a635	-0.01851187
201	0xbbd9c89c	-0.006646229
202	0xbcf0f00c	-0.029411338
203	0xbd0902ac	-0.033449814
204	0xbcfdfcb2	-0.031004284
205	0xbd0e4fee	-0.034744196
206	0xbd290ae5	-0.041270155
207	0xbd3fd472	-0.046833463
208	0xbd602374	-0.05472131
209	0xbd80228b	-0.062565885
210	0xbd8e04bf	-0.06934499
211	0xbd89f59a	-0.06736298
212	0xbd82cfd0	-0.06387293
213	0xbd8e6fae	-0.06954895
214	0xbd8bd9e7	-0.06828671
215	0xbd86bb8f	-0.06578743
216	0xbd913a3a	-0.07091184
217	0xbd8a877e	-0.06764124
218	0xbd723acd	-0.059138108
219	0xbd7cac42	-0.061687715
220	0x3dc64466	0.09681015
221	0xbc5bd640	-0.01341778
222	0xbd92c976	-0.07167332
223	0xbd56f0f1	-0.052475873
224	0xbd0b4453	-0.034000706
225	0xbc9af70e	-0.018916633
226	0xbb5439a4	-0.003238299
227	0x3c9132af	0.017724363
228	0x3d0338f7	0.032036748
229	0x3d4358c1	0.047692064
230	0x3d8e2d9d	0.06942294
231	0x3d9ec1bf	0.07751798
232	0x3da22f29	0.07919151
233	0x3dbc6493	0.091988705
234	0x3dcecb4a	0.10097368
235	0x3de22862	0.11042859
236	0x3df63839	0.12022442
237	0x3e016079	0.12634458
238	0x3e039226	0.1284872
239	0x3e034f2a	0.12823167
240	0xbe1dab87	-0.15397464
241	0x3e87194a	0.26386482
242	0x3d835dee	0.064144
243	0x3d435c24	0.047695294
244	0x3d21f6fb	0.03954218
245	0x3cf29ef4	0.02961681
246	0x3c9eed65	0.019400308
247	0x3c5332a7	0.012890494
248	0x3c968e2b	0.018378338
249	0x3d0a629d	0.03378545
250	0x3d4125d0	0.0471552
251	0x3d8080c0	0.06274557
252	0x3da44c3d	0.08022354
253	0x3dc80202	0.09766008
254	0x3df481ac	0.119387954
255	0x3e105bbb	0.14097492

bias f4 [16]
0	0x3cf1a6e8	0.029498532
1	0x3ec46f4b	0.3836616
2	0x3d8b630d	0.06806002
3	0x3e6737b3	0.22579841
4	0x3e85a1a7	0.26099893
5	0x3e667307	0.22504817
6	0x3e022f0b	0.12713258
7	0xba8cb7eb	-0.0010735964
8	0x3dcb0252	0.09912552
9	0x3e710fe0	0.23541212
10	0x3e0efda6	0.13963947
11	0xbe1d7937	-0.15378271
12	0x3c5b8feb	0.013401012
13	0x3ce2324c	0.027611874
14	0x3db9ddb1	0.090754874
15	0x3d967270	0.07346046

weight f4 [16, 20]
0	0xb4508764	-1.9420764e-07
1	0x348021f5	2.3866565e-07
2	0x3449aba2	1.8782023e-07
3	0xb2844795	-1.5399374e-08
4	0x333cf498	4.3994618e-08
5	0xb4264222	-1.5484014e-07
6	0x341e28dc	1.4729761e-07
7	0xb398f824	-7.123188e-08
8	0xb36a50ac	-5.455574e-08
9	0xb44c1cbd	-1.9009435e-07
10	0xb3d9f9ae	-1.01502664e-07
11	0xb4264d6e	-1.5488123e-07
12	0x344883c5	1.8674389e-07
13	0xb41244a7	-1.3622285e-07
14	0x32cbe319	2.3735582e-08
15	0x33bc9686	8.781812e-08
16	0x338e97d0	6.640005e-08
17	0x321bc7a8	9.067584e-09
18	0xb39580df	-6.961795e-08
19	0x326c2b24	1.3746817e-08
20	0x3b887863	0.004164742
21	0xb71a996c	-9.214837e-06
22	0xb75ecf4e	-1.3280498e-05
23	0xb75724ff	-1.2823612e-05
24	0xb75dbabe	-1.3216106e-05
25	0xb76411bb	-1.3593987e-05
26	0xb760ce83	-1.3399523e-05
27	0xb763a679	-1.3569014e-05
28	0xb76c207e	-1.4074261e-05
29	0xb7655222	-1.3668587e-05
30	0xb75e4cf8	-1.3250152e-05
31	0xb7594440	-1.2950099e-05
32	0xb74e0cf2	-1.2281571e-05
33	0xb753d740	-1.2626697e-05
34	0xb74fc1b9	-1.2383266e-05
35	0xb743a36b	-1.1660954e-05
36	0xb7484da7	-1.1939009e-05
37	0xb749b157	-1.2021824e-05
38	0xb7445067	-1.17012305e-05
39	0xb7419d25	-1.15402845e-05
40	0xb47c55d0	-2.3500547e-07
41	0x33915b2e	6.768674e-08
42	0xb34f9555	-4.833176e-08
43	0xb3f69e9e	-1.148412e-07
44	0x340bcfe5	1.3021015e-07
45	0x347cfc32	2.3561077e-07
46	0x342e1895	1.6213956e-07
47	0x33e5edd5	1.0706905e-07
48	0xb42871a1	-1.5687557e-07
49	0xb3abff2d	-8.009224e-08
50	0xb327875d	-3.900583e-08
51	0xb35ed6b7	-5.1883685e-08
52	0x31f8961f	7.2348167e-09
53	0x33b87824	8.590021e-08
54	0xb41454e1	-1.3814453e-07
55	0xb3e4e55f	-1.06588e-07
56	0x342a7482	1.5874869e-07
57	0xb35f41fd	-5.198125e-08
58	0x3347f33b	4.6554515e-08
59	0xb3a2f168	-7.5876244e-08
60	0x3aad8f00	0.001324147
61	0xb686a1bf	-4.012341e-06
62	0xb692ae90	-4.371461e-06
63	0xb6943553	-4.4169515e-06
64	0xb693395e	-4.38762e-06
65	0xb69c7f08	-4.6639507e-06
66	0xb696193f	-4.4732874e-06
67	0xb6983178	-4.535712e-06
68	0xb69ba876	-4.6389714e-06
69	0xb69c1de6	-4.652643e-06
70	0xb6976a1b	-4.512503e-06
71	0xb68e3286	-4.2378115e-06
72	0xb683b29a	-3.924896e-06
73	0xb6786a99	-3.7016928e-06
74	0xb656a762	-3.1985915e-06
75	0xb63adca4	-2.784459e-06
76	0xb6763330	-3.6686652e-06
77	0xb680f6bf	-3.8434223e-06
78	0xb6847d97	-3.948527e-06
79	0xb68141e9	-3.8521725e-06
80	0x3d7f066e	0.06226199
81	0xbd217914	-0.03942211
82	0xbd605e4f	-0.05477744
83	0xbd499d97	-0.049222555
84	0xbd339171	-0.043839876
85	0xbd13298c	-0.035928294
86	0xbce187eb	-0.027530631
87	0xbca3f70d	-0.020015264
88	0xbc27547a	-0.010213012
89	0xba8ebc6f	-0.0010889898
90	0x3baf2fe3	0.0053462847
91	0x3c7cf167	0.015438414
92	0x3ce04a80	0.027379274
93	0x3d1fa3d6	0.038974606
94	0x3d518324	0.051150456
95	0x3d801f49	0.06255967
96	0x3d99f74c	0.07517871
97	0x3db22616	0.086986706
98	0x3dc90980	0.09816265
99	0x3de3698b	0.11104115
100	0x3d05670b	0.032568973
101	0xbe4512d6	-0.19245467
102	0xbe32f644	-0.17476755
103	0xbe38514a	-0.1799976
104	0xbe3cdf1a	-0.18444481
105	0xbe427b4f	-0.18992351
106	0xbe495f99	-0.19665374
107	0xbe4e538d	-0.2014906
108	0xbe558201	-0.20850374
109	0xbe5d2992	-0.21597889
110	0xbe63c575	-0.22243293
111	0xbe6b13cf	-0.22956775
112	0xbe748ee6	-0.23882636
113	0xbe7bea55	-0.2460111
114	0xbe80edd8	-0.2518146
115	0xbe854e26	-0.26036185
116	0xbe886817	-0.26641914
117	0xbe8b5868	-0.27215886
118	0xbe8f51fb	-0.27992234
119	0xbe91dd71	-0.2848926
120	0xb48717fe	-2.5163166e-07
121	0x3430eb92	1.6476977e-07
122	0x34bd62c0	3.5275843e-07
123	0x342f4185	1.6321981e-07
124	0x34771910	2.3012785e-07
125	0x33d68d3d	9.9908426e-08
126	0xb4813339	-2.4065392e-07
127	0xb480faa2	-2.4024217e-07
128	0xb3accfd4	-8.047178e-08
129	0xb3874fd7	-6.30095e-08
130	0x3371f7a4	5.6337413e-08
131	0xb43b83f8	-1.7463742e-07
132	0xb44d5244	-1.9122041e-07
133	0xb0bb2c5b	-1.3618647e-09
134	0x343d3aa5	1.7623331e-07
135	0xb4b5bb0d	-3.3849975e-07
136	0xb48c64ca	-2.6150366e-07
137	0xb3137e5f	-3.434104e-08
138	0xb43732c3	-1.706167e-07
139	0x3427ef54	1.5640154e-07
140	0x39c5439e	0.00037625147
141	0xbdf5597c	-0.119799584
142	0xbe0cd175	-0.13751777
143	0xbe13cca1	-0.14433528
144	0xbe1ac869	-0.15115513
145	0xbe223b59	-0.15842952
146	0xbe2bd4a8	-0.1678034
147	0xbe31b081	-0.17352487
148	0xbe3aede3	-0.18254809
149	0xbe451410	-0.19245934
150	0xbe4d1076	-0.2002581
151	0xbe56cd15	-0.2097667
152	0xbe615956	-0.22006735
153	0xbe6bb967	-0.23019944
154	0xbe745111	-0.2385905
155	0xbe7eca61	-0.24881889
156	0xbe850fa9	-0.2598851
157	0xbe896969	-0.26838234
158	0xbe8f2b0d	-0.27962533
159	0xbe93e62d	-0.28886548
160	0x34738bf2	2.268205e-07
161	0xb434060b	-1.6766005e-07
162	0x344678d4	1.8484144e-07
163	0x32ff0ab0	2.9690767e-08
164	0x3335d131	4.2332605e-08
165	0x32f53208	2.8544505e-08
166	0xb4465641	-1.8471566e-07
167	0x339557e0	6.9543376e-08
168	0xb3d74c33	-1.0025578e-07
169	0xb40cf4b3	-1.3127537e-07
170	0xb46ee56b	-2.2248939e-07
171	0xb3b5515c	-8.4432685e-08
172	0x33491111	4.681448e-08
173	0xb33d124f	-4.4021643e-08
174	0x340c1adc	1.3048287e-07
175	0x3425435b	1.5391326e-07
176	0x34cdab99	3.830908e-07
177	0xb39a99b1	-7.19914e-08
178	0x31f02ff5	6.9903714e-09
179	0x341fcc54	1.4882363e-07
180	0xb9d9347c	-0.0004142857
181	0x353c6962	7.018881e-07
182	0x34f0e78f	4.4871965e-07
183	0x345d6c86	2.062171e-07
184	0x352f836e	6.5383836e-07
185	0x3537af49	6.8427886e-07
186	0x34e8bc2b	4.3350278e-07
187	0x352d2633	6.450311e-07
188	0x34cfaf6a	3.8684385e-07
189	0x349c2c2f	2.9089412e-07
190	0x34ee8444	4.442719e-07
191	0xbb9f5ac5	-0.0048631155
192	0xbc361b52	-0.011114912
193	0xbc8403a8	-0.016115025
194	0xbca2c535	-0.019869426
195	0xbcd2ad39	-0.025717365
196	0xbcf91ca0	-0.030409157
197	0xbd0b5a7c	-0.03402184
198	0xbd202710	-0.039099753
199	0xbd305247	-0.043047216
200	0xbac7a1a5	-0.0015230669
201	0xbe9ccc0d	-0.30624428
202	0xbe9f7a24	-0.31147873
203	0xbea23781	-0.3168297
204	0xbea3dd78	-0.32004905
205	0xbea62102	-0.32447058
206	0xbea81ad4	-0.32832968
207	0xbeaabaa1	-0.33345512
208	0xbeacb388	-0.3373072
209	0xbeaf76ee	-0.34270424
210	0xbeb1ac0f	-0.34701583
211	0xbeb4409b	-0.3520554
212	0xbeb7ba41	-0.35884288
213	0xbeb9dcd7	-0.363013
214	0xbebcc916	-0.36872166
215	0xbec074d0	-0.3758912
216	0xbec34bc5	-0.38143745
217	0xbec59559	-0.38590506
218	0xbec92648	-0.3928702
219	0xbecbfeb0	-0.3984275
220	0x3d5830d2	0.052780934
221	0xbf5e047f	-0.8672561
222	0xbf408df4	-0.75216603
223	0xbf3d328e	-0.73905265
224	0xbf3a1e70	-0.72702694
225	0xbf366445	-0.7124675
226	0xbf32de6a	-0.69870627
227	0xbf2e6ea3	-0.6813757
228	0xbf29d1f4	-0.6633599
229	0xbf256f80	-0.6462326
230	0xbf203e65	-0.62595206
231	0xbf1b5a6a	-0.60684836
232	0xbf16e7e0	-0.58947563
233	0xbf11bf52	-0.56932557
234	0xbf0d0026	-0.5507835
235	0xbf081f00	-0.531723
236	0xbf03efbb	-0.51537675
237	0xbefee216	-0.49781865
238	0xbef75716	-0.4830863
239	0xbef04405	-0.46926895
240	0xbaef629e	-0.0018263643
241	0x3492f163	2.737025e-07
242	0x3529a8a5	6.3202816e-07
243	0x3544e6d9	7.335162e-07
244	0x3505201c	4.9593086e-07
245	0x353f54d6	7.12765e-07
246	0x34f9c2c7	4.6521583e-07
247	0x353a9aa3	6.9515426e-07
248	0x353bb483	6.992561e-07
249	0x355df71a	8.2688496e-07
250	0x35426664	7.241963e-07
251	0x356a8abe	8.737369e-07
252	0x3505861a	4.9741504e-07
253	0x355a1832	8.124654e-07
254	0x355dc5e3	8.261688e-07
255	0x35475fde	7.427278e-07

bias f4 [16]
0	0xb3f4c482	-1.139788e-07
1	0x3b2e64bf	0.0026610342
2	0x33fe09fb	1.1829612e-07
3	0x397a8c06	0.0002389402
4	0x3d98a4d2	0.07453312
5	0x3d045da7	0.032315876
6	0xb1a315c3	-4.7463984e-09
7	0x3c97fca2	0.018553082
8	0x3426d302	1.5536719e-07
9	0x3b787193	0.0037909492
10	0x3d5bbc77	0.05364653
11	0x3cf00ddb	0.029303482
12	0xb66de401	-3.5448468e-06
13	0x3d96870d	0.07349978
14	0x3d06edbc	0.032941565
15	0x3dac3044	0.084076434

weight f4 [8, 16]
0	0x3df8a2d4	0.12140432
1	0x3cc3da46	0.023907792
2	0x3d4f7c1c	0.05065547
3	0xbe4c95f9	-0.19979085
4	0xbeb0fa94	-0.34566176
5	0xbd894cd1	-0.06704105
6	0xbc40ef2c	-0.011775773
7	0x3e3c95fd	0.18416591
8	0x3e47b6b3	0.19503288
9	0xbd8aa626	-0.067699715
10	0xbc38d571	-0.011281357
11	0xbdaee5e6	-0.085399434
12	0x3e1ebfe9	0.15502895
13	0x3e0459ba	0.12924853
14	0x3e4b469a	0.19851151
15	0x3e325cc0	0.17418194
16	0x3e8ddf64	0.27709496
17	0x3e9b3256	0.3031184
18	0x3d82c81c	0.06385824
19	0xbe1fc78f	-0.1560347
20	0xbee18731	-0.44048455
21	0xbde6c756	-0.11268489
22	0x3d876d07	0.06612592
23	0x3e8946c9	0.26811817
24	0x3db79091	0.08963121
25	0xbdfc06f4	-0.12306014
26	0x3db27147	0.08713012
27	0xbd7a2458	-0.061069816
28	0x3e7bba23	0.24582724
29	0x3ee38ace	0.44441837
30	0x3dbf7879	0.0934915
31	0x3f023c01	0.5087281
32	0x3e81dec9	0.25365284
33	0x3eaae4bb	0.33377632
34	0xbd5d5a25	-0.054041047
35	0xbbae1c7d	-0.0053134547
36	0xbecc19a8	-0.39863324
37	0xbde05919	-0.10954494
38	0xbd9eed22	-0.07760073
39	0x3e4fef73	0.20306186
40	0xbe18747f	-0.1488819
41	0xbe460193	-0.19336538
42	0xbda11215	-0.07864777
43	0x3d91971b	0.07108899
44	0x3e4be917	0.19913135
45	0x3e890679	0.2676275
46	0xbe1dd455	-0.1541303
47	0x3e983b3d	0.29732695
48	0x3db2f491	0.087380536
49	0xbceba1f3	-0.028763747
50	0x3d9397c4	0.07206681
51	0x3ef99204	0.48744214
52	0x3eec783f	0.4618549
53	0x3f0c8dbd	0.54903775
54	0x3d8e5a3f	0.06950807
55	0x3e448d2b	0.19194476
56	0x3ec56633	0.38554534
57	0x3f0d831c	0.5527818
58	0x3dadd28a	0.08487423
59	0xbcf0d52f	-0.029398529
60	0x3e29169f	0.16512536
61	0x3d74b1dc	0.059739932
62	0x3eae7090	0.34070253
63	0x3e15fad3	0.14646463
64	0x3eb27431	0.34854272
65	0xbe6bde6b	-0.23034064
66	0x3d8c316f	0.06845366
67	0x3f200eb2	0.62522423
68	0x3f223ab3	0.6337082
69	0x3f156f26	0.58372724
70	0x3db8bd21	0.090204485
71	0xbe359334	-0.17731935
72	0x3e7cc573	0.24684696
73	0x3f1afa5e	0.6053828
74	0x3d8d6c87	0.069054656
75	0x3dbbc141	0.0916772
76	0xbe3dda12	-0.18540218
77	0x3e928e10	0.2862401
78	0x3ec03841	0.37542918
79	0x3f1b5efb	0.60691804
80	0x3e8a3a7b	0.26997742
81	0x3ea9f3cc	0.33193815
82	0x3dec0310	0.115240216
83	0xbe46065e	-0.19338366
84	0xbe972890	-0.29523134
85	0xbdd4caad	-0.1039022
86	0x3dcf9f31	0.10137785
87	0x3e7bb4a0	0.24580622
88	0x3d94fec4	0.07275155
89	0xbe0da3d0	-0.13832021
90	0x3df546ec	0.11976418
91	0xbdc1693e	-0.094439015
92	0x3e68f4d0	0.22749639
93	0x3edcbb97	0.4311187
94	0x3d663d26	0.05621066
95	0x3f01f8ba	0.5077015
96	0x3dfbf277	0.12302106
97	0x3a204e8c	0.000611522
98	0x3d4a6b9b	0.049419027
99	0xbe5330ef	-0.20624135
100	0xbea18bd7	-0.31552002
101	0xbde87c9a	-0.11351891
102	0xbbb50042	-0.0055237124
103	0x3e33fb42	0.17576316
104	0x3e54af94	0.20770103
105	0xbdd91890	-0.10600388
106	0xbba320a7	-0.0049782577
107	0xbdec3c5d	-0.11534951
108	0x3e18dbd9	0.14927615
109	0x3e07e04a	0.13269153
110	0x3e58df25	0.21178873
111	0x3e341adb	0.1758837
112	0x3e639773	0.22225742
113	0x3e8fbc43	0.2807332
114	0x3e04f2c6	0.12983236
115	0xbe4d5590	-0.20052171
116	0xbe5261e5	-0.20545156
117	0xbdb4333f	-0.08798837
118	0x3e161995	0.14658196
119	0x3e53a6fa	0.20669165
120	0x3dbce1dd	0.092227675
121	0xbe0966e8	-0.13418162
122	0x3e1acaf8	0.15116489
123	0xbddd8ff6	-0.10818474
124	0x3e427913	0.18991499
125	0x3ebb125b	0.36537442
126	0x3d8f49bb	0.06996485
127	0x3edb7545	0.42862907

bias f4 [8]
0	0x3d88c704	0.06678584
1	0x3e257dd9	0.16161288
2	0x3e26e687	0.16298877
3	0x3d343a8d	0.04400115
4	0x3d787210	0.060655653
5	0x3e219731	0.15780331
6	0x3d5a9479	0.05336425
7	0x3e2c42eb	0.16822402

weight f4 [8, 16]
0	0x33a22886	7.551084e-08
1	0xbb26f45b	-0.0025475237
2	0xb42320c2	-1.5192475e-07
3	0xba815693	-0.000986772
4	0x3d1e38c9	0.038628373
5	0x3db6f045	0.089325465
6	0x32089053	7.949057e-09
7	0x3e2ced05	0.16887291
8	0xb4c038fc	-3.5804248e-07
9	0x3bbaccd8	0.005700689
10	0x3ea9d2b0	0.33168554
11	0x3ebc8e83	0.36827478
12	0x3035bcd0	6.6115735e-10
13	0xbe3e0bf0	-0.18559241
14	0x3e0af54b	0.13570134
15	0xbe25d16a	-0.16193166
16	0x32f99acc	2.9057809e-08
17	0x3b5caf58	0.003367385
18	0xb45e36f1	-2.0695349e-07
19	0x3a3417fc	0.0006870029
20	0x3d2d2670	0.042272985
21	0xbd4194e0	-0.04726112
22	0x34581901	2.0125664e-07
23	0x3cd2ab98	0.025716588
24	0xb4638e15	-2.1192712e-07
25	0x3b343617	0.002749806
26	0x3c69b0ef	0.014263376
27	0xbe105bae	-0.14097473
28	0xb40692f6	-1.2533187e-07
29	0x3dd316a3	0.10307052
30	0xbd3a1b31	-0.045436088
31	0x3dd62d43	0.10457852
32	0x34a23e12	3.0220014e-07
33	0x3bd3e4e8	0.0064664967
34	0xb3fb0522	-1.1689032e-07
35	0x3b89007b	0.0041809655
36	0xbd3ec867	-0.046577837
37	0x3d01e503	0.031712543
38	0xb4055cc2	-1.2420335e-07
39	0xb4273aa7	-1.5574425e-07
40	0x343fb456	1.7853867e-07
41	0x349b6b37	2.894901e-07
42	0x3322d784	3.7914575e-08
43	0xbea924df	-0.33035943
44	0x3ae9d826	0.0017840907
45	0x3e947006	0.28991717
46	0xbc403b45	-0.011732881
47	0x3e811dc7	0.2521803
48	0x333aac92	4.346345e-08
49	0x3b6d0359	0.0036165325
50	0xb395fd86	-6.984469e-08
51	0x3a68a758	0.0008875034
52	0x3df5b9ad	0.119983055
53	0xbd4c286f	-0.049843248
54	0x3241f89d	1.1290607e-08
55	0xbb9d5bff	-0.0048022266
56	0xb313fdd9	-3.4456978e-08
57	0x39ec064a	0.00045018113
58	0xbce782b6	-0.02826057
59	0xbe2a2a8d	-0.16617794
60	0x3507b19d	5.054988e-07
61	0x3e1cd03b	0.15313809
62	0xbd444459	-0.047916744
63	0x3e0b71ac	0.13617581
64	0x343e166e	1.7703289e-07
65	0x3924b924	0.00015709229
66	0xb32bd6a6	-4.000926e-08
67	0x38910db1	6.916689e-05
68	0x3c4de34f	0.012566402
69	0x3c05bae4	0.008162234
70	0xb3f168d1	-1.1241503e-07
71	0x3b2ec3a1	0.0026666897
72	0xb399e685	-7.166549e-08
73	0x397f4327	0.00024343711
74	0x3b6feecb	0.0036610838
75	0x3be5e9a7	0.007016379
76	0xb4497b0f	-1.8764352e-07
77	0x3a96645e	0.0011474004
78	0x3bfc2a29	0.0076954556
79	0x3b26980a	0.0025420212
80	0xb355aa86	-4.9748017e-08
81	0x3b705574	0.0036672028
82	0x33b18d87	8.2679485e-08
83	0x3a43aaf9	0.00074641366
84	0x3de71ee3	0.11285188
85	0xbd510f6c	-0.051040098
86	0xb28eac4c	-1.6609327e-08
87	0xbc0179d7	-0.007902584
88	0xb35b2eaa	-5.103235e-08
89	0x39c6de66	0.00037931203
90	0xbd1046fa	-0.03522394
91	0xbe29fe5c	-0.16600937
92	0x35485df7	7.464254e-07
93	0x3e1e16f3	0.15438442
94	0xbd4b2986	-0.049600147
95	0x3e0cd3ca	0.13752666
96	0xb4658071	-2.1374014e-07
97	0x3b720df6	0.003693459
98	0xb3b61d54	-8.48037e-08
99	0x3a70173b	0.0009158735
100	0x3dfff710	0.12498295
101	0xbd493772	-0.049125142
102	0xb42658f9	-1.5492323e-07
103	0xbbc3f11c	-0.00597967
104	0xb3fd96ef	-1.1808685e-07
105	0x3a1deab0	0.0006024046
106	0xbce481c5	-0.02789391
107	0xbe27379e	-0.1632981
108	0x353a0e58	6.931127e-07
109	0x3e1d34e9	0.15352215
110	0xbd42629c	-0.047457322
111	0x3e0d4ee3	0.13799624
112	0x342746a7	1.557879e-07
113	0x3b717c98	0.0036847945
114	0x333a60c6	4.3394515e-08
115	0x3a81face	0.0009916665
116	0x3e06b21f	0.13153885
117	0xbd502b0b	-0.0508223
118	0xb2e32ab5	-2.6445699e-08
119	0xbc31f0dd	-0.010860649
120	0x3426dab8	1.5539524e-07
121	0x3a8b7334	0.0010639192
122	0xbc46359f	-0.012097745
123	0xbe27fb9c	-0.16404575
124	0x34a7a943	3.1229328e-07
125	0x3e1d9d77	0.153921
126	0xbd4a0e71	-0.04933018
127	0x3e0f2373	0.13978367

bias f4 [8]
0	0x3d341ebe	0.04397463
1	0x3e12ff0c	0.14355105
2	0xbe0e113b	-0.1387376
3	0x3e03b461	0.12861778
4	0x3c4fc3f0	0.0126809925
5	0x3e027c86	0.12742814
6	0x3e0380f6	0.12842163
7	0x3e01535f	0.1262946

weight_ih_l0 f4 [72, 19]
0	0x3d5e520a	0.054277457
1	0xbe25ba62	-0.1618438
2	0xbd2c5bbd	-0.042079676
3	0x3dbefb84	0.093253165
4	0xbe7691e6	-0.24079093
5	0xbedab64c	-0.42717206
6	0xbca9bcd9	-0.020719932
7	0xbe1bc60d	-0.15212269
8	0xbcb0f6a8	-0.02160199
9	0x3d089108	0.033341438
10	0xbe85d69f	-0.26140305
11	0xbef6a3bc	-0.48171794
12	0xbe81d3c6	-0.25356883
13	0xbc0f4fe7	-0.008747078
14	0xbe82dc86	-0.2555887
15	0xbe8374ac	-0.2567495
16	0xbe8447a6	-0.25835913
17	0xbecd79b8	-0.40131927
18	0x3e284458	0.16432321
19	0xbe2efe0e	-0.17089102
20	0x3ca200f2	0.019775841
21	0x3e2adee5	0.1668659
22	0x3e3949a0	0.18094492
23	0x3cfe0d55	0.031012217
24	0xbd7fe07b	-0.06246994
25	0x3e2cd6f8	0.16878879
26	0x3d1171b5	0.03550883
27	0x3e1e20c7	0.15442191
28	0x3ebba297	0.36647484
29	0xbef7a269	-0.48366097
30	0xbf31124b	-0.6916854
31	0xbf030b7d	-0.51189405
32	0xb99f63bb	-0.00030401148
33	0xbf03b1bf	-0.51443094
34	0xbf03f983	-0.515526
35	0xbf050340	-0.51958084
36	0xbdbbd7d5	-0.09172026
37	0xbbf933af	-0.007605038
38	0x3deda80a	0.116043165
39	0xbdc06fee	-0.09396349
40	0x3dc4c36a	0.09607585
41	0x3d7ff1d7	0.062486496
42	0xbdfab287	-0.12241083
43	0xbec9f4c5	-0.39444557
44	0x3e56951a	0.20955315
45	0xbd446064	-0.047943488
46	0x3e740816	0.2383121
47	0x3ea8c45d	0.32962313
48	0xbeb1dc82	-0.34738547
49	0xbec7663c	-0.38945186
50	0xbeaf9faa	-0.34301502
51	0x393daf2d	0.00018089703
52	0xbeb0b787	-0.3451502
53	0xbeb01cbc	-0.34396923
54	0xbeb08fed	-0.34484807
55	0xbea2582b	-0.31707892
56	0x3ec90076	0.39258164
57	0xbddbf9df	-0.107410185
58	0xbafd4cb0	-0.0019325223
59	0xbc992763	-0.018695539
60	0xbdef33f5	-0.11679832
61	0xbe89e0ae	-0.2692923
62	0xbf1dabd1	-0.61590296
63	0xbcd58840	-0.026065946
64	0xbb9e3e82	-0.004829229
65	0xbc9c5024	-0.019081183
66	0x3ed49572	0.41520268
67	0xbe23c2c2	-0.15992263
68	0x3ef0cd8f	0.4703183
69	0xbd878f71	-0.06619156
70	0x3a5850d1	0.00082517887
71	0xbd85f992	-0.065417424
72	0xbd8a3efa	-0.06750293
73	0xbd8ca5c8	-0.06867558
74	0xbf052020	-0.52002144
75	0x3f817147	1.0112695
76	0xbe1823c1	-0.14857389
77	0xbe20bb66	-0.15696487
78	0xbda69ecb	-0.08135756
79	0xbda51da6	-0.080622956
80	0xbe45aba9	-0.19303764
81	0xbe9a5cd0	-0.30148935
82	0xbd9e6dd7	-0.07735794
83	0xbe169429	-0.14704956
84	0xbd9e698a	-0.07734974
85	0x3dd9ad74	0.10628787
86	0xbeef66c3	-0.46758088
87	0xbf17d6d8	-0.593122
88	0xbef1f81e	-0.4725961
89	0xbbb372b4	-0.00547632
90	0xbef1d644	-0.47233784
91	0xbef42230	-0.47682333
92	0xbef68608	-0.48149133
93	0xbf039929	-0.5140558
94	0xbe3a5287	-0.18195544
95	0x3ccc8754	0.024966873
96	0xbd6aa68d	-0.05728774
97	0x3d58946b	0.052875917
98	0x3dadcd98	0.084864795
99	0xbc95dbd1	-0.018293293
100	0xbda90257	-0.082523994
101	0x3da2118e	0.079135045
102	0xbcc93527	-0.024561478
103	0x3da319a1	0.07963873
104	0x3e9bb886	0.30414218
105	0xbeaa03b5	-0.33205953
106	0xbf023a83	-0.5087053
107	0xbeb3fcef	-0.3515391
108	0xbac0526c	-0.0014673001
109	0xbeb59e1b	-0.35472187
110	0xbeb56334	-0.35427248
111	0xbeb75468	-0.35806584
112	0xbdaaef75	-0.08346454
113	0xbdd39835	-0.103317656
114	0x3e301d9e	0.17198798
115	0xbbb8e214	-0.005642185
116	0x3d6d3730	0.05791396
117	0x3df69f7a	0.120421365
118	0xbd812424	-0.063057214
119	0xbe1cb824	-0.15304619
120	0x3da7b411	0.08188642
121	0x3c87652e	0.016527738
122	0x3dddee2b	0.108364426
123	0x3f0181b0	0.5058851
124	0xbde35027	-0.11099272
125	0xbebd35fd	-0.36955252
126	0xbdb82f27	-0.089933686
127	0xb8e51418	-0.00010923314
128	0xbdbb3356	-0.09140651
129	0xbdbb8d92	-0.09157862
130	0xbdbc99d5	-0.09209029
131	0x3d247933	0.040154647
132	0x3ede9fc1	0.43481258
133	0xbd35f850	-0.044426262
134	0x3e014d2b	0.12627093
135	0x3e1143a4	0.14185959
136	0xbcb4c706	-0.022067558
137	0x3e20f664	0.1571899
138	0xbd2eb2cf	-0.042650994
139	0x3e6d5fcc	0.23181075
140	0x3e28b26b	0.16474311
141	0x3e796ea4	0.24358612
142	0x3e4befd2	0.19915703
143	0xbccd9d06	-0.025099289
144	0xbd8028ba	-0.06257768
145	0xbd382b8d	-0.04496341
146	0xbc036763	-0.008020255
147	0xbd3d424a	-0.046205796
148	0xbd354d8f	-0.04426342
149	0xbd32861f	-0.04358494
150	0xbe5c2fe6	-0.21502647
151	0x3f09cb16	0.5382551
152	0x3cb95eb1	0.02262816
153	0x3d952c35	0.072838224
154	0x3e170061	0.14746238
155	0x3e461d37	0.19347082
156	0x3cb2bedc	0.021819524
157	0xbd7b6763	-0.061377894
158	0x3e0b125a	0.1358122
159	0x3d845f84	0.06463531
160	0x3e0125b8	0.12612045
161	0x3d7982de	0.06091582
162	0x3d67b211	0.0565663
163	0x3d6f9eb4	0.05850096
164	0x3d3264ae	0.043553047
165	0xb6e67d6f	-6.8691365e-06
166	0x3d301041	0.04298425
167	0x3d348448	0.044071466
168	0x3d38f5fd	0.045156468
169	0x3e100110	0.14062905
170	0x3ed655a7	0.41862223
171	0x3df19e5b	0.11797782
172	0xbe05f131	-0.13080288
173	0xbdc37747	-0.09544235
174	0xbc99f2a5	-0.01879246
175	0xbe9ba428	-0.3039868
176	0xbee4467f	-0.44585034
177	0xbde60677	-0.11231702
178	0xbdf48d0b	-0.11940964
179	0xbdc8ef35	-0.0981125
180	0x3edcd617	0.43132088
181	0xbe344878	-0.1760577
182	0xbdeb91fa	-0.11502452
183	0xbe1a3b4a	-0.1506168
184	0xb918b0a2	-0.0001456165
185	0xbe1c737b	-0.15278427
186	0xbe1f0d04	-0.15532309
187	0xbe24198f	-0.16025375
188	0xbf026a01	-0.50943
189	0x3db0c257	0.086308174
190	0xbc962d35	-0.018332103
191	0xbcda791b	-0.026669076
192	0xbd5aadfa	-0.053388573
193	0xbdd6ec7b	-0.10494324
194	0x3e1946ed	0.14968462
195	0x3d800819	0.062515445
196	0x3ac57089	0.0015063445
197	0x3ba6d5dd	0.0050914125
198	0x3cb5a1cc	0.022171877
199	0xbe16b1d6	-0.14716277
200	0xbdf07618	-0.117412746
201	0xbe9791c5	-0.296034
202	0xbdff79e3	-0.1247442
203	0x390121b2	0.00012314951
204	0xbe0130ad	-0.12616225
205	0xbdfe7291	-0.124241956
206	0xbdff48cc	-0.12465057
207	0x3ea3247b	0.3186377
208	0x3edc30e2	0.43006045
209	0xbd1cef20	-0.038313985
210	0x3beb76cf	0.007185794
211	0x3d8b878b	0.06812962
212	0x3d01ec5b	0.031719547
213	0x3d37d4c5	0.044880647
214	0xbd565e36	-0.05233594
215	0x3da4cf3c	0.08047339
216	0x3c93bd8d	0.01803472
217	0x3dadbc78	0.08483213
218	0x3e9d31b1	0.30701974
219	0xbd8f9d35	-0.07012407
220	0xbe34ef94	-0.17669517
221	0xbda62390	-0.08112252
222	0xb9143bb9	-0.00014136628
223	0xbda71303	-0.08157923
224	0xbda5d665	-0.08097533
225	0xbda43cee	-0.08019434
226	0x3e3815a2	0.17977002
227	0x3da7def8	0.08196825
228	0x3c775602	0.015096189
229	0xbe4e14b5	-0.20125087
230	0xbe5a1ca9	-0.21299995
231	0xbe2aea38	-0.1669091
232	0xbe23f72e	-0.1601226
233	0xbe1ebe86	-0.15502366
234	0xbe40a005	-0.18811043
235	0xbe3c8e87	-0.18413745
236	0xbe211110	-0.15729165
237	0x3de60f23	0.11233356
238	0xbe294114	-0.16528732
239	0xbecaedc4	-0.39634526
240	0xbe393990	-0.18088365
241	0xbb7c8d46	-0.0038536354
242	0xbe3b9d61	-0.18321754
243	0xbe395891	-0.18100192
244	0xbe39dcf5	-0.18150695
245	0xbe915997	-0.28388664
246	0xbe3afc1d	-0.18260236
247	0x3d655ccc	0.0559967
248	0x3df34490	0.11878312
249	0x3e5e62d8	0.21717393
250	0x3e00b379	0.12568463
251	0x3db1150c	0.086465925
252	0xbe538f9b	-0.2066025
253	0x3e75e82f	0.24014352
254	0x3e0603ba	0.13087359
255	0x3e813ffa	0.25244123

weight_hh_l0 f4 [72, 18]
0	0x3d03494b	0.03205232
1	0x3e09f9d0	0.13474202
2	0xbe8d5c88	-0.27609658
3	0x3ec35a1c	0.38154685
4	0xbea65276	-0.32484788
5	0x3cb07a4c	0.02154269
6	0x3dee368c	0.11631498
7	0x3e40ac7c	0.18815798
8	0xbdc48e5e	-0.09597467
9	0xbe825848	-0.25457978
10	0xbec088e2	-0.37604433
11	0x3c9e0b55	0.019292513
12	0x3d0d0799	0.034431074
13	0xbe3e7229	-0.18598236
14	0xbda6a481	-0.081368454
15	0xbac7fd71	-0.0015258027
16	0x3e3844ed	0.17995043
17	0xbe558703	-0.20852284
18	0xbeec77b6	-0.46185082
19	0x3ea55846	0.3229391
20	0xbeecc240	-0.4624195
21	0x3e448409	0.19190992
22	0xbed77f32	-0.4208923
23	0xbe93913c	-0.28821743
24	0xbe9b4557	-0.3032634
25	0x3e972ea9	0.29527786
26	0xbe8b25a9	-0.2717717
27	0xbee6836e	-0.45022148
28	0xbe9e84d4	-0.30960715
29	0x3f0738c3	0.52820987
30	0x3efe77b7	0.4970071
31	0xbf0453f1	-0.51690584
32	0xbdefa5ad	-0.11701522
33	0xbdbff3f8	-0.09372705
34	0x3db1c2a3	0.08679702
35	0x3df68db5	0.12038747
36	0xbd94d660	-0.07267451
37	0x3dc46cbc	0.09591052
38	0x3d0dcc02	0.034618385
39	0x3ae5efa6	0.0017542734
40	0x3cf6d24a	0.03012957
41	0x3c987b38	0.018613443
42	0x3e178665	0.14797361
43	0xbd071314	-0.03297718
44	0xbd15a491	-0.036533896
45	0xbd36fb42	-0.044673212
46	0xbce34ba3	-0.027746027
47	0x3dc91585	0.09818558
48	0x3d901415	0.0703508
49	0xbcdde37c	-0.027086012
50	0x3d01e033	0.031707954
51	0xbdab0ec6	-0.08352427
52	0xbddde6d1	-0.1083504
53	0xbcbe1db5	-0.023207525
54	0xbf101983	-0.5628893
55	0x3efba328	0.49147916
56	0xbe7647d6	-0.2405084
57	0xbe062c5b	-0.13102858
58	0xbe89e42d	-0.26931897
59	0xbef6ef5d	-0.48229495
60	0xbeac488b	-0.33649096
61	0x3ccfab7f	0.02535033
62	0xbc2a76a5	-0.010404264
63	0xbe5d2d43	-0.21599297
64	0xbeb4c1ba	-0.35304052
65	0x3e0bcd32	0.13652495
66	0x3ecf3d0e	0.4047627
67	0xbe0d6229	-0.13806976
68	0x3ec036e4	0.37541878
69	0x3ea290f4	0.31751215
70	0xbcd8693e	-0.02641737
71	0xbf12a07e	-0.5727614
72	0xbea81711	-0.32830098
73	0x3e830bf9	0.25595072
74	0xbe9d1d94	-0.3068663
75	0x3d9f1b0a	0.07768829
76	0xbe866a7a	-0.2625311
77	0xbe19a5b4	-0.15004617
78	0xbdbfc27f	-0.09363269
79	0x3ee113ae	0.43960327
80	0xbe76b386	-0.2409192
81	0xbe17cedd	-0.14825006
82	0xbef000b2	-0.4687553
83	0x3f102a87	0.5631489
84	0x3e4864d8	0.19569719
85	0xbeddadce	-0.43296665
86	0xbe6d4f94	-0.23174888
87	0x3ed25d3a	0.4108675
88	0x3e07692b	0.13223712
89	0x3db1bcc0	0.08678579
90	0xbeac5c49	-0.33664158
91	0x3f1a87a5	0.6036323
92	0xbf424b37	-0.7589602
93	0x3ee776f0	0.4520793
94	0xbf46a437	-0.7759432
95	0xbe80bada	-0.25142556
96	0xbe3efe0f	-0.18651603
97	0x3eb049c6	0.34431285
98	0xbe145914	-0.14487106
99	0xbf2e2033	-0.6801788
100	0xbe8a1947	-0.2697241
101	0x3ebcf69b	0.36906895
102	0x3e0a82fb	0.13526528
103	0xbf35a014	-0.70947385
104	0xbe136344	-0.14393336
105	0x3d821801	0.06352235
106	0x3d9f54dc	0.077798575
107	0xbc8d2ec7	-0.01723422
108	0xbe68552b	-0.22688739
109	0x3efc8b6d	0.49325123
110	0xbf0b4720	-0.54405403
111	0x3ed07bb8	0.4071939
112	0xbea759a0	-0.32685566
113	0xbe920c74	-0.28525126
114	0xbcbe9514	-0.023264445
115	0xbcdeadca	-0.027182478
116	0x3c955174	0.018227316
117	0xbee4d251	-0.4469171
118	0xbe0653a3	-0.13117842
119	0x3d9b9b97	0.07598036
120	0x3c027371	0.007962094
121	0xbf0d512b	-0.5520198
122	0x3df49dd4	0.11944166
123	0xbd778274	-0.060427144
124	0x3e556c87	0.20842181
125	0xbeb135a7	-0.34611246
126	0x3d399386	0.045306705
127	0xbd1a5d07	-0.037686374
128	0xbdc1e53a	-0.094675496
129	0xbd36ffa4	-0.04467739
130	0x3c00c2c8	0.0078589395
131	0x3d833fde	0.06408666
132	0x3e18a0d3	0.149051
133	0xbd8d4d51	-0.068995126
134	0x3cc2d1ed	0.023781741
135	0xbe2dbc05	-0.16966255
136	0x3d9dd776	0.077071115
137	0xbd54d844	-0.05196406
138	0xbdd9a67c	-0.106274575
139	0xbe1b6a1c	-0.15177196
140	0x3d3784e4	0.04480447
141	0x3c5f86bf	0.013642966
142	0xbdf57838	-0.119858205
143	0xbe9d4133	-0.30713806
144	0xbdc278fd	-0.09495733
145	0x3e0f39a1	0.13986827
146	0xbe252b42	-0.16129783
147	0x3d574cbf	0.052563425
148	0xbe410a26	-0.18851528
149	0xbd1e4813	-0.038642954
150	0xbe0c63e0	-0.13709974
151	0x3de50ebc	0.11184451
152	0xbd151519	-0.036397073
153	0xbe4085c2	-0.18801025
154	0xbdc4eebb	-0.09615847
155	0x3e609f26	0.2193571
156	0x3dfb816c	0.12280545
157	0xbe17ff36	-0.14843449
158	0xbb56fcd6	-0.003280451
159	0xbe17d32c	-0.1482665
160	0xbc120d14	-0.008914251
161	0xbe31f6b1	-0.17379262
162	0xbec39c89	-0.38205364
163	0x3eb6b471	0.3568454
164	0xbe9ce1a1	-0.3064089
165	0x3e3e23a5	0.18568285
166	0xbe70bb27	-0.23508893
167	0xbeb6a3fb	-0.35671982
168	0xbcacac36	-0.02107821
169	0x3df4e921	0.11958528
170	0xbda0424c	-0.07825145
171	0xbe4826d9	-0.19546069
172	0xbe7533af	-0.23945497
173	0x3db39d50	0.08770239
174	0x3dbe05c5	0.09278444
175	0xbece2ab9	-0.4026697
176	0x3d0cb7cf	0.03435498
177	0x3a7c4d94	0.0009624597
178	0x3eafec22	0.34359843
179	0xbe8f51a6	-0.2799198
180	0xbe0fdbbe	-0.14048669
181	0xbd914b25	-0.07094411
182	0xbdada073	-0.08477869
183	0xbc148015	-0.00906374
184	0xbdb0b26f	-0.086277835
185	0x3daf3ea4	0.085568696
186	0x3d4d35dc	0.050100192
187	0x3e915465	0.283847
188	0xbe190fea	-0.14947477
189	0xbe455b87	-0.19273196
190	0xbe1a0d5b	-0.15044157
191	0x3e1a39a3	0.15061049
192	0xbe59c0f1	-0.21265008
193	0xbeafec1d	-0.34359828
194	0xbdbeb4a8	-0.09311801
195	0x3e36ee74	0.178644
196	0xbebc374b	-0.36760935
197	0xbe695ca5	-0.22789247
198	0xbe300a9d	-0.17191549
199	0x3e443d8a	0.191641
200	0xbd85f759	-0.065413184
201	0xbd2a7ba3	-0.041621815
202	0xbe212a0b	-0.15738694
203	0xbd4851aa	-0.048906006
204	0xbddb2576	-0.107005045
205	0xbb9f9744	-0.004870327
206	0xbda610df	-0.08108687
207	0xbe5233cd	-0.20527573
208	0xbdc9d2ed	-0.09854684
209	0x3e6c3712	0.23067883
210	0x3e6cdacf	0.23130344
211	0x3de0fab3	0.10985317
212	0xbd220a9e	-0.039560907
213	0xbc0f29e0	-0.008738011
214	0x3d929b74	0.071585566
215	0xbe833509	-0.256264
216	0xbd0c1162	-0.034196265
217	0x3e9abea5	0.30223575
218	0xbec82864	-0.39093316
219	0x3da5fc32	0.08104743
220	0xbeb8445e	-0.3598966
221	0xbc88faba	-0.016721118
222	0xbaf19cea	-0.0018433605
223	0x3e6eddbe	0.23326775
224	0xbdb2c9f8	-0.08729929
225	0xbe8f0007	-0.27929708
226	0xbe5eefd5	-0.21771176
227	0x3e2d1db7	0.16905867
228	0x3e24efc7	0.16107093
229	0xbec4f9b1	-0.3847175
230	0xbd7f05b4	-0.0622613
231	0xbe1003da	-0.14063969
232	0xbc9b1cc1	-0.01893461
233	0xbe430669	-0.19045414
234	0x3e0c15f8	0.13680255
235	0xbe226114	-0.15857345
236	0xbd8a54d1	-0.06754459
237	0x3d61b34d	0.055102635
238	0x3ca9dd9c	0.020735554
239	0x3e04f134	0.12982637
240	0x3cede417	0.029039426
241	0xbd1c28e2	-0.038124926
242	0xba62cbfd	-0.00086516124
243	0xbdf1cdc2	-0.11806823
244	0xbe5ecf54	-0.21758777
245	0xbd917353	-0.071020745
246	0xbe106c20	-0.14103746
247	0xbe8713d3	-0.26382312
248	0xbb1e4527	-0.0024150105
249	0xbdc09bdd	-0.094047286
250	0xbe112e62	-0.1417785
251	0xbea69968	-0.32538915
252	0xbeb3d42a	-0.35122806
253	0x3e577af9	0.21043004
254	0xbe925db8	-0.28587127
255	0xbd187ecb	-0.037230294

bias_ih_l0 f4 [72]
0	0x3deec85d	0.1165931
1	0x3d11d461	0.03560293
2	0x3e8ef273	0.2791935
3	0x3d31c9f2	0.04340548
4	0x3d58567a	0.052816845
5	0x3e37611f	0.17908143
6	0x3e8d1aa0	0.27559376
7	0x3e380977	0.1797236
8	0x3e20c91a	0.15701714
9	0x3e4dc32c	0.20093983
10	0x3da5cac2	0.080953136
11	0x3df36a25	0.1188548
12	0x3e1029cc	0.14078444
13	0x3e2fca60	0.17167044
14	0x3e7ff837	0.2499703
15	0x3dd0b8ed	0.10191522
16	0x3d9286ce	0.07154618
17	0x3df3b16e	0.118990764
18	0x3e0d1f41	0.13781454
19	0x3d5fd316	0.054644667
20	0x3ea2b966	0.31782073
21	0x3e4dd3dc	0.20100349
22	0x3e7328ea	0.23746076
23	0x3e181ff9	0.14855947
24	0x3dcec822	0.10096766
25	0x3c8688ae	0.016422596
26	0xbb9c56cd	-0.0047710896
27	0x3e0b3087	0.1359273
28	0x3e200079	0.1562518
29	0x3d8e6a00	0.06953812
30	0x3e156ed5	0.1459306
31	0x3e44a3b1	0.19203068
32	0x3d8f0f00	0.06985283
33	0x3e764932	0.2405136
34	0x3e6dba89	0.23215689
35	0x3e60d9f9	0.2195815
36	0xbd41a18e	-0.04727321
37	0xb92d79e4	-0.00016543973
38	0xbca01bac	-0.019544445
39	0xbd3e4a73	-0.04645772
40	0xbd16d8c4	-0.036827818
41	0xbc457c5c	-0.012053575
42	0xbd4056ef	-0.046957906
43	0xbd5bd396	-0.05366858
44	0x3dd4836a	0.10376628
45	0xbd46fcbd	-0.048580874
46	0x3d322903	0.043496143
47	0xbcfef5a9	-0.031123
48	0xbd050d3c	-0.032483324
49	0xbb8bc821	-0.0042658006
50	0x3e037496	0.12837443
51	0x3b220744	0.002472357
52	0xbc690e37	-0.0142245805
53	0xbc9efa69	-0.019406514
54	0x3dde46fa	0.108533815
55	0x3db252de	0.08707212
56	0x3e7614fa	0.2403144
57	0x3e6bdd54	0.23033649
58	0x3e49f4c3	0.19722275
59	0x3e411064	0.18853909
60	0x3e19805c	0.14990371
61	0x3e5a3272	0.21308306
62	0x3c95d8de	0.018291887
63	0x3e36b592	0.17842701
64	0x3e37bf64	0.17944103
65	0x3ddb8584	0.107188255
66	0x3ddc26a2	0.10749556
67	0x3e74524c	0.23859519
68	0x3de68406	0.1125565
69	0x3e216cf6	0.15764222
70	0x3e48be48	0.19603837
71	0x3e52857a	0.2055873

bias_hh_l0 f4 [72]
0	0x3debf3db	0.11521121
1	0x3d10d50c	0.035359427
2	0x3e8fa3e5	0.2805473
3	0x3d336938	0.043801516
4	0x3d5dd930	0.054162204
5	0x3e376bfc	0.17912287
6	0x3e8e16fa	0.27751905
7	0x3e381115	0.17975266
8	0x3e211ea1	0.1573434
9	0x3e4cc044	0.19995219
10	0x3da5a7ab	0.08088621
11	0x3df5f452	0.12009491
12	0x3e1087ab	0.14114253
13	0x3e2f603b	0.17126553
14	0x3e7f3c14	0.24925262
15	0x3dd054cd	0.101724245
16	0x3d924448	0.0714193
17	0x3df3e72a	0.119093254
18	0x3e0ded77	0.13860117
19	0x3d60362b	0.05473916
20	0x3ea3105f	0.31848428
21	0x3e4d9c44	0.20079142
22	0x3e730478	0.23732173
23	0x3e16d547	0.14729796
24	0x3dd23844	0.10264638
25	0x3c812186	0.015763056
26	0xbb8fcce6	-0.0043884395
27	0x3e0d82ea	0.13819471
28	0x3e1fc61d	0.15602918
29	0x3d911f3e	0.07086037
30	0x3e178011	0.14794947
31	0x3e43e0bd	0.191287
32	0x3d8d0870	0.06886375
33	0x3e75da39	0.24009027
34	0x3e6dd009	0.2322389
35	0x3e61145f	0.21980427
36	0xbd41ccd1	-0.04731447
37	0xbadd5119	-0.0016885131
38	0xbcd72b8c	-0.026265882
39	0xbd4409e4	-0.047860995
40	0xbd2ba7dd	-0.041908134
41	0xbc417984	-0.011808757
42	0xbd335ea2	-0.04379142
43	0xbd5b20d6	-0.05349811
44	0x3dd3a087	0.103333525
45	0xbd5ba9c3	-0.053628694
46	0x3d138c90	0.036022723
47	0xbd03d761	-0.032187823
48	0xbd10f7ed	-0.03539269
49	0xbb23821e	-0.0024949382
50	0x3e03a93a	0.12857524
51	0x3b768488	0.0037615616
52	0xbc5e32b5	-0.013561894
53	0xbca2b24c	-0.01986041
54	0x3ddf0779	0.10890097
55	0x3db3585f	0.0875709
56	0x3e76c2ef	0.24097799
57	0x3e6c0f56	0.23052725
58	0x3e49e070	0.19714522
59	0x3e40fad4	0.18845683
60	0x3e1a072b	0.15041797
61	0x3e5a58ae	0.21322891
62	0x3c99ef9b	0.01879101
63	0x3e37fb60	0.17966986
64	0x3e3738e3	0.17892794
65	0x3dd726e7	0.10505467
66	0x3dda6051	0.10662902
67	0x3e75e2fc	0.24012369
68	0x3de26658	0.11054677
69	0x3e20f670	0.15719008
70	0x3e486624	0.19570214
71	0x3e52b93b	0.20578472

weight f4 [16, 21]
0	0x3d9a3532	0.075296775
1	0x3e465f1f	0.19372223
2	0xbd386cc6	-0.04502561
3	0xbd8c2331	-0.0684265
4	0xbd99fc1e	-0.07518791
5	0xbd9f3810	-0.07774365
6	0xbdac85d2	-0.08423962
7	0xbdb75482	-0.089516655
8	0xbdb6dda8	-0.08928996
9	0xbdb9c471	-0.09070671
10	0xbdc981b4	-0.09839192
11	0xbdced335	-0.10098878
12	0xbdd09de7	-0.101863675
13	0xbdcf020f	-0.101078145
14	0xbdd2f929	-0.1030143
15	0xbdec66f6	-0.11543076
16	0xbdff342e	-0.12461124
17	0xbde74210	-0.11291897
18	0xbe093479	-0.13398923
19	0xbe83500e	-0.25647014
20	0x3bcf05c3	0.0063178255
21	0x3d978a8c	0.073994726
22	0x3e4f5d9d	0.20250554
23	0xbd24d327	-0.040240433
24	0xbd819ceb	-0.06328758
25	0xbd8f33e4	-0.06992319
26	0xbd947501	-0.07248879
27	0xbda2a39e	-0.07941364
28	0xbdac5968	-0.084154904
29	0xbdabbe8b	-0.083859526
30	0xbdb1a282	-0.08673574
31	0xbdbff748	-0.09373337
32	0xbdc452b9	-0.095860906
33	0xbdc80a40	-0.0976758
34	0xbdc6b8cf	-0.09703218
35	0xbdc862d5	-0.09784476
36	0xbde2c98e	-0.110736
37	0xbdf6a6e4	-0.120435506
38	0xbddc776f	-0.10764968
39	0xbe04bd69	-0.12962879
40	0xbe813d3b	-0.25242028
41	0x3bdd0db9	0.0067460206
42	0x3ddd0dd7	0.10793655
43	0x3e80c712	0.2515188
44	0xbb85f6ab	-0.004088243
45	0xbcedd37c	-0.029031508
46	0xbd184096	-0.03717097
47	0xbd2a4d74	-0.04157777
48	0xbd4b6330	-0.04965514
49	0xbd621830	-0.05519885
50	0xbd62a8ca	-0.05533675
51	0xbd738b89	-0.059459243
52	0xbd8b0e0c	-0.067897886
53	0xbd911978	-0.07084936
54	0xbd943625	-0.0723689
55	0xbd942f3c	-0.07235572
56	0xbd996bb4	-0.07491246
57	0xbdb4450a	-0.08802231
58	0xbdc841d3	-0.0977818
59	0xbdad72c4	-0.084691554
60	0xbddcc8c8	-0.107804835
61	0xbe6ca230	-0.23108745
62	0x3d5b6ca4	0.053570405
63	0xbc8ed468	-0.017435268
64	0xbebacdc9	-0.36485127
65	0xbdeac165	-0.11462668
66	0xbd9feef9	-0.07809252
67	0xbd73769d	-0.05943929
68	0xbd4e0453	-0.050297093
69	0xbd2d8391	-0.0423618
70	0xbd0d4826	-0.034492634
71	0xbcf9d5d2	-0.030497465
72	0xbcb89688	-0.022532716
73	0xbc083a6f	-0.008314713
74	0x3b2ec961	0.0026670324
75	0x3c03303f	0.008007108
76	0x3ab51409	0.0013815175
77	0xbc26b43a	-0.010174805
78	0xbc8d7488	-0.01726748
79	0xbcc73442	-0.02431691
80	0xbd34d5d1	-0.044149224
81	0xbc812074	-0.015762545
82	0x3dfbf582	0.12302686
83	0xbdebf757	-0.11521786
84	0x3cf4f93e	0.029904004
85	0xbf17c9ae	-0.59292114
86	0x3c804865	0.01565952
87	0xbc1a449b	-0.009415771
88	0x3aebe2e3	0.0017996695
89	0x3cc565b1	0.024096342
90	0x3d2b07ca	0.041755475
91	0x3d6bad0d	0.05753808
92	0x3d5a62fc	0.053317055
93	0x3d25ae24	0.040449277
94	0x3d32e2bc	0.043673262
95	0x3d978032	0.07397498
96	0x3dd99d42	0.10625698
97	0x3dfaeebe	0.12252568
98	0x3db81d42	0.089899555
99	0x3d23db97	0.04000434
100	0x3c22aeae	0.009929342
101	0x3c19d0fe	0.0093882065
102	0x3d663e45	0.05621173
103	0x3e3566c3	0.17714982
104	0xbc81ef1c	-0.015861087
105	0x3dbc45f1	0.09193028
106	0xbecdc758	-0.4019115
107	0x3ddbe3e9	0.1073683
108	0x3da29289	0.079381056
109	0x3d6dd103	0.058060657
110	0x3d2ba24b	0.04190282
111	0x3cee3770	0.029079169
112	0x3cdbead9	0.026845383
113	0x3d08b3d9	0.03337464
114	0x3d2a575d	0.041587222
115	0x3d4dec19	0.05027399
116	0x3d6cb897	0.057793226
117	0x3d6bc664	0.057562247
118	0x3d2657be	0.04061102
119	0x3c2c1ec9	0.010505387
120	0xbbc1cb2c	-0.0059141126
121	0xbc7cfc7c	-0.015441056
122	0xbd192f4f	-0.037398633
123	0xbd56c79f	-0.052436467
124	0xbd26759a	-0.040639497
125	0xbd857342	-0.06516124
126	0x3cff1843	0.031139499
127	0xbeb598f6	-0.35468262
128	0xbd8af82c	-0.06785616
129	0xbd216595	-0.039403517
130	0xbcecc1c9	-0.028900998
131	0xbcdf933d	-0.027291888
132	0xbcbed9cc	-0.023297213
133	0xbcb83c2b	-0.022489628
134	0xbcb27a27	-0.021786762
135	0xbc93e080	-0.018051386
136	0xbc4d67e7	-0.012536979
137	0xbc3cb06c	-0.011516672
138	0xbc88cd5e	-0.01669949
139	0xbcddea26	-0.02708919
140	0xbd1d51bd	-0.03840803
141	0xbd226fb1	-0.0396573
142	0xbd275870	-0.040855825
143	0xbd734e6f	-0.059400972
144	0xbd231fd6	-0.039825283
145	0x3da81848	0.08207756
146	0xbcd9a1ef	-0.026566474
147	0x3e097509	0.13423552
148	0x3ea4720a	0.32118255
149	0x3c90c811	0.017673524
150	0xbbca339e	-0.006170704
151	0xbc662b06	-0.0140483435
152	0xbc9092f9	-0.017648207
153	0xbcc4bf4d	-0.024017
154	0xbcee0396	-0.029054444
155	0xbce569d3	-0.028004562
156	0xbcffee1c	-0.03124147
157	0xbd228686	-0.039679073
158	0xbd301837	-0.042991843
159	0xbd334b46	-0.04377296
160	0xbd2cadfa	-0.042158104
161	0xbd2cd5a2	-0.042195924
162	0xbd59bb78	-0.0531573
163	0xbd7ab38f	-0.061206397
164	0xbd444935	-0.04792138
165	0xbd92a37d	-0.07160089
166	0xbe486ee5	-0.19573553
167	0x3def6702	0.11689569
168	0x3dfade36	0.122494146
169	0x3e93a963	0.2884017
170	0x3c0c1fcd	0.008552504
171	0xbc8a45b7	-0.016878946
172	0xbcd3d273	-0.025857186
173	0xbcf6c301	-0.030122282
174	0xbd1a807b	-0.037720185
175	0xbd32a4eb	-0.04361431
176	0xbd33ca7e	-0.043894283
177	0xbd41b373	-0.047290277
178	0xbd64b068	-0.055832297
179	0xbd7260c0	-0.0591743
180	0xbd78cfcf	-0.060745057
181	0xbd7723e9	-0.06033698
182	0xbd771af5	-0.060328443
183	0xbd925cc9	-0.071466036
184	0xbda344a4	-0.079720765
185	0xbd89c18a	-0.06726368
186	0xbdb796aa	-0.08964284
187	0xbe5ad24b	-0.21369283
188	0x3d9b46db	0.07581874
189	0x3dea028c	0.11426267
190	0x3e87288d	0.26398125
191	0x3b42de7f	0.0029734669
192	0xbcb32489	-0.021868007
193	0xbd015558	-0.03157553
194	0xbd12ce49	-0.03584126
195	0xbd339cbe	-0.043850653
196	0xbd4a29b0	-0.049356163
197	0xbd4f2f5d	-0.05058228
198	0xbd58d00a	-0.052932777
199	0xbd7da141	-0.06192136
200	0xbd866be5	-0.06563548
201	0xbd893dc4	-0.06701234
202	0xbd8a49cf	-0.06752359
203	0xbd8f245c	-0.06989357
204	0xbda85253	-0.08218827
205	0xbdba1e06	-0.09087758
206	0xbda1492c	-0.078752846
207	0xbdcf9581	-0.101359375
208	0xbe671c1e	-0.2256932
209	0x3d8114f5	0.06302825
210	0x3cdab3a5	0.02669699
211	0xbf12aa69	-0.57291275
212	0x3dc1409b	0.09436151
213	0x3d405c9a	0.04696331
214	0x3d022e02	0.031782158
215	0x3cc608b6	0.024174076
216	0x3c8b8839	0.01703273
217	0x3cac68ee	0.021046128
218	0x3ccd6473	0.025072312
219	0x3cdd50df	0.027016101
220	0x3d4e2782	0.050330646
221	0x3db7c65b	0.0897338
222	0x3df4dc1f	0.11956047
223	0x3dff9a2c	0.12480578
224	0x3da09a33	0.07841911
225	0x3c715d61	0.014731736
226	0xbccf9c3e	-0.025343057
227	0xbd1eb449	-0.038746152
228	0xbb79b657	-0.0038103068
229	0x3dc31db9	0.095271535
230	0xbbe2efdf	-0.0069255675
231	0xbd02f1b3	-0.031968784
232	0xbeb2c695	-0.3491713
233	0xbe080a82	-0.13285258
234	0xbdc1c7d6	-0.09461944
235	0xbd961fb1	-0.073302634
236	0xbd80b6cc	-0.06284866
237	0xbd55663f	-0.052099463
238	0xbd46d562	-0.04854334
239	0xbd42a304	-0.047518745
240	0xbd284b48	-0.04108742
241	0xbceec7e0	-0.029148042
242	0xbca51763	-0.020152753
243	0xbc86b989	-0.016445892
244	0xbc91176b	-0.017711362
245	0xbcab1707	-0.020885004
246	0xbc8e37ba	-0.017360557
247	0xbc6c9c92	-0.014441626
248	0xbced1924	-0.028942652
249	0x3b449c1c	0.0030000275
250	0x3e1180bf	0.14209269
251	0xbe11e46f	-0.14247297
252	0x3d3e0a38	0.046396464
253	0xbf0006d3	-0.5001041
254	0x3d6570d3	0.0560158
255	0x3cf6d14c	0.030129097

bias f4 [16]
0	0xbc8e896c	-0.017399512
1	0xbcacfaba	-0.02111565
2	0xbbdb6c2d	-0.006696245
3	0x3e1b2aa5	0.15152986
4	0x3c91b43b	0.017786136
5	0xbd95dcbb	-0.073174916
6	0x3e31fb7b	0.17381088
7	0x3ba0dd52	0.004909196
8	0xbbafc347	-0.005363855
9	0xbbc8c01f	-0.0061264182
10	0x3ce43088	0.027855173
11	0x3db43dec	0.08800873
12	0xbcc584ed	-0.024111236
13	0xbc996942	-0.018726949
14	0xbcac3ae3	-0.021024173
15	0xbbc6c4f1	-0.0060659577
