vehicle/autoware_raw_vehicle_cmd_converter/src/vehicle_adaptor/autoware_vehicle_adaptor/vehicle_models/vehicle_model_2.pth (torch, 35088 bytes, 18 tensors)

weight f4 [16, 20]
-0.0022363681 0.37146688 -0.018980201 -0.0543689 -0.03999708 -0.05893056 -0.076536104 -0.07584355
-0.072259314 -0.07386569 -0.08719885 -0.08425783 -0.07426972 -0.09557327 -0.09562747 -0.10143621
-0.0649649 -0.051262964 -0.03234017 -0.16952121 0.07161869 -0.97910863 0.13506547 0.072931305
0.06796777 0.07682145 0.08838613 0.067887366 0.0920555 0.08699215 0.11045942 0.12729675
0.16662845 0.24083988 0.12163558 0.04927586 0.036279466 0.04666096 0.05163207 0.1414937
-0.021835925 0.34032914 -0.022196418 -0.019492967 0.009445904 -0.0059614284 0.0037471512 0.00025336404
-0.02719505 -0.033327356 -0.03494379 -0.04275578 -0.043309636 -0.043400295 -0.06553792 -0.09447804
-0.08847325 -0.08612609 -0.04633451 -0.1675735 -0.030596517 0.28524396 0.021712666 -0.0047641797
0.0045250407 -0.027978992 -0.06584087 -0.06262913 -0.043019675 -0.03811679 -0.047850303 -0.06035904
-0.07123064 -0.11226592 -0.15388659 -0.17344254 -0.16640663 -0.14494164 -0.033856314 -0.08199553
0.0064786444 0.30379945 0.021789344 -0.0032423786 0.011204614 -0.0063174316 -0.00084833096 0.008588437
0.0018431369 -0.014478285 -0.047582034 -0.074042305 -0.07411371 -0.08467453 -0.10359546 -0.11649573
-0.107349254 -0.10993194 -0.06426879 -0.17710978 -0.00088463794 0.2600909 -0.0715109 0.004301599
0.0020590518 -0.024940815 -0.014980923 -0.010945301 -0.06700001 -0.10763101 -0.1229829 -0.13988103
-0.117284924 -0.037001766 -0.08931859 -0.12350375 -0.10079505 -0.107019335 -0.10118649 -0.38279712
-0.004561725 0.27189973 -0.006694564 -0.025225556 -0.004932722 -0.010165749 0.0026393742 0.0044789095
-0.0066281673 -0.016052548 -0.0321191 -0.050809134 -0.06052661 -0.0780447 -0.1121695 -0.1347344
-0.12845643 -0.1264201 -0.073952734 -0.17379797 -0.32734367 -0.38967982 0.008636412 0.026463702
0.0055027837 0.039575625 0.066020995 -0.04126352 -0.003885182 -0.020416655 0.07911541 0.222663
0.34837285 0.39216474 0.31709582 0.22265792 0.14134976 0.1425591 0.26467252 0.5473892
0.009830773 0.28280392 0.011085706 -0.0038530028 0.014552822 -0.0051171854 -0.003162459 -0.0061456203
-0.023234196 -0.033273723 -0.059237923 -0.082789086 -0.083833426 -0.089962184 -0.10620612 -0.12532178
-0.11205975 -0.10124205 -0.056676965 -0.18272363 0.09354192 0.5240631 0.116489135 0.07021462
0.08741119 0.06542966 0.04953815 0.030636096 0.006864642 -0.010881192 -0.046422355 -0.099053316
-0.12691817 -0.15307453 -0.08414951 -0.026296016 -0.018579088 -0.015573683 0.030751888 -0.07858042
-0.020238202 0.34647307 0.011610382 -0.027558627 -0.00085524353 -0.025150903 -0.02405458 -0.036941916
-0.044057384 -0.019049816 -0.010863431 -0.012704247 -0.0060951295 -0.023537327 -0.06584164 -0.105812736
-0.11284892 -0.11687138 -0.05736642 -0.1941805 0.05361469 -1.0685644 0.059942447 0.028527489
0.036636595 0.06831716 0.077056885 0.065268666 0.10128511 0.11757589 0.14641249 0.17323434
0.20055532 0.2768464 0.11765861 0.02396223 0.036014464 0.06623129 0.06426919 0.1287881
-0.011373393 0.26209018 -0.01770741 -0.035367813 -0.010039217 -0.012785925 0.003206776 0.009711003
0.0012658964 -0.01353146 -0.030530706 -0.04938676 -0.06281989 -0.08531338 -0.11946348 -0.14154209
00000000: 0890 12bb e830 be3e 5e7c 9bbc ecb1 5ebd
00000010: fad3 23bd 2c61 71bd f6be 9cbd dd53 9bbd
00000020: b1fc 93bd e546 97bd 5095 b2bd 5f8f acbd
00000030: b91a 98bd ebbb c3bd 56d8 c3bd cabd cfbd
00000040: 510c 85bd 1df9 51bd 2077 04bd f896 2dbe
00000050: d2ac 923d dda6 7abf 9a4e 0a3e 025d 953d
00000060: b032 8b3d 9054 9d3d ca03 b53d 8808 8b3d
00000070: 9887 bc3d f128 b23d 8c38 e23d 145a 023e
00000080: a6a0 2a3e bb9e 763e 131c f93d 7cd5 493d
00000090: c799 143d 901f 3f3d 267c 533d b9e3 103e
000000a0: 41e1 b2bc 9f3f ae3e 43d5 b5bc b7af 9fbc
000000b0: fec2 1a3c 1658 c3bb c492 753b f2d5 8439
000000c0: 27c8 debc 4482 08bd 3821 0fbd af20 2fbd
000000d0: 7265 31bd 82c4 31bd bf38 86bd b47d c1bd
000000e0: 7731 b5bd e062 b0bd 41c9 3dbd 6398 2bbe
000000f0: 8ca5 fabc 7f0b 923e c3de b13c d61c 9cbb
00000100: cb46 943b 3334 e5bc 94d7 86bd b443 80bd
00000110: 6635 30bd 5a20 1cbd aefe 43bd 0a3b 77bd
00000120: 5fe1 91bd adeb e5bd 7294 1dbe ec9a 31be
00000130: 8066 2abe 956b 14be ebac 0abd 46ed a7bd
00000140: cf4a d43b 9a8b 9b3e 917f b23c 167e 54bb
00000150: 8f93 373c 7502 cfbb 8762 5eba 84b6 0c3c
00000160: 6995 f13a 5436 6dbc 61e5 42bd 7ea3 97bd
00000170: eec8 97bd d769 adbd db29 d4bd 5095 eebd
00000180: edd9 dbbd ff23 e1bd 5b9f 83bd 445c 35be
00000190: 0ce7 67ba a22a 853e 4f74 92bd 6ef4 8c3b
000001a0: 28f1 063b ae50 ccbc 8c72 75bc eb53 33bc
000001b0: 4d37 89bd a66d dcbd 75de fbbd f93c 0fbe
000001c0: 1433 f0bd 2a8f 17bd aaec b6bd 89ef fcbd
000001d0: a36d cebd f42c dbbd dd3a cfbd fcfd c3be
000001e0: 867a 95bb 7136 8b3e 135e dbbb d3a5 cebc
000001f0: aca2 a1bb 3e8e 26bc 5af9 2c3b d1c3 923b
00000200: 1931 d9bb a280 83bc 518f 03bd 3d1d 50bd
00000210: c0ea 77bd e6d5 9fbd 1fb9 e5bd d1f7 09be
00000220: 158a 03be 4574 01be 8874 97bd 18f8 31be
00000230: 9799 a7be 1d84 c7be bd7f 0d3c 68ca d83c
00000240: b250 b43b 0d1a 223d 0436 873d f003 29bd
00000250: 8a9e 7ebb d440 a7bc 4307 a23d c501 643e
00000260: ed5d b23e d1c9 c83e 625a a23e 7000 643e
00000270: febd 103e 03fb 113e 2883 873e b321 0c3f
00000280: 4011 213c adcb 903e d2a0 353c a982 7cbb
00000290: f66e 6e3c 10ae a7bb 4241 4fbb 3361 c9bb
000002a0: a455 bebc 074a 08bd 77a3 72bd 538d a9bd
000002b0: dcb0 abbd 183e b8bd 9882 d9bd 5a54 00be
000002c0: 957f e5bd fe57 cfbd 1b26 68bd e71b 3bbe
000002d0: e892 bf3d 0029 063f db91 ee3d afcc 8f3d
000002e0: a304 b33d fcff 853d 84e8 4a3d 8df8 fa3c
000002f0: caf0 e03b 0747 32bc 5e25 3ebd 77dc cabd
00000300: d6f6 01be 92bf 1cbe 9456 acbd be6a d7bc
00000310: 2c33 98bc c328 7fbc 62eb fb3c c5ee a0bd
00000320: 96ca a5bc eb64 b13e 7939 3e3c a1c2 e1bc
00000330: 6c32 60ba 4409 cebc 1c0e c5bc 6850 17bd
00000340: 8475 34bd 5c0e 9cbc 88fc 31bc 7925 50bc
00000350: a7b9 c7bb 5ad1 c0bc fbd7 86bd 59b4 d8bd
00000360: 561d e7bd 435a efbd 0df9 6abd 41d7 46be
00000370: 149b 5b3d b8c6 88bf 3686 753d 7bb2 e93c
00000380: 4110 163d dee9 8b3d 00d0 9d3d 94ab 853d
00000390: 916e cf3d a1cb f03d 28ed 153e 5864 313e
000003a0: 605e 4d3e d0be 8d3e fff6 f03d 704c c43c
000003b0: e783 133d 45a4 873d 919f 833d 07e1 033e
000003c0: 7857 3abc af30 863e 210f 91bc d7dd 10bd
000003d0: 877b 24bc 0e7c 51bc c628 523b e61a 1f3c
000003e0: 6fec a53a 0fb3 5dbc 881b fabc c549 4abd
000003f0: b7a7 80bd c8b8 aebd 45a9 f4bd 69f0 10be

bias f4 [16]
-0.06854794 0.013330277 -0.13635913 -0.053962458 -0.11425382 0.029998021 -0.11618374 -0.07107337
-0.1029485 -0.07020827 -0.17962728 0.053101845 -0.10861301 -0.13803479 -0.15716036 -0.13762891
00000000: dd62 8cbd 3c67 5a3c baa1 0bbe bd07 5dbd
00000010: e8fd e9bd 69be f53c bef1 edbd ea8e 91bd
00000020: aad6 d2bd 5ac9 8fbd 37f0 37be 5281 593d
00000030: 7f70 debd fe58 0dbe a5ee 20be 98ee 0cbe

weight f4 [16, 20]
0.0061044986 -0.8070305 -0.24082962 -0.27839342 -0.32990548 -0.43519223 -0.5165906 -0.51192456
-0.48934627 -0.487317 -0.49535134 -0.44326755 -0.2824941 -0.089845434 -0.016856328 -0.059869066
-0.1326554 -0.16690406 -0.076007806 0.056652986 0.17171118 0.26494333 0.43573177 0.34549025
0.2361322 0.09931564 -0.030365286 -0.11142473 -0.16315481 -0.2135352 -0.24989092 -0.2471702
-0.20709756 -0.16927746 -0.15884915 -0.1740429 -0.20302187 -0.23664825 -0.2532895 -0.28107297
0.10947657 0.16920498 0.009500506 0.02658913 0.04221198 0.05997251 0.07532211 0.084005274
0.09324882 0.10537855 0.11486399 0.11812739 0.114725225 0.11052349 0.10614592 0.10157179
0.09982687 0.1013242 0.10314519 0.1060571 -1.0708073 -0.28720418 -0.5757883 -0.47594446
-0.3465124 -0.18261199 -0.058991484 -0.02879174 -0.025546582 -0.002450125 0.01807501 -0.036487944
-0.20860718 -0.40215698 -0.45464006 -0.3380987 -0.19234936 -0.14607489 -0.31129783 -0.544135
0.023738675 -1.0469631 -0.3732208 -0.33470586 -0.33968687 -0.35673302 -0.33509487 -0.2792867
-0.22936806 -0.18825048 -0.14109622 -0.06833964 0.016185721 0.10018135 0.15283068 0.16609067
0.1808148 0.22722185 0.32279292 0.44591847 -0.89172834 -0.37155038 -0.6605957 -0.57430065
-0.4546385 -0.28023684 -0.14576608 -0.11194677 -0.115071036 -0.105454855 -0.08569405 -0.13358171
-0.28948268 -0.47036538 -0.5251908 -0.42366594 -0.291596 -0.25487915 -0.41946337 -0.64419025
0.008783345 -1.009269 -0.24356589 -0.22728004 -0.2581935 -0.309932 -0.31812143 -0.28057572
-0.24924949 -0.2317521 -0.20891452 -0.15478827 -0.07336406 0.0023554715 0.040124923 0.028601365
0.026990406 0.070712805 0.17853633 0.31878847 0.0030446416 -1.0237231 -0.25616115 -0.24266057
-0.27312973 -0.32675758 -0.33741805 -0.29493466 -0.2568765 -0.23331772 -0.20665292 -0.14949472
-0.059902623 0.021837033 0.059617534 0.04223761 0.029259216 0.060929157 0.17250814 0.33282474
0.024911484 -0.9866242 -0.27426097 -0.2476422 -0.2579157 -0.27311072 -0.254735 -0.20628156
-0.16061328 -0.12091491 -0.07349827 0.0024989352 0.08524596 0.16324036 0.21015412 0.2168696
0.223807 0.25936303 0.33768922 0.44263506 0.10971611 0.1732025 0.013168149 0.030339988
0.046094377 0.06371128 0.07910036 0.08707144 0.098170586 0.10938373 0.11878105 0.12227822
0.118675455 0.11418154 0.10879054 0.1055085 0.10321441 0.10409821 0.10609765 0.10889101
0.006906069 -1.0246212 -0.26373994 -0.26715502 -0.29725853 -0.3578622 -0.36958975 -0.310797
-0.255856 -0.22644268 -0.20727038 -0.15298401 -0.057612594 0.039067958 0.06829868 0.02204507
-0.031687897 -0.038893875 0.04247969 0.16445184 0.11673727 -0.56587654 -0.2188924 -0.2780485
-0.34338877 -0.43578348 -0.49666557 -0.48023096 -0.4335985 -0.38778678 -0.34368384 -0.26912054
-0.16644137 -0.08110167 -0.046160005 -0.04199767 -0.04173239 -0.0500733 -0.05365561 -0.09999353
0.011095494 -1.0121154 -0.23178634 -0.22304219 -0.25738236 -0.31507102 -0.32915628 -0.2894323
-0.25275972 -0.23242967 -0.20877685 -0.15150428 -0.061150156 0.017863816 0.053067368 0.03113296
00000000: 3f08 c83b 8d99 4ebf 0a9c 76be 9589 8ebe
00000010: 5fe9 a8be 84d1 debe 483f 04bf 7d0d 03bf
00000020: 988b fabe 9d81 f9be b19e fdbe f7f3 e2be
00000030: 11a3 90be e200 b8bd 4816 8abc 4439 75bd
00000040: d1d6 07be e6e8 2abe fba9 9bbd f60c 683d
00000050: 0ed5 2f3e a7a6 873e 3c18 df3e 19e4 b03e
00000060: a4cc 713e 0066 cb3d 9fc0 f8bc a632 e4bd
00000070: 0e12 27be f9a8 5abe 68e3 7fbe 2f1a 7dbe
00000080: 6211 54be 1257 2dbe 5aa9 22be 4d38 32be
00000090: f7e4 4fbe eb53 72be 29af 81be cce8 8fbe
000000a0: 4035 e03d 1244 2d3e 03a8 1b3c 72d1 d93c
000000b0: 78e6 2c3d bca5 753d 7a42 9a3d f50a ac3d
000000c0: 3df9 be3d b6d0 d73d d03d eb3d c6ec f13d
000000d0: 0ff5 ea3d 245a e23d 0863 d93d df04 d03d
000000e0: 0872 cc3d 1083 cf3d c93d d33d 7734 d93d
000000f0: 3710 89bf 6d0c 93be dd66 13bf feae f3be
00000100: 136a b1be a3fe 3abe 0ea1 71bd a8dc ebbc
00000110: 1147 d1bc 4792 20bb 0b12 943c 6274 15bd
00000120: 1f9d 55be 85e7 cdbe 95c6 e8be 461b adbe
00000130: 3bf7 44be a894 15be 6e62 9fbe 6e4c 0bbf
00000140: 9c77 c23c e302 86bf cc16 bfbe 915e abbe
00000150: 70eb adbe b6a5 b6be 8e91 abbe abfe 8ebe
00000160: 76df 6abe bcc4 40be 877b 10be a7f5 8bbd
00000170: eb97 843c e12b cd3d a57f 1c3e ac13 2a3e
00000180: 8427 393e d8ac 683e 1d45 a53e 6d4f e43e
00000190: 4f48 64bf da3b bebe cd1c 29bf 5e05 13bf
000001a0: 61c6 e8be 347b 8fbe b443 15be 5944 e5bd
000001b0: 5daa ebbd b7f8 d7bd 5d80 afbd a5c9 08be
000001c0: 1337 94be bbd3 f0be e772 06bf beea d8be
000001d0: 124c 95be 857f 82be e7c3 d6be a7e9 24bf
000001e0: 05e8 0f3c ba2f 81bf 5669 79be 19bc 68be
000001f0: f031 84be 68af 9ebe d0e0 a2be 9fa7 8fbe
00000200: 423b 7fbe 6c50 6dbe b0ed 55be d180 1ebe
00000210: e53f 96bd 415e 1a3b 085a 243d 694d ea3c
00000220: fc1a dd3c e0d1 903d 3ad2 363e 3e38 a33e
00000230: 9c88 473b 5c09 83bf 8e27 83be 037c 78be
00000240: a9d7 8bbe c54c a7be 0fc2 acbe ad01 97be
00000250: 5185 83be d7ea 6ebe d39c 53be 2515 19be
00000260: 745c 75bd 94e3 b23c 8431 743d 5801 2d3d
00000270: 06b1 ef3c da90 793d f9a5 303e 0168 aa3e
00000280: 2b13 cc3c 6793 7cbf ef6b 8cbe eb95 7dbe
00000290: 870d 84be 2bd5 8bbe a06c 82be 793b 53be
000002a0: cf77 24be 3da2 f7bd 4386 96bd 2dc5 233b
000002b0: 6f95 ae3d 7b28 273e a432 573e 1013 5e3e
000002c0: aa2d 653e 3bcb 843e 9ae5 ac3e 10a1 e23e
000002d0: d7b2 e03d ff5b 313e 38bf 573c 918b f83c
000002e0: 75cd 3c3d 0f7b 823d 5fff a13d 8352 b23d
000002f0: a90d c93d 9404 e03d 7b43 f33d 016d fa3d
00000300: 1e0c f33d 03d8 e93d 93cd de3d d714 d83d
00000310: 1462 d33d 7131 d53d ba49 d93d 4002 df3d
00000320: 4e4c e23b ca26 83bf ec08 87be 8bc8 88be
00000330: 4532 98be b739 b7be de3a bdbe c920 9fbe
00000340: 8fff 82be 97e0 67be b03e 54be d7a7 1cbe
00000350: 2ffb 6bbd b905 203d 2ee0 8b3d dd97 b43c
00000360: 2bcb 01bd 2f4f 1fbd 2fff 2d3d 1066 283e
00000370: f313 ef3d 49dd 10bf 5425 60be 5f5c 8ebe
00000380: a7d0 afbe 031f dfbe f34a febe d5e0 f5be
00000390: 9f00 debe fd8b c6be 54f7 afbe 2bca 89be
000003a0: 9b6f 2abe a218 a6bd 4612 3dbd c005 2cbd
000003b0: 95ef 2abd a919 4dbd fcc5 5bbd 68c9 ccbd
000003c0: e0c9 353c ff8c 81bf 6659 6dbe 2c65 64be
000003d0: 9fc7 83be fd50 a1be 2c87 a8be 7830 94be
000003e0: b969 81be 0b02 6ebe 99c9 55be f023 1bbe
000003f0: 9678 7abd 2357 923c 2b5d 593d 8d0a ff3c

bias f4 [16]
0.023443723 0.02753177 0.19179666 0.019965863 -0.001907443 0.088792205 0.015334001 0.03175991
-0.014706438 0.2023907 0.034273606 0.009519513 0.016209885 -0.032961197 0.0012025948 -0.016757721
00000000: 0d0d c03c 4e8a e13c 5866 443e 738f a33c
00000010: 2b03 faba b0d8 b53d 763b 7b3c ae16 023d
00000020: 46f3 70bc 823f 4f3e 7b62 0c3d bbf7 1b3c
00000030: 98ca 843c 5202 07bd 63a0 9d3a 7d47 89bc

weight f4 [8, 16]
0.037936702 0.010487972 0.086648926 0.06490527 0.087372504 0.06483318 0.07127793 9.2156064e-08
0.09012352 0.36407912 0.15982342 -0.94843334 0.07039706 0.0852165 0.14528316 0.0849347
0.06774494 -1.1072319 0.05554412 0.0625282 0.074591644 0.07319133 0.07073735 -1.4812233e-07
0.07726721 0.17157471 0.09680124 -0.2366526 0.07158061 0.06851347 0.08233751 0.067153335
0.090522066 -0.9048731 0.10230465 0.10537726 0.0914236 0.07604416 0.098391876 7.3586826e-08
0.091006085 -0.023906382 0.1352539 -0.39941645 0.09941302 0.1104644 0.1194749 0.11017922
0.19795395 -0.34218 0.13751704 0.13945311 0.08232999 0.21706396 0.087651275 0.11396693
0.11143439 -0.33746 0.15555625 0.018095763 0.08991258 0.103855014 0.13258949 0.10475018
0.07806315 -1.6704319 0.0979284 0.10631616 0.082753584 0.09475509 0.09092645 -0.22485097
0.08395575 -0.014447833 0.1574757 -1.4388012 0.09341329 0.08739597 0.1345788 0.08830166
0.082770176 -0.7569378 0.08452872 0.09498107 0.0887158 0.078010544 0.087344676 -0.016044224
0.0881022 0.1542989 0.12727273 -1.5491122 0.08843906 0.080975264 0.106760666 0.08062001
0.066912614 -0.9928227 0.05240695 0.060860533 0.07458347 0.07322779 0.07052905 -1.0070451e-08
0.07661062 0.18038805 0.093417116 -0.26420107 0.07077177 0.06490812 0.07947645 0.06402323
-0.27496648 0.5863683 0.17124398 -0.64227974 -0.35153258 0.5985948 -0.38025537 0.5480101
-0.06097756 -0.7623895 -0.017353322 0.6339259 -0.46181643 0.00468818 -0.01852227 0.0054219924
00000000: 8463 1b3d bed5 2b3c fe74 b13d 0eed 843d
00000010: 5bf0 b23d 42c7 843d 2afa 913d 55e7 c533
00000020: ae92 b83d 9468 ba3e c0a8 233e 87cc 72bf
00000030: 552c 903d fd85 ae3d 1cc5 143e 3ef2 ad3d
00000040: dcbd 8a3d c6b9 8dbf 3b82 633d c90e 803d
00000050: 81c3 983d 56e5 953d bede 903d 8e0b 1fb4
00000060: 453e 9e3d 48b1 2f3e bb3f c63d 0f55 72be
00000070: db98 923d ca50 8c3d 92a0 a83d b087 893d
00000080: a263 b93d c3a5 67bf 1a85 d13d 08d0 d73d
00000090: 4c3c bb3d 0abd 9b3d ae81 c93d c906 9e33
000000a0: 6661 ba3d 51d7 c3bc 0080 0a3e 5080 ccbe
000000b0: 0e99 cb3d 293b e23d 42af f43d a5a5 e13d
000000c0: 71b4 4a3e 3832 afbe 44d1 0c3e cccc 0e3e
000000d0: a09c a83d 0446 5e3e 8382 b33d 7e67 e93d
000000e0: b737 e43d 8fc7 acbe 234a 1f3e 913d 943c
000000f0: 1624 b83d f0b1 d43d 8ac5 073e 4387 d63d
00000100: 93df 9f3d b6d0 d5bf af8e c83d 49bc d93d
00000110: b67a a93d f50e c23d a637 ba3d 553f 66be
00000120: fef0 ab3d 9bb6 6cbc 4f41 213e a32a b8bf
00000130: 784f bf3d a9fc b23d 06cf 093e 80d7 b43d
00000140: 6983 a93d adc6 41bf 651d ad3d 6f85 c23d
00000150: a1b0 b53d fec3 9f3d c4e1 b23d 2d6f 83bc
00000160: ed6e b43d 8800 1e3e c853 023e 4f49 c6bf
00000170: 8a1f b53d 5cd6 a53d 56a5 da3d 1b1c a53d
00000180: 7b09 893d a129 7ebf aca8 563d e548 793d
00000190: 38bf 983d 74f8 953d 8971 903d 5002 2db2
000001a0: 07e6 9c3d a5b7 383e 7951 bf3d 5d45 87be
000001b0: caf0 903d 8cee 843d 8dc4 a23d 9c1e 833d
000001c0: 68c8 8cbe 3c1c 163f 955a 2f3e 726c 24bf
000001d0: 14fc b3be 823d 193f d5b0 c2be 644a 0c3f
000001e0: 9bc3 79bd f52b 43bf 8e28 8ebc f848 223f
000001f0: 3473 ecbe 4e9f 993b 04bc 97bc f8aa b13b

bias f4 [8]
-0.11575458 -0.18501627 -0.19042572 0.0047802073 -0.034703936 -0.09687926 -0.18425758 0.108260766
00000000: bd10 edbd e874 3dbe f6fe 42be 49a3 9c3b
00000010: b725 0ebd a268 c6bd 05ae 3cbe d2b7 dd3d

weight f4 [8, 16]
-0.08154572 -0.1913971 0.1062091 0.60174614 -0.69851667 0.6790826 -0.20097743 -0.1784437
-0.6044944 0.11157719 -0.14297032 -0.18444349 -0.19253564 -0.18748942 -0.13645679 -0.18365428
-0.078420244 0.018129034 0.19036235 0.5063171 -0.08550111 0.35243303 -0.089699306 -0.09544496
-0.06183033 0.19427103 -0.051907156 0.067313485 -0.07610947 -0.13519679 -0.0521754 -0.12810455
-0.339629 -0.26436692 0.074121736 0.41657317 0.083700135 0.4944782 0.05010781 0.030932773
0.02870139 0.07790414 -0.060659837 -0.24387218 0.06781965 -0.052707963 0.04505811 0.0030300082
-0.2650488 -0.42687482 0.08947557 0.41243455 0.28259683 0.47918397 0.13006926 0.12862691
0.2803592 0.09442433 0.04019628 -0.34534508 0.11205002 0.24415188 0.048512176 0.17152438
-0.2944281 -0.2032287 0.09314229 0.42018634 -0.12665349 0.45912707 -0.121243194 -0.113196336
-0.10585632 0.097316965 -0.139192 -0.1855177 -0.100021176 -0.12686037 -0.13098805 -0.19775908
-0.26770124 -0.16825573 0.119004406 0.59356755 -0.2242144 0.6799795 -0.21854673 -0.23579234
-0.19264813 0.12159815 -0.27797693 -0.08635407 -0.22660236 -0.12827675 -0.30554265 -0.20310917
-0.27618408 -0.14967519 0.13088262 0.6120507 -0.16023993 0.7093795 -0.27496654 -0.29495716
-0.121880405 0.13495846 -0.35458794 -0.032386467 -0.2898352 -0.20480458 -0.3939402 -0.26003274
-0.041340962 -0.24850577 0.069048025 0.4201934 0.02426561 0.48005843 0.0136166075 0.043602407
0.05083986 0.07434092 0.033189483 -0.1267858 0.024387795 0.008609707 0.052880146 0.0034779736
00000000: 7101 a7bd 9afd 43be 2884 d93d 090c 1a3f
00000010: fdd1 32bf 5bd8 2d3f 07cd 4dbe f2b9 36be
00000020: 25c0 1abf 9582 e43d d066 12be c1de 3cbe
00000030: 1028 45be 3afd 3fbe 54bb 0bbe de0f 3cbe
00000040: cb9a a0bd 5783 943c 59ee 423e ff9d 013f
00000050: 351b afbd 1a72 b43e 45b4 b7bd a678 c3bd
00000060: cd41 7dbd fcee 463e 999c 54bd a7db 893d
00000070: 48df 9bbd 0771 0abe dfb5 55bd d72d 03be
00000080: dae3 adbe 1a5b 87be 23cd 973d 1449 d53e
00000090: fa6a ab3d 3f2c fd3e d93d 4d3d ba66 fd3c
000000a0: 2d1f eb3c 358c 9f3d 7376 78bd a1b9 79be
000000b0: 07e5 8a3d 4ee4 57bd da8e 383d 1a93 463b
000000c0: 7ab4 87be 568f dabe f83e b73d 9f2a d33e
000000d0: 88b0 903e 9a57 f53e e030 053e c6b6 033e
000000e0: 3e8b 8f3e 8b61 c13d dba4 243d 12d1 b0be
000000f0: 7b7a e53d f302 7a3e b4b4 463d 16a4 2f3e
00000100: 48bf 96be 2f1b 50be 63c1 be3d aa22 d73e
00000110: 74b1 01be b412 eb3e 5a4e f8bd 7bd3 e7bd
00000120: 33cb d8bd 1e4e c73d 5988 0ebe 5af8 3dbe
00000130: e7d7 ccbd afe7 01be bb21 06be 5b81 4abe
00000140: 2310 89be 3b4b 2cbe 95b8 f33d 0bf4 173f
00000150: 7698 65be 2313 2e3f b7ca 5fbe 8c73 71be
00000160: 8d45 45be 7308 f93d fe52 8ebe 67da b0bd
00000170: 730a 68be fb5a 03be 1670 9cbe dafb 4fbe
00000180: 0068 8dbe 7444 19be 1806 063e 5baf 1c3f
00000190: f015 24be e599 353f 6ac8 8cbe a004 97be
000001a0: 6f9c f9bd 8d32 0a3e 8d8c b5be aca7 04bd
000001b0: 4865 94be 4bb8 51be 88b2 c9be 0323 85be
000001c0: 2455 29bd 4c78 7ebe 0d69 8d3d 9723 d73e
000001d0: acc8 c63c 38ca f53e 3118 5f3c 7098 323d
000001e0: 753d 503d 0d40 983d b2f1 073d 23d4 01be
000001f0: eac8 c73c ba0f 0d3c da98 583d b7ee 633b

bias f4 [8]
0.13286056 0.36236966 0.21515304 0.17767347 0.20637444 0.13409343 0.11581353 0.18609287
00000000: 990c 083e 8488 b93e 1451 5c3e 09f0 353e
00000010: d253 533e ca4f 093e a52f ed3d 218f 3e3e

weight_ih_l0 f4 [64, 17]
-0.13826628 0.060176287 -0.124051765 -0.04437407 0.15782793 0.104964614 0.07193737 -0.12717812
-0.35104063 0.27713 0.08894896 0.08924369 0.09958081 0.13930196 0.10704285 0.071617715
0.10697333 -0.03754608 0.3091381 0.2664187 0.21131533 0.28809515 0.21140444 0.2180219
0.26923245 0.027918331 0.47650188 0.32484522 0.25162214 0.19211964 0.34926635 0.4707628
0.3924241 0.26639467 -0.006848453 0.55673265 0.08337969 0.081711546 0.40164992 0.26454338
0.30012172 0.0963435 0.05899825 -0.6097659 -0.4534445 -0.53113425 -0.46282923 -0.5019205
-0.53822494 -0.56850284 -0.47569758 -0.13048907 0.2686547 0.03664838 0.20722221 0.2682269
0.20125169 0.1829305 0.050289147 0.0449625 -0.42341202 -0.14256088 -0.34877715 -0.104360685
-0.29302832 -0.30536088 -0.33066252 -0.14761254 0.045009222 -0.25505653 -0.10496639 -0.12199338
-0.1806144 -0.22107449 -0.17300145 -0.108973585 -0.057300344 0.9965588 0.9196241 0.9053581
0.85615337 1.1843761 1.0390579 1.062631 1.2149036 -0.07136413 0.14955822 0.07918079
0.1998056 0.21910927 0.14974254 0.15600082 0.07214928 0.02205008 0.44681826 0.23374417
0.50372475 0.65842575 0.41013113 0.39868706 0.35317922 0.49494067 -0.04709531 0.4415735
0.11260092 0.11930275 0.32050884 0.22214206 0.23447412 0.11174621 0.02922632 -0.5913445
-0.46012244 -0.52699876 -0.46054316 -0.49290535 -0.5234242 -0.5517333 -0.46825233 0.15720326
-0.0025755435 0.0012215307 0.015781218 -0.13359152 0.009762791 0.038505953 0.0036010907 -0.15195222
-0.29687962 0.10331505 -0.38561717 -0.3109266 -0.31472787 -0.2410119 -0.23149814 -0.34849784
-0.112031415 0.16304812 0.20009983 0.11564487 0.15287656 0.16652188 0.15563788 0.20755336
-0.15886611 0.5299172 0.59910893 0.78086495 0.60455745 0.69979715 0.6904223 0.68029255
0.5645593 0.0043761735 -0.50847673 0.23540518 0.3427599 0.31311026 0.34835082 -0.15843251
0.2158759 -0.094343744 0.23085415 0.49412334 0.27695063 0.191836 0.21051271 0.18915202
0.23969972 0.23991302 0.08810883 -0.25398603 -0.09720269 -0.09151412 -0.35107675 -0.30034804
-0.20698304 -0.098727524 -0.07077483 0.5090077 0.067354955 0.47317103 0.43488157 0.37001017
0.31328568 0.2999473 0.13398282 -0.110148914 0.2007017 -0.06770303 0.035931963 0.21847174
0.1965595 0.15729819 -0.0514935 0.0362535 -0.48727664 -0.4029628 -0.554539 -0.49038914
-0.5033915 -0.4929836 -0.50908744 -0.4549494 -0.019840026 0.16705586 -0.030678459 0.020802574
0.12573192 0.05151877 0.0951517 -0.044190813 -0.30510765 -0.099074304 0.016665574 -0.2331907
-0.117613725 -0.15778457 -0.18760288 -0.2398196 -0.092211485 0.030205136 0.55964273 1.2827404
1.5001777 0.3062565 0.25604767 0.3784281 1.2342864 0.0018273386 0.3012424 -0.027079577
0.26328886 0.25400805 0.36603558 0.32096115 0.34888572 0.32705313 -0.061574712 0.22188434
-0.060747437 0.024635967 0.2145713 0.18553554 0.16000764 -0.046794914 0.0478737 -0.5263233
-0.42646676 -0.59160614 -0.5111731 -0.53060275 -0.5200235 -0.5346695 -0.48505473 0.110841945
00000000: ad95 0dbe 697b 763d da0e febd 96c1 35bd
00000010: a59d 213e b0f7 d63d e653 933d fb3a 02be
00000020: 99bb b3be fce3 8d3e df2a b63d 65c5 b63d
00000030: 06f1 cb3d 2ca5 0e3e 4839 db3d 4fac 923d
00000040: d514 db3d ebc9 19bd 5947 9e3e 0868 883e
00000050: 0c63 583e 3581 933e 687a 583e 2241 5f3e
00000060: d6d8 893e fcb4 e43c 0ef8 f33e 1d52 a63e
00000070: 9ed4 803e 03bb 443e 0ad3 b23e d207 f13e
00000080: d0eb c83e e264 883e fd68 e0bb 0886 0e3f
00000090: f9c2 aa3d 6258 a73d 0fa5 cd3e 3b72 873e
000000a0: 8ea9 993e be4f c53d 26a8 713d 9e19 1cbf
000000b0: e129 e8be 6af8 07bf f4f7 ecbe dd7d 00bf
000000c0: 1cc9 09bf 6789 11bf a28e f3be ed9e 05be
000000d0: 1c8d 893e 9d1c 163d 0f32 543e 0955 893e
000000e0: ec14 4e3e 2252 3b3e fefb 4d3d 992a 383d
000000f0: 76c9 d8be 7bfb 11be eb92 b2be 0ebb d5bd
00000100: cf07 96be 4358 9cbe 994c a9be be27 17be
00000110: 975b 383d c596 82be 9ef8 d6bd aad7 f9bd
00000120: fbf2 38be 5a61 62be 4b27 31be 8b2d dfbd
00000130: c4b3 6abd 7a1e 7f3f 7c6c 6b3f 8cc5 673f
00000140: de2c 5b3f a399 973f d9ff 843f 4b04 883f
00000150: f681 9b3f 5b27 92bd ca25 193e 8a29 a23d
00000160: d799 4c3e 2e5e 603e 1c56 193e aebe 1f3e
00000170: 00c3 933d 5fa2 b43c 5dc5 e43e a25a 6f3e
00000180: 1bf4 003f 978e 283f b5fc d13e b620 cc3e
00000190: e8d3 b43e dd68 fd3e 03e7 40bd ec15 e23e
000001a0: 509b e63d 0055 f43d bc19 a43e 3579 633e
000001b0: fc19 703e 32db e43d 096c ef3c 5a62 17bf
000001c0: 2b95 ebbe 64e9 06bf 50cc ebbe 175e fcbe
000001d0: 21ff 05bf 653e 0dbf c5be efbe e4f9 203e
000001e0: 73ca 28bb c51b a03a 9d47 813c 37cc 08be
000001f0: 1df4 1f3c 6bb8 1d3d 4700 6c3b 5d99 1bbe
00000200: 9b00 98be d796 d33d 9d6f c5be c531 9fbe
00000210: 0324 a1be d3cb 76be d90d 6dbe 4f6e b2be
00000220: ba70 e5bd 16f6 263e f8e6 4c3e 38d7 ec3d
00000230: ac8b 1c3e b684 2a3e 895f 1f3e de88 543e
00000240: ccad 22be a7a8 073f 345f 193f c4e6 473f
00000250: 47c4 1a3f e825 333f 84bf 303f a727 2e3f
00000260: f586 103f 0166 8f3b 882b 02bf 0e0e 713e
00000270: 3a7e af3e fd4f a03e 0a5b b23e 223c 22be
00000280: 920e 5d3e 4b37 c1bd 0865 6c3e bcfd fc3e
00000290: 79cc 8d3e a870 443e a590 573e 11b1 413e
000002a0: d873 753e c2ab 753e 6772 b43d 750a 82be
000002b0: 3412 c7bd c16b bbbd 55c0 b3be 38c7 99be
000002c0: 5df3 53be a831 cabd 65f2 90bd 544e 023f
000002d0: 65f1 893d 7943 f23e cca8 de3e f971 bd3e
000002e0: fb66 a03e b192 993e cb32 093e c195 e1bd
000002f0: bf84 4d3e e3a7 8abd 652d 133d 0eb7 5f3e
00000300: e546 493e c712 213e d9ea 52bd 8d7e 143d
00000310: 537c f9be 2451 cebe 45f6 0dbf 4914 fbbe
00000320: 44de 00bf 5968 fcbe 8e53 02bf 21ef e8be
00000330: 8d87 a2bc b110 2b3e 6451 fbbc 296a aa3c
00000340: debf 003e 5905 533d e5de c23d 6d01 35bd
00000350: 1237 9cbe 78e7 cabd 3e86 883c 8bc9 6ebe
00000360: 77df f0bd 4792 21be f81a 40be 4593 75be
00000370: 60d9 bcbd c370 f73c bf44 0f3f d630 a43f
00000380: d305 c03f a7cd 9c3e ae18 833e 54c1 c13e
00000390: 19fd 9d3f 4f83 ef3a 723c 9a3e fdd5 ddbc
000003a0: cccd 863e 580d 823e 0469 bb3e 0555 a43e
000003b0: 26a1 b23e 8273 a73e c435 7cbd a635 633e
000003c0: 4ed2 78bd 5ed1 c93c 94b8 5b3e 07fd 3d3e
000003d0: 0bd9 233e 06ac 3fbd 3617 443d 20bd 06bf
000003e0: da59 dabe 8073 17bf 3edc 02bf 95d5 07bf
000003f0: 4320 05bf 1ae0 08bf 1859 f8be 1a01 e33d

weight_hh_l0 f4 [64, 16]
-0.096546106 0.3231731 -0.078804694 -0.15293218 -0.07191497 0.090089135 0.07350819 0.07920661
-0.071295515 -0.040876333 0.09428263 -0.094271235 0.12028665 0.067466974 -0.08692156 0.55582565
-0.016608074 0.07720842 0.103600785 0.0059027583 -0.21726769 -0.39878312 -0.11276229 -0.07241614
-0.3649109 0.13502672 0.23091762 0.06129103 0.034294263 0.3340122 0.08399963 -0.18349251
-0.055657394 0.22095115 -0.113779396 -0.13357505 0.09776035 -0.0046488075 0.12000855 0.07230659
0.1159503 0.07880625 0.0071987733 -0.12341509 0.119163446 0.027711349 -0.11961436 -0.1413769
0.10801244 0.085639305 0.08386465 0.06383888 0.0046406984 -0.14312436 -0.096224025 -0.083676934
-0.21855482 0.051621366 0.112060994 0.07368192 -0.051098246 0.21967265 0.08199481 -0.08247753
-0.21177156 0.01912625 -0.35011664 -0.10075856 -0.059788108 0.034252513 0.35389736 0.1617467
-0.12289411 -0.35283968 -0.25266412 -0.26203814 0.18904586 -0.25286064 -0.28318596 0.7035869
-0.02976882 0.26574853 0.09244118 -0.033012934 0.0031000099 0.07648142 -0.11124805 -0.1221749
-0.11881323 0.11067169 0.024417536 0.049421567 -0.06591239 -0.08786461 0.07792195 0.6276514
-0.058763642 0.22205968 -0.11931161 -0.13697699 0.06400321 0.019229379 0.12230252 0.044295017
0.11669403 0.046290103 0.015270537 -0.1309619 0.102159075 0.01850673 -0.12126619 -0.0071623935
-0.21231651 0.37721422 -0.18322958 -0.26430348 -0.41681114 0.00880846 0.1576619 -0.0059274687
0.109404445 0.06983145 0.25798488 -0.14825532 0.24558003 0.05784178 -0.1446778 0.47802573
-0.24787173 0.20588301 -0.44197798 -0.28411785 -0.021275146 0.07248275 0.45723066 0.50236225
-0.09666882 -0.48252657 -0.079980195 -0.4424737 0.2823764 -0.37499997 -0.42673028 0.47316912
-0.6399584 0.4136702 -0.40057385 -0.46000394 0.06862908 0.08286531 0.37848276 0.68406403
0.13206671 0.0655458 -0.32205325 -0.6311508 0.5311572 -0.27474725 -0.61152565 0.4542556
-0.28712538 0.11448215 -0.4159307 -0.13897415 0.21643108 0.08952519 0.39266974 0.4559692
0.050698183 -0.10474522 -0.31195605 -0.31281966 0.5262482 -0.38609084 -0.3251914 0.2142516
-0.0008359115 0.105863966 -0.02603004 -0.03387827 -0.030689761 0.008689467 0.030758256 -0.031085504
0.014033663 0.040080193 0.08057297 -0.028133467 0.037593525 0.1019221 -0.02318665 -0.18084377
-0.07815115 0.3198704 -0.07608415 -0.16741866 -0.010140763 0.29355314 0.06528198 -0.015165927
-0.019899258 -0.022161607 0.0064067496 -0.09280395 0.052175984 0.08824893 -0.08302805 0.42642295
0.09778641 0.12879843 0.22445588 -0.071893185 -0.06830353 0.3220101 -0.21721771 -0.21672893
0.06359975 -0.06646007 -0.030012414 0.1029935 -0.3371245 -0.05089262 0.1274417 0.25908297
-0.0075560687 0.1567768 -0.039820645 -0.04873119 -0.0408861 0.01737207 0.04273691 -0.029108359
0.017152147 0.05968062 0.07717126 -0.037365153 0.047083564 0.089553386 -0.034527577 -0.1431949
-0.04202737 0.23585229 -0.013881491 0.05612304 -0.25714394 -0.13292213 0.020156322 0.07125227
-0.500326 0.010321162 0.24439763 0.00026610927 0.06566475 0.1498493 -0.009115346 -0.40046573
00000000: f7b9 c5bd f276 a53e 5b64 a1bd 419a 1cbe
00000010: 2848 93bd a780 b83d 768b 963d 1337 a23d
00000020: 6203 92bd f16d 27bd 4017 c13d 4711 c1bd
00000030: d958 f63d 202c 8a3d ee03 b2bd 974a 0e3f
00000040: a80d 88bc 731f 9e3d a62c d43d ed6b c13b
00000050: 6c7b 5ebe 4d2d ccbe eaef e6bd ea4e 94bd
00000060: 9ad5 babe 7244 0a3e ab75 6c3e 4e0c 7b3d
00000070: 2478 0c3d a603 ab3e ff07 ac3d 76e5 3bbe
00000080: 02f9 63bd 0541 623e 2c05 e9bd e6c7 08be
00000090: 9436 c83d 0655 98bb 0bc7 f53d 7a15 943d
000000a0: 5a77 ed3d 2c65 a13d b0e3 eb3b 0dc1 fcbd
000000b0: f70b f43d e902 e33c 60f8 f4bd 1bc5 10be
000000c0: a035 dd3d a963 af3d 3bc1 ab3d f5bd 823d
000000d0: 0011 983b 318f 12be 1a11 c5bd d05e abbd
000000e0: d6cc 5fbe ed70 533d 3c80 e53d 8ce6 963d
000000f0: 654c 51bd def1 603e e5ec a73d fbe9 a8bd
00000100: a5da 58be a7ae 9c3c 7d42 b3be 815a cebd
00000110: 60e4 74bd 5d4c 0c3d 0932 b53e eda0 253e
00000120: e8af fbbd 67a7 b4be 315d 81be dd29 86be
00000130: 3d95 413e f376 81be c0fd 90be 451e 343f
00000140: bedd f3bc 3110 883e cd51 bd3d 9238 07bd
00000150: 8929 4b3b 4aa2 9c3d 05d6 e3bd d536 fabd
00000160: 5a54 f3bd d7a7 e23d 4907 c83c 456e 4a3d
00000170: 13fd 86bd 5cf2 b3bd 8b95 9f3d c3ad 203f
00000180: 25b2 70bd 9d63 633e a559 f4bd b243 0cbe
00000190: 1d14 833d ee86 9d3c be79 fa3d b16e 353d
000001a0: 48fd ee3d b19a 3d3d 4631 7a3c e01a 06be
000001b0: c738 d13d 6d9b 973c 695a f8bd 83b2 eabb
000001c0: 8069 59be 3922 c13e 89a0 3bbe c952 87be
000001d0: 4568 d5be 5c51 103c 1f72 213e 363b c2bb
000001e0: 700f e03d cb03 8f3d 9816 843e 3ed0 17be
000001f0: 5579 7b3e 81eb 6c3d 6b26 14be cabf f43e
00000200: 16d2 7dbe ffd2 523e f04a e2be e577 91be
00000210: 3749 aebc d671 943d 231a ea3e d09a 003f
00000220: 4dfa c5bd b90d f7be a8cc a3bd ea8b e2be
00000230: a493 903e ffff bfbe 647c dabe 3943 f23e
00000240: 50d4 23bf 95cc d33e 0418 cdbe a385 ebbe
00000250: 678d 8c3d 4ab5 a93d 7ec8 c13e d21e 2f3f
00000260: 7f3c 073e e03c 863d 2ae4 a4be 1993 21bf
00000270: ebf9 073f acab 8cbe f28c 1cbf 3194 e83e
00000280: 1902 93be 9e75 ea3d def4 d4be 3d4f 0ebe
00000290: 1ca0 5d3e fc58 b73d 020c c93e cc74 e93e
000002a0: e6a8 4f3d a984 d6bd b4b8 9fbe e629 a0be
000002b0: 34b8 063f b3ad c5be 7d7f a6be c564 5b3e
000002c0: 1221 5bba 35cf d83d f33c d5bc f1c3 0abd
000002d0: 1869 fbbc 445e 0e3c bdf8 fb3c 07a7 febc
000002e0: 73ed 653c 212b 243d 7103 a53d 2878 e6bc
000002f0: abfb 193d 89bc d03d eef1 bdbc 1c2f 39be
00000300: b60d a0bd 0ec6 a33e 02d2 9bbd cc6f 2bbe
00000310: 7125 26bc 994c 963e 8fb2 853d 827a 78bc
00000320: c503 a3bc 428c b5bc b6ef d13b ff0f bebd
00000330: 7cb6 553d dbbb b43d 9c0a aabd 1c54 da3e
00000340: 3e44 c83d bce3 033e c3d7 653e bc3c 93bd
00000350: b9e2 8bbd 82de a43e 526e 5ebe 30ee 5dbe
00000360: 9640 823d 381c 88bd 98dc f5bc 42ee d23d
00000370: 959b acbe c874 50bd 1480 023e 86a6 843e
00000380: e698 f7bb 198a 203e f91a 23bd 5b9a 47bd
00000390: 2f78 27bd df4f 8e3c e60c 2f3d a774 eebc
000003a0: a982 8c3c aa73 743d f70b 9e3d 340c 19bd
000003b0: b2da 403d c467 b73d ca6c 0dbd afa1 12be
000003c0: e424 2cbd 4383 713e 316f 63bc 46e1 653d
000003d0: 5fa8 83be bd1c 08be df1e a53c b6ec 913d
000003e0: 5d15 00bf 171a 293c 5f43 7a3e 9584 8b39
000003f0: 3e7b 863d 1872 193e 8858 15bc d809 cdbe

bias_ih_l0 f4 [64]
0.060111422 0.18735912 0.16478917 0.11323189 0.09471495 0.051969793 0.14187348 0.012945834
-0.074094325 -0.059471864 0.103975944 0.116884984 0.09387673 0.16638465 0.12650995 0.33626056
0.110512465 0.23049799 0.20109808 0.13701212 0.21471415 0.15637794 0.19405483 0.272063
0.16000378 0.16303922 0.17779595 0.14488684 0.19917615 0.1980002 0.1504957 0.25234964
0.08898967 -0.059955567 0.09918894 0.054176915 0.14787324 -0.05271608 -0.109726354 -0.13292287
0.02119085 -0.037418034 -0.0101021845 0.052553706 -0.13144852 0.04770325 0.07092573 0.1137534
0.0894197 0.23914255 0.145451 0.18327299 0.19357887 0.13757867 0.14774351 0.20371938
0.24804361 0.15817963 0.0841815 0.14052829 0.11660953 0.19845316 0.13750936 0.34038466
00000000: 6537 763d 12db 3f3e 7ebe 283e 1fe6 e73d
00000010: e9f9 c13d 47de 543d 4847 113e c31a 543c
00000020: c4be 97bd c598 73bd 57f1 d43d 6561 ef3d
00000030: 7142 c03d bd60 2a3e d38b 013e 582a ac3e
00000040: 5c54 e23d aa07 6c3e a8ec 4d3e e84c 0c3e
00000050: 07de 5b3e 8a21 203e 4fb6 463e d74b 8b3e
00000060: 08d8 233e c1f3 263e 2410 363e 375d 143e
00000070: d5f4 4b3e 90c0 4a3e 8b1b 1a3e f933 813e
00000080: 3740 b63d f893 75bd 9223 cb3d 9de8 5d3d
00000090: 156c 173e d1ec 57bd 36b8 e0bd ef1c 08be
000000a0: 6f98 ad3c a743 19bd a283 25bc 8e42 573d
000000b0: 719a 06be 7c64 433d 8241 913d 8bf7 e83d
000000c0: ad21 b73d c9e1 743e 1bf1 143e eaab 3b3e
000000d0: 8a39 463e 6ce1 0c3e 134a 173e d09b 503e
000000e0: 25ff 7d3e d7f9 213e 5a67 ac3d a6e6 0f3e
000000f0: fad0 ee3d 4e37 4b3e 41cf 0c3e e646 ae3e

bias_hh_l0 f4 [64]
0.06354375 0.18626152 0.17339262 0.11314071 0.09637073 0.05235406 0.14957595 0.01119863
-0.074250266 -0.059631906 0.106327094 0.11464834 0.09378304 0.16211686 0.124826886 0.33892748
0.11248846 0.23017997 0.20392607 0.12836817 0.21536587 0.15789708 0.19417533 0.2741371
0.16021386 0.16293526 0.1782258 0.1474061 0.19889225 0.19681239 0.15361056 0.2505251
0.08291805 -0.06841478 0.10468378 0.055532083 0.14354423 -0.054456487 -0.09595181 -0.124436736
0.032924715 -0.041939788 -0.014778758 0.04762171 -0.13278756 0.058196433 0.089127354 0.11030928
0.09052209 0.23945916 0.15154327 0.18609534 0.19279945 0.13790053 0.14835657 0.2039261
0.24753922 0.15899599 0.08536586 0.14076313 0.11617946 0.19407459 0.13534093 0.3366617
00000000: 3a23 823d 57bb 3e3e d68d 313e 51b6 e73d
00000010: 045e c53d 3671 563d 702a 193e 757a 373c
00000020: 8610 98bd 9640 74bd 05c2 d93d c0cc ea3d
00000030: 5311 c03d f601 263e 3da5 ff3d e787 ad3e
00000040: 5a60 e63d 4cb4 6b3e ffd1 503e f272 033e
00000050: df88 5c3e c6af 213e e6d5 463e b35b 8c3e
00000060: 1a0f 243e 80d8 263e d380 363e a0f1 163e
00000070: 69aa 4b3e 3089 493e 164c 1d3e d344 803e
00000080: f0d0 a93d 0c1d 8cbd 7364 d63d 9c75 633d
00000090: 42fd 123e c40d 5fbd 6282 c4bd b0d8 febd
000000a0: 11dc 063d 0ec9 2bbd 9b22 72bc fb0e 433d
000000b0: 76f9 07be 625f 6e3d 6788 b63d d5e9 e13d
000000c0: a563 b93d c834 753e 292e 1b3e c78f 3e3e
000000d0: 386d 453e cc35 0d3e c9ea 173e 01d2 503e
000000e0: ec7a 7d3e d8cf 223e 4cd4 ae3d 3624 103e
000000f0: 7fef ed3d 7dbb 463e d096 0a3e ec5e ac3e

weight f4 [64, 17]
-0.0395427 0.2552592 0.1275911 0.07990565 0.14999215 0.27112544 0.20747139 0.122365385
-0.2459368 0.16296886 0.18133761 0.09492512 0.036094584 0.109146036 0.071876265 0.03777371
0.12874341 0.01957582 -0.21710578 -0.21725725 -0.18670025 0.21541402 -0.18808693 -0.16211423
-0.15811178 -0.01755646 -0.05282682 0.05729722 0.09075896 0.1257545 -0.010677128 -0.011261649
-0.019222299 0.059967253 0.037413992 0.04913817 0.107269146 0.13405983 0.01852858 0.22055936
0.14353144 0.09060305 -0.10506613 0.039806955 0.18101315 -0.10325236 0.050843846 -0.053893786
0.0030812526 -0.045753054 0.245853 -0.0049598147 0.059436344 -0.037883285 -0.010566758 0.16579986
-0.04161951 0.017223896 -0.025159512 0.032325484 -0.09778782 0.08145496 0.15092589 0.18214364
0.010702681 -0.039198875 -0.03261992 0.15054275 0.0970512 0.07168901 -0.02654371 0.050309222
0.22535135 -0.0090853805 0.01088719 -0.027887983 0.2204753 -0.110666744 0.107053526 0.070546314
-0.088894986 -0.051521327 -0.04029973 0.021753892 -0.10822502 -0.030510828 0.049530964 0.11398026
0.13694093 0.10031668 0.18576272 0.1368802 0.11165018 0.0031302057 0.10385579 0.35188195
-0.103766724 0.30406797 -0.060946863 0.04205091 -0.07675167 0.5526431 -0.011665078 0.14444447
0.105928056 0.1233237 0.033416398 0.24942854 0.22381222 0.09361156 -0.02944399 0.17505002
0.11005602 0.03661938 0.50452596 0.12233157 0.11437993 0.08418418 0.37008363 0.051103324
0.13439791 0.14631757 0.16892707 0.15125436 0.2787286 0.18072426 0.13216646 -0.007866375
0.31192684 0.040612362 0.006963471 0.014646626 -0.11892144 -0.21363899 -0.5253144 0.14080672
0.006825472 0.14484999 0.1054542 0.12939107 0.050919265 0.26257515 0.23232313 0.08886609
-0.06231912 0.20572038 0.09912654 0.0738483 0.66207397 0.1541509 0.11497178 0.1058604
0.3628968 -0.013906263 0.06189327 0.1075745 0.114298895 0.1239583 0.17527491 0.13889381
0.11871514 -0.11940361 0.33088186 0.36506596 0.023007236 0.43413624 -0.016226435 0.17888686
0.28205493 0.69447315 0.027707307 -0.012329123 0.14898503 0.17921275 0.18974163 0.06344888
0.05249022 0.15269682 0.18141636 -0.7045127 0.035962105 -0.77769595 -1.918466 -0.8162392
-0.69578165 -0.2978745 -0.013330278 -0.060515583 0.033588577 0.110969335 0.09585071 0.16661341
0.22611172 0.12535904 0.1107096 -0.15583631 0.18257186 0.3228135 0.0034006853 0.39213675
-0.021753604 0.08780451 -0.0053780875 0.3716633 -0.31902647 -0.19543175 0.00547736 0.07519491
0.3145994 0.00960614 -0.043690547 0.0020557616 -0.07375028 0.235524 0.10358073 0.24523309
0.32020754 0.17437363 0.16468488 0.09956821 0.33712992 -0.055194635 0.09980747 0.10390184
0.07531596 0.20220466 0.22584401 0.14952451 0.09853704 -0.14994083 0.22120568 0.32151395
0.08004137 0.44040224 0.004757287 0.046648916 -0.06543198 0.3813171 -1.6441968e-08 8.201279e-08
-6.966625e-08 8.8691216e-08 1.6105157e-07 -2.6593499e-08 7.2661e-08 -9.9760136e-08 -5.6627742e-09 1.08739364e-07
2.2971547e-07 1.642282e-07 1.443602e-07 2.9916084e-08 -1.1071998e-07 -1.2670152e-07 -5.7513606e-08 -0.00917887
00000000: 87f7 21bd 55b1 823e 3ea7 023e 93a5 a33d
00000010: 8b97 193e f4d0 8a3e 6173 543e b49a fa3d
00000020: dbd6 7bbe 4fe1 263e 91b0 393e 1a68 c23d
00000030: ead7 133d f587 df3d dd33 933d 9bb8 1a3d
00000040: 50d5 033e 785d a03c fa50 5ebe af78 5ebe
00000050: 5a2e 3fbe 7e95 5c3e dc99 40be 4601 26be
00000060: 0ee8 21be 91d2 8fbc f060 58bd 7db0 6a3d
00000070: d5df b93d cac5 003e 1fef 2ebc c882 38bc
00000080: 1578 9dbc 39a0 753d 6a3f 193d 1b45 493d
00000090: edaf db3d fb46 093e 40c9 973c 50da 613e
000000a0: e8f9 123e 188e b93d e92c d7bd 9e0c 233d
000000b0: 835b 393e f975 d3bd a341 503d bbbf 5cbd
000000c0: d7ee 493b 8e67 3bbd e4c0 7b3e f185 a2bb
000000d0: 8673 733d 812b 1bbd 3220 2dbc 70c7 293e
000000e0: 3879 2abd 2119 8d3c 521b cebc ba67 043d
000000f0: fb44 c8bd dcd1 a63d 518c 1a3e dd83 3a3e
00000100: 4c5a 2f3c 008f 20bd 779c 05bd e127 1a3e
00000110: c8c2 c63d b0d1 923d 3272 d9bc 0b11 4e3d
00000120: 81c2 663e d9da 14bc 2f60 323c 5775 e4bc
00000130: 47c4 613e 3fa5 e2bd e13e db3d 967a 903d
00000140: 930e b6bd 0708 53bd 5411 25bd 3835 b23c
00000150: 14a5 ddbd d8f1 f9bc fbe0 4a3d 7c6e e93d
00000160: 3e3a 0c3e d572 cd3d 9538 3e3e 532a 0c3e
00000170: d9a8 e43d 2324 4d3b 58b2 d43d df29 b43e
00000180: a683 d4bd ccae 9b3e 6ba3 79bd 933d 2c3d
00000190: fb2f 9dbd 057a 0d3f e21e 3fbc 40e9 133e
000001a0: cff0 d83d 2391 fc3d a2df 083d 326a 7f3e
000001b0: 082f 653e 6bb7 bf3d 8634 f1bc 5040 333e
000001c0: 0d65 e13d 34fe 153d 9d28 013f f988 fa3d
000001d0: 0640 ea3d c168 ac3d 9a7b bd3e b851 513d
000001e0: 9b9f 093e 46d4 153e 38fb 2c3e 6ce2 1a3e
000001f0: 84b5 8e3e c80f 393e a556 073e f8e1 00bc
00000200: e0b4 9f3e 2659 263d d42d e43b 67f8 6f3c
00000210: 158d f3bd 2ec4 5abe 017b 06bf a32f 103e
00000220: 36a8 df3b 8e53 143e 5ff8 d73d 187f 043e
00000230: b890 503d 4070 863e 1de6 6d3e 6dff b53d
00000240: 5542 7fbd 5da8 523e db02 cb3d c73d 973d
00000250: ae7d 293f bcd9 1d3e 5376 eb3d 56cd d83d
00000260: 9ccd b93e 18d7 63bc cc83 7d3d 0550 dc3d
00000270: 8a15 ea3d d9dd fd3d 447b 333e 2e3a 0e3e
00000280: ec20 f33d e189 f4bd 5969 a93e ede9 ba3e
00000290: ac79 bc3c 1b47 de3e 4ded 84bc 1e2e 373e
000002a0: 8169 903e fec8 313f 6ffa e23c 1700 4abc
000002b0: 888f 183e 8c83 373e a14b 423e 7df1 813d
000002c0: fcff 563d 8e5c 1c3e 36c5 393e f25a 34bf
000002d0: 004d 133d 1517 47bf 4b90 f5bf 0df5 50bf
000002e0: bf1e 32bf 0283 98be 3d67 5abc 30df 77bd
000002f0: 2d94 093d e443 e33d 614d c43d b59c 2a3e
00000300: d589 673e 1f5e 003e b7bb e23d 8e93 1fbe
00000310: 1ef4 3a3e d047 a53e 08de 5e3b 26c6 c83e
00000320: 9d34 b2bc dad2 b33d ab3a b0bb a74a be3e
00000330: 7057 a3be 431f 48be 6d7b b33b caff 993d
00000340: 2c13 a13e 1263 1d3c dcf4 32bd f5b9 063b
00000350: 630a 97bd 342d 713e 2222 d43d 621e 7b3e
00000360: 3ef2 a33e 008f 323e 27a3 283e 6bea cb3d
00000370: 4b9c ac3e c513 62bd dc67 cc3d 7dca d43d
00000380: 413f 9a3d bd0e 4f3e a743 673e f41c 193e
00000390: cacd c93d 178a 19be be83 623e 7a9d a43e
000003a0: bbec a33d 677c e13e 04e3 9b3b ef12 3f3d
000003b0: 3401 86bd ff3b c33e 453c 8db2 021f b033
000003c0: 6d9b 95b3 8376 be33 85ed 2c34 b96f e4b2
000003d0: cf09 9c33 b73b d6b3 4a92 c2b1 1984 e933
000003e0: b5a7 7634 b456 3034 6e01 1b34 157d 0033
000003f0: f4c4 edb3 730b 08b4 e104 77b3 f962 16bc

bias f4 [64]
0.24355951 -0.01481275 -0.06738557 0.008303432 0.066468656 -0.056620672 0.069396704 -0.008723699
0.080890045 -0.05959818 -0.38412508 0.14980401 0.18195412 0.13132109 1.6986917e-08 0.059876323
-4.8939828e-08 0.14055026 0.12705567 0.07899898 0.12593555 -0.39795768 0.27659798 -0.056766927
-0.33586475 -0.27268732 0.043879367 0.007851158 -0.026254097 0.006820982 0.22217724 -0.3542319
0.006491024 -0.1650424 -0.011164526 -0.021644011 -0.060755134 0.14176501 -0.027070869 0.19631626
1.1494137e-07 0.010640463 0.031840604 -0.07388094 -0.1056768 -0.10027455 0.090206064 0.022062493
0.17197064 0.04499888 0.17675844 -0.0690627 -0.05265798 0.015161341 0.017163495 -0.15669698
9.6786266e-08 0.028131042 0.021722903 0.050659217 -0.023341527 -0.013547303 -0.09596302 0.18682584
00000000: aa67 793e 2db1 72bc 7201 8abd 1e0b 083c
00000010: b820 883d 14eb 67bd dc1f 8e3d d8ed 0ebc
00000020: aea9 a53d 391d 74bd 0bac c4be 3966 193e
00000030: 2e52 3a3e 0979 063e a0ea 9132 e040 753d
00000040: e931 52b3 68ec 0f3e e21a 023e 38ca a13d
00000050: 40f5 003e 1cc1 cbbe 409e 8d3e 7084 68bd
00000060: 77f6 abbe ac9d 8bbe daba 333d 25a2 003c
00000070: d512 d7bc 8b82 df3b 6e82 633e e25d b5be
00000080: a8b2 d43b e000 29be 6beb 36bc c84e b1bc
00000090: 60da 78bd d92a 113e bac3 ddbc 2107 493e
000000a0: b0d5 f633 5655 2e3c 4b6b 023d e44e 97bd
000000b0: 146d d8bd be5c cdbd f5bd b83d 67bc b43c
000000c0: 1219 303e bf50 383d 2a00 353e bf70 8dbd
000000d0: e5af 57bd 4667 783c 759a 8c3c 2c75 20be
000000e0: d0d8 cf33 1273 e63c 3bf4 b13c 0a80 4f3d
000000f0: bb36 bfbc 82f5 5dbc 4388 c4bd 464f 3f3e

weight f4 [16, 80]
0.303177 0.056714226 -0.12472709 -0.06121227 0.1586955 0.2669531 0.13613422 0.17793193
0.04037998 -0.22256733 -0.13869613 -0.083687946 -0.25858957 -0.13109909 -0.09137788 -0.2492335
0.07610812 0.10836618 -0.052605286 0.06783157 0.08912463 0.0025104391 -0.10404184 0.026556583
-0.08462777 0.06406004 -0.18933813 0.064474575 0.17773858 0.105859645 -2.1897453e-07 0.17764202
-6.313093e-08 0.054583102 0.09361206 0.15517318 0.17366928 0.065299876 0.4215854 -0.05449321
-0.091507986 0.061403513 0.12119604 -0.16012672 0.0173371 0.10612768 0.34057394 0.06632029
0.14930654 -0.13543427 -0.049358014 -0.4222185 -0.36899072 0.20137773 0.12401916 0.21383184
-1.3636502e-07 -0.054963022 0.07662496 -0.17807393 -0.122168824 0.023588568 0.23858961 0.12705117
-0.022446431 0.22198674 0.09228204 0.003165542 0.054966293 0.066133656 0.11706854 0.050219752
-8.020662e-08 0.08608957 -0.087874606 0.2087206 -0.051001243 0.018818222 -0.1421596 0.107107185
-0.03725142 -0.0022076147 -0.0022681302 -0.014374444 -0.021501875 0.0038817164 0.009992525 0.0020943037
-0.014754082 0.05420007 0.014201659 -0.050555263 -0.037423965 -0.028633744 -0.029655656 0.027905865
0.015916351 0.0046213437 -0.040684007 0.017806249 0.013066788 0.0054228995 0.0024759264 -0.009345329
-0.0017368979 -0.0063255136 0.07225635 -0.010278168 -0.07220651 -0.0066531985 3.7719218e-08 0.019730423
1.8348192e-07 0.028514676 0.021963393 -0.05723923 0.0077694356 0.10590477 -0.0089908615 -0.016217638
-5.926045e-08 -0.076309614 0.014965 -0.0013609126 -0.016536096 -0.016583877 -0.08333679 0.06744091
0.004741683 -0.0826918 -0.012241687 -0.0011807026 0.024481218 -0.010446352 0.003963324 0.014948123
7.648317e-08 -0.03166177 0.00669062 0.0086474465 -0.012172588 -0.011035412 0.033199742 -0.0041436353
-0.004752264 0.010362571 -0.008306462 -0.00299674 -0.008073014 -0.013088601 -0.010922071 0.051849216
5.274298e-08 -0.0022432161 0.0070602656 -0.019296281 -0.0051298444 -0.046980914 -0.035101753 0.00571941
0.36066738 -0.18401724 0.10806332 -0.022755567 -0.029541701 0.069095254 -0.18436371 -0.13644813
0.2552576 -0.10748092 -0.022148684 0.57189095 0.28965488 0.007997115 0.6217574 -0.3738857
-0.2517533 -0.030239763 -0.104281016 -0.04328996 0.06247754 0.18973735 -0.064302355 0.08540702
-0.04658315 0.18515162 -0.04582761 0.13182902 -0.44175714 0.2054741 5.410326e-08 -0.08221309
1.4404677e-08 0.039165094 -0.6883475 -0.0021303794 -0.033359457 -1.1171991 0.01370932 0.018625675
-1.4772815 0.011298259 0.05452739 -0.04158376 0.03788931 0.14661855 -0.43222925 -4.1575174e-08
-0.020687727 -0.41182816 -0.01808413 -1.1740425 -0.21477777 0.342572 -0.054688215 0.016277073
-7.464228e-08 -0.09740993 0.0051992554 -0.08743569 -0.1413455 0.105820164 0.011296758 0.068668
-0.27491325 -0.079598986 0.19750395 0.07876606 0.16376545 0.08771852 0.1248285 -0.08369552
1.1938286e-07 0.047224462 -0.10345936 0.1842011 -0.10324795 -1.1581382 -0.11592087 -0.674576
0.007421905 -0.08851629 -0.12376987 0.2719921 -0.13327087 0.19656561 0.08633585 -0.14587165
-0.038914304 -0.18325238 0.04628109 0.067538 -0.12456562 -0.06071299 0.057315413 0.018192755
00000000: 043a 9b3e 2d4d 683d eb70 ffbd b8b9 7abd
00000010: 1381 223e 14ae 883e c566 0b3e ca33 363e
00000020: 7a65 253d b1e8 63be 5c06 0ebe 9664 abbd
00000030: da65 84be d73e 06be 5324 bbbd 1137 7fbe
00000040: 93de 9b3d 16ef dd3d a478 57bd 47eb 8a3d
00000050: f986 b63d 2e86 243b e313 d5bd 318d d93c
00000060: 5351 adbd e931 833d dbe1 41be 3f0b 843d
00000070: 1a01 363e f1cc d83d 431f 6bb4 cae7 353e
00000080: 9992 87b3 8892 5f3d aeb7 bf3d b8e5 1e3e
00000090: 5cd6 313e f1bb 853d 0bda d73e 4634 5fbd
000000a0: 8a68 bbbd 4082 7b3d a135 f83d 42f8 23be
000000b0: 8906 8e3c 7859 d93d b55f ae3e efd2 873d
000000c0: d0e3 183e 48af 0abe a12b 4abd 062d d8be
000000d0: 5aec bcbe f735 4e3e c2fd fd3d bcf6 5a3e
000000e0: bb6b 12b4 e820 61bd 8ced 9c3d 0359 36be
000000f0: a633 fabd d03c c13c d650 743e b419 023e
00000100: 94e1 b7bc 7e50 633e 5efe bc3d fb74 4f3b
00000110: 5624 613d 1571 873d a1c1 ef3d 3ab3 4d3d
00000120: 0e3e acb3 ba4f b03d 9af7 b3bd daba 553e
00000130: aee6 50bd ac28 9a3c 4992 11be 035b db3d
00000140: f294 18bd a1ad 10bb e9a4 14bb ca82 6bbc
00000150: b324 b0bc 6564 7e3b b0b7 233c 9640 093b
00000160: 1bbb 71bc e500 5e3d 13ae 683c 0913 4fbd
00000170: df49 19bd 5091 eabc 6bf0 f2bc d79a e43c
00000180: 0263 823c a46e 973b 46a4 26bd 69de 913c
00000190: 1516 563c 94b2 b13b 2743 223b 271d 19bc
000001a0: 9fa8 e3ba 4146 cfbb 23fb 933d c365 28bc
000001b0: 02e1 93bd 1303 dabb b800 2233 b2a1 a13c
000001c0: 2003 4534 9c97 e93c 93ec b33c af73 6abd
000001d0: c096 fe3b 9ae4 d83d 684e 13bc dada 84bc
000001e0: 8e85 7eb3 3748 9cbd c22f 753c a660 b2ba
000001f0: b576 87bc e9da 87bc 7bac aabd 761e 8a3d
00000200: 1f60 9b3b 525a a9bd 5b91 48bc cec1 9aba
00000210: d68c c83c 2d27 2bbc c5de 813b f9e8 743c
00000220: 113f a433 c6af 01bd fd3c db3b 05ae 0d3c
00000230: 896f 47bc dfcd 34bc 74fc 073d 55c7 87bb
00000240: e1b8 9bbb c6c7 293c d417 08bc f464 44bb
00000250: ad44 04bc 9271 56bc 7cf2 32bc d85f 543d
00000260: 8587 6233 ec02 13bb cd59 e73b 3c13 9ebc
00000270: 4118 a8bb 0f6f 40bd dbc6 0fbd e369 bb3b
00000280: 65a9 b83e 046f 3cbe 4d50 dd3d e269 babc
00000290: 7001 f2bc d081 8d3d d7c9 3cbe 0fb9 0bbe
000002a0: 20b1 823e f51e dcbd 2871 b5bc 7267 123f
000002b0: a54d 943e 5506 033c 7e2b 1f3f f26d bfbe
000002c0: cfe5 80be 61b9 f7bc 4991 d5bd d050 31bd
000002d0: 73e8 7f3d 824a 423e f4b0 83bd e0e9 ae3d
000002e0: f9cd 3ebd 6398 3d3e bbb5 3bbd 30fe 063e
000002f0: fe2d e2be cd67 523e 2a5f 6833 565f a8bd
00000300: 7078 7732 946b 203d 8b37 30bf d69d 0bbb
00000310: eda3 08bd 6100 8fbf 0e9d 603c df94 983c
00000320: 8f17 bdbf 551c 393c 1d58 5f3d bc53 2abd
00000330: d231 1b3d 2c23 163e 274d ddbe 6390 32b3
00000340: 4f79 a9bc 24db d2be 2b25 94bc 0647 96bf
00000350: b4ee 5bbe 9965 af3e c000 60bd 7f57 853c
00000360: 074b a0b3 db7e c7bd 845e aa3b 7c11 b3bd
00000370: e0bc 10be 3eb8 d83d 0a16 393c cfa1 8c3d
00000380: 6ec1 8cbe cb04 a3bd 7a3e 4a3e 1a50 a13d
00000390: 21b2 273e c4a5 b33d 16a6 ff3d 8f68 abbd
000003a0: b62f 0034 706e 413d 80e2 d3bd 379f 3c3e
000003b0: a973 d3bd df3d 94bf ec67 edbd 03b1 2cbf
000003c0: 7433 f33b 0748 b5bd 0f7b fdbd 8c42 8b3e
000003d0: 2978 08be 7f48 493e dad0 b03d 615f 15be
000003e0: 9b64 1fbd 83a6 3bbe 3d91 3d3d 5d51 8a3d
000003f0: 431c ffbd 2fae 78bd 91c3 6a3d f908 953c

bias f4 [16]
0.1873136 0.012596988 0.1449298 -0.09043132 0.08134432 -0.019837225 -0.21123031 -0.0047394913
-0.061390214 0.08116163 -0.057663687 0.049445502 0.029238783 0.14281279 0.15380673 -0.13080971
00000000: 23cf 3f3e 9963 4e3c 7a68 143e 0e34 b9bd
00000010: da97 a63d ad81 a2bc c24c 58be bc4d 9bbb
00000020: 4e74 7bbd 1238 a63d c230 6cbd 5e87 4a3d
00000030: 2c86 ef3c 843d 123e 837f 1d3e fbf2 05be
