vehicle/autoware_raw_vehicle_cmd_converter/src/vehicle_adaptor/autoware_vehicle_adaptor/vehicle_models/vehicle_model_1.pth (torch, 56844 bytes, 30 tensors)

weight f4 [16, 20]
-0.14377593 0.1417638 -0.1278862 -0.12688603 -0.12630004 -0.12179956 -0.11580752 -0.104691215
-0.08609092 -0.064490296 -0.043499444 -0.015139462 0.026181653 0.063495554 0.11493797 0.15949097
0.19329022 0.2318506 0.2684625 0.3023536 0.11560382 0.22620705 0.11714856 0.08261785
0.044500023 0.0036597387 -0.03526212 -0.06598085 -0.08164547 -0.08865174 -0.0849897 -0.06924815
-0.044951063 -0.013797647 0.03036394 0.08550545 0.14993699 0.22578894 0.30584824 0.39235225
-0.03055313 -0.016266517 -0.19033821 -0.17536911 -0.15720327 -0.13124958 -0.102322176 -0.0885599
-0.07022072 -0.05671435 -0.04914945 -0.038114157 -0.028317543 -0.023285218 -0.01628611 -0.008412324
-0.004067827 -0.0029527398 -0.0038864682 -0.0069240825 -0.30056792 -0.07826584 -0.1373152 -0.12598309
-0.11160166 -0.10344389 -0.09731385 -0.09020877 -0.09138466 -0.08854002 -0.080960125 -0.06982116
-0.06271717 -0.05426116 -0.046429683 -0.038596183 -0.04138164 -0.047369417 -0.051312767 -0.06135327
-0.18389517 -0.012796821 -0.51421607 -0.46391183 -0.39930326 -0.32570478 -0.2508738 -0.18813899
-0.14534108 -0.11261275 -0.082419366 -0.05093281 -0.017115032 0.010153628 0.03350243 0.056873437
0.076394685 0.088663265 0.09625789 0.09792044 -0.2833545 -0.09543221 -0.15258764 -0.13984178
-0.12551878 -0.11516138 -0.10582848 -0.095599405 -0.08848595 -0.081749834 -0.072224505 -0.06022808
-0.046913955 -0.03442789 -0.0195932 -0.0068233954 -0.0030188086 -0.0028973115 -0.0034972623 -0.004355302
-0.027788248 -0.024081051 -0.0320853 -0.03326402 -0.03141005 -0.03358209 -0.037798174 -0.043762114
-0.04860634 -0.053359743 -0.058515783 -0.057082932 -0.056640536 -0.06089333 -0.062170077 -0.062360216
-0.06711949 -0.07046024 -0.07161506 -0.07259202 -0.14578933 0.27298084 0.11148994 0.09589619
0.08517675 0.07415614 0.063389376 0.056807816 0.06204773 0.075813435 0.088045485 0.0951927
0.10474801 0.1245036 0.1473889 0.17249767 0.20352615 0.2339419 0.2641411 0.29390898
-0.030531906 0.042029884 -0.25743815 -0.24576569 -0.23017833 -0.21308571 -0.19268107 -0.1716674
-0.150157 -0.12209283 -0.09249938 -0.064105056 -0.031410445 -0.0048824414 0.023746144 0.050309636
0.07001372 0.08982853 0.11229017 0.12913229 -0.27329713 -0.10426097 -0.15722618 -0.14318195
-0.12747224 -0.11565329 -0.10348638 -0.09190219 -0.08621906 -0.07663022 -0.06641711 -0.053246878
-0.039387144 -0.025728356 -0.010943223 0.002288913 0.0071869735 0.0068648946 0.008374052 0.008499742
-0.02949883 -0.033196855 -0.028246116 -0.031044658 -0.02967714 -0.032884594 -0.03825368 -0.044362117
-0.051018987 -0.056579392 -0.06250638 -0.06283742 -0.062520415 -0.06875197 -0.07104308 -0.073803365
-0.07976465 -0.08328289 -0.082903996 -0.086450465 0.10202166 -0.002961702 -0.062144857 -0.045697123
-0.029700756 -0.015681995 0.00029983022 0.019740522 0.03345099 0.047414474 0.065491125 0.0720819
0.073161885 0.0805594 0.08305447 0.08626114 0.090157084 0.08991007 0.085731275 0.080865
-0.1393165 0.24978493 0.084681 0.06594598 0.055764753 0.04331081 0.030916821 0.023642322
0.026547248 0.039721448 0.05244173 0.06435004 0.07942274 0.098772146 0.12453004 0.15231101
00000000: ff39 13be 882a 113e 9af4 02be 69ee 01be
00000010: cc54 01be 0c72 f9bd 7e2c edbd 5968 d6bd
00000020: 7050 b0bd 7d13 84bd 792c 32bd 820b 78bc
00000030: e87a d63c f509 823d 9964 eb3d 9a51 233e
00000040: dfed 453e 3e6a 6d3e eb73 893e 17ce 9a3e
00000050: b2c1 ec3d d2a2 673e 96eb ef3d 8c33 a93d
00000060: a845 363d 3ad8 6f3b 036f 10bd f820 87bd
00000070: bd35 a7bd 0b8f b5bd 140f aebd f9d1 8dbd
00000080: 9b1e 38bd 870f 62bc ccbd f83c 7b1d af3d
00000090: 1589 193e 3735 673e 2498 9c3e 65e2 c83e
000000a0: 8f4a fabc 5c41 85bc 05e8 42be f693 33be
000000b0: e5f9 20be 4a66 06be 4a8e d1bd e55e b5bd
000000c0: e1cf 8fbd 4e4d 68bd ef50 49bd 971d 1cbd
000000d0: 31fa e7bc a4c0 bebc 736a 85bc d8d3 09bc
000000e0: 684b 85bb c182 41bb 1eb4 7ebb 6ae3 e2bb
000000f0: 0ae4 99be d749 a0bd 5b9c 0cbe b601 01be
00000100: 698f e4bd 64da d3bd 7c4c c7bd 60bf b8bd
00000110: e127 bbbd 7854 b5bd 6cce a5bd 65fe 8ebd
00000120: dc71 80bd f340 5ebd 0d2d 3ebd 0817 1ebd
00000130: cb7f 29bd 6f06 42bd 562d 52bd 914d 7bbd
00000140: 044f 3cbe c2a9 51bc aaa3 03bf da85 edbe
00000150: 7a71 ccbe c7c2 a6be 8872 80be 82a7 40be
00000160: 4bd4 14be 83a1 e6bd 7ccb a8bd ec9e 50bd
00000170: d334 8cbc 675b 263c d839 093d 1ff4 683d
00000180: d174 9c3d 1695 b53d db22 c53d 838a c83d
00000190: d713 91be f671 c3bd ef3f 1cbe af32 0fbe
000001a0: ff87 00be bbd9 ebbd 9abc d8bd 9fc9 c3bd
000001b0: 1f38 b5bd 756c a7bd 71ea 93bd b8b1 76bd
000001c0: d928 40bd 4204 0dbd eb81 a0bc ca96 dfbb
000001d0: 34d7 45bb d2e0 3dbb 5332 65bb ecb6 8ebb
000001e0: 2ea4 e3bc a045 c5bc e06b 03bd da3f 08bd
000001f0: d3a7 00bd 608d 09bd 42d2 1abd e73f 33bd
00000200: 7117 47bd bf8f 5abd 3fae 6fbd cbcf 69bd
00000210: e8ff 67bd 496b 79bd 0da6 7ebd 6d6d 7fbd
00000220: f175 89bd 754d 90bd ebaa 92bd 20ab 94bd
00000230: cc49 15be 25c4 8b3e d654 e43d 3965 c43d
00000240: 2671 ae3d 2ddf 973d 4ad2 813d 50af 683d
00000250: c325 7e3d 1344 9b3d 3151 b43d 64f4 c23d
00000260: 2086 d63d befb fe3d 1eed 163e 3ba3 303e
00000270: 2969 503e 778e 6f3e 813d 873e 3d7b 963e
00000280: 0c1e fabc 8727 2c3d efce 83be 00aa 7bbe
00000290: deb3 6bbe 2433 5abe 304e 45be 94c9 2fbe
000002a0: c2c2 19be ce0b fabd 5170 bdbd 8349 83bd
000002b0: 3da8 00bd e3fc 9fbb 4687 c23c 7a11 4e3d
000002c0: 5a63 8f3d 05f8 b73d 63f8 e53d 413b 043e
000002d0: 9aed 8bbe c786 d5bd e6ff 20be 4a9e 12be
000002e0: 1588 02be a2db ecbd abf0 d3bd 3737 bcbd
000002f0: 9e93 b0bd 4ef0 9cbd b205 88bd 6619 5abd
00000300: 6a54 21bd 46c4 d2bc 344b 33bc 9601 163b
00000310: b480 eb3b e9f2 e03b 5233 093c 8042 0b3c
00000320: 88a7 f1bc 6df9 07bd 6664 e7bc 5e51 febc
00000330: 791d f3bc ffb1 06bd e4af 1cbd 0db5 35bd
00000340: 49f9 50bd cbbf 67bd 5803 80bd e8b0 80bd
00000350: b40a 80bd d5cd 8cbd 097f 91bd 3826 97bd
00000360: a65b a3bd 3890 aabd 92c9 a9bd f10c b1bd
00000370: bbf0 d03d 1d19 42bb 9b8b 7ebd e82c 3bbd
00000380: 004f f3bc 8777 80bc 8832 9d39 e0b6 a13c
00000390: e803 093d ae35 423d 3620 863d ad9f 933d
000003a0: e6d5 953d 54fc a43d 7618 aa3d aea9 b03d
000003b0: 47a4 b83d c522 b83d e193 af3d 8d9c a53d
000003c0: fca8 0ebe 9fc7 7f3e 3b6d ad3d b00e 873d
000003d0: 9569 643d ad66 313d 4645 fd3c 8bad c13c
000003e0: 9d79 d93c f5b2 223d 24cd 563d f4c9 833d
000003f0: 64a8 a23d 0d49 ca3d 9b09 ff3d 6bf7 1b3e

bias f4 [16]
0.03786481 0.39176944 0.073657885 0.20283552 0.22902885 0.22320583 0.11600019 -0.0032288306
0.099011675 0.23960999 0.13022527 -0.14513183 0.009619672 0.036432214 0.089995824 0.07183947
00000000: 2218 1b3d 0196 c83e f2d9 963d 1db4 4f3e
00000010: 8a86 6a3e 1290 643e 8291 ed3d ca9a 53bb
00000020: a2c6 ca3d 525c 753e c659 053e 709d 14be
00000030: d49b 1d3c f239 153d bb4f b83d 9220 933d

weight f4 [16, 20]
0.003540176 1.2600444e-05 9.353982e-06 9.7317525e-06 9.554929e-06 9.396166e-06 9.113302e-06 8.585205e-06
8.344176e-06 8.19784e-06 8.125561e-06 8.0333575e-06 7.2330436e-06 7.750117e-06 8.27414e-06 8.523316e-06
8.918941e-06 8.759868e-06 2.4595482e-05 0.000112527596 0.0060585462 0.0002377407 2.640417e-06 0.00010882069
0.00045484354 0.00077312085 0.0011008275 0.0013959247 0.0016936697 0.001990272 0.002306686 0.0025852108
0.002887344 0.0031819376 0.0034501574 0.0037616005 0.004069259 0.0044494346 0.0047950223 0.0051715933
0.004658201 9.846752e-06 7.3675687e-06 8.654228e-06 9.046156e-06 1.0045156e-05 1.1195875e-05 9.702259e-06
0.00023406517 0.00066256983 0.0011049166 0.0015606167 0.0020738698 0.0024836778 0.0028715613 0.003226785
0.003504183 0.0037655612 0.004030901 0.0042843763 0.0057222885 5.1111663e-05 2.3945604e-06 4.318385e-06
2.4787664e-06 0.00014227467 0.000517319 0.0008808015 0.0014456774 0.0019233358 0.0022397835 0.0025538672
0.002844388 0.0031719937 0.0034555525 0.0037384394 0.0040254327 0.004308679 0.004598123 0.0048899883
0.060272157 -0.041315388 -0.052126348 -0.04800023 -0.043966398 -0.037519895 -0.030943828 -0.02545078
-0.017975226 -0.0105699655 -0.0033702047 0.0040594675 0.012424409 0.02030559 0.029267201 0.03681117
0.04499434 0.053044394 0.060350355 0.068862274 0.037175275 -0.19018255 -0.16531755 -0.16679597
-0.16821606 -0.17072162 -0.17379431 -0.17539412 -0.17897555 -0.18252663 -0.18522723 -0.18850301
-0.19327329 -0.1963521 -0.19895108 -0.2036709 -0.20579617 -0.20847215 -0.21299396 -0.21469492
0.0006816881 -1.3589317e-06 -1.5367532e-06 -1.747509e-06 -1.095798e-06 -1.0023751e-06 -1.0594458e-06 -1.7860298e-06
-1.7359941e-06 -9.951104e-07 -9.077029e-07 -1.5649374e-06 -8.992765e-07 -8.5946033e-07 -1.2042176e-06 -9.166747e-07
-7.351861e-07 -9.4957966e-07 -8.591701e-07 -7.9669866e-07 0.00013566525 -0.10789994 -0.122989416 -0.12742354
-0.13230655 -0.13767844 -0.14459628 -0.14821628 -0.15503427 -0.16225979 -0.1674926 -0.17428584
-0.18125065 -0.18833956 -0.19426337 -0.20141657 -0.20935689 -0.21530685 -0.2236799 -0.23001358
0.0034074974 1.2234098e-05 9.223755e-06 9.504955e-06 9.47041e-06 9.262064e-06 8.833065e-06 8.675345e-06
8.305148e-06 8.208835e-06 8.140414e-06 8.064824e-06 6.9155603e-06 7.5697317e-06 7.636504e-06 8.339321e-06
8.662449e-06 8.603729e-06 2.4706982e-05 0.00010969618 -1.15789245e-08 -9.023903e-08 -9.684673e-08 -1.776786e-07
4.033247e-08 -5.8940874e-08 -2.3122537e-08 -1.0581146e-07 -1.4863537e-07 1.0352853e-07 -5.786465e-08 1.6004199e-07
4.2739828e-08 7.0340626e-08 5.2926374e-08 -2.2437943e-08 8.878934e-08 -3.467401e-07 -1.7444374e-07 -4.4377604e-08
-0.0009523883 -0.29013655 -0.29257402 -0.29555017 -0.2968315 -0.2993704 -0.30078256 -0.30382034
-0.30544135 -0.30813265 -0.30987182 -0.31217372 -0.31561273 -0.31671458 -0.31995866 -0.32407215
-0.326531 -0.32850167 -0.3326198 -0.33530852 0.054742068 -0.8582438 -0.7345699 -0.7179861
-0.7032068 -0.68591315 -0.6687485 -0.6485029 -0.627421 -0.60679877 -0.5832484 -0.56076634
-0.53937113 -0.5155762 -0.4942296 -0.47170046 -0.45176062 -0.43137714 -0.41357857 -0.39668444
0.010342946 0.001080108 0.0006841357 0.0010233471 0.0012935646 0.0015107858 0.0018112109 0.0021033925
0.002398454 0.0027290084 0.0030261301 0.0033689511 0.0038220745 0.0042533376 0.0047438294 0.005389719
00000000: 4c02 683b 7f66 5337 0cef 1c37 8f45 2337
00000010: 1c4e 2037 3aa4 1d37 56e5 1837 2d09 1037
00000020: f7fd 0b37 7489 0937 0553 0837 02c7 0637
00000030: 5fb3 f236 8006 0237 29d1 0a37 5dff 0e37
00000040: 8fa2 1537 59f7 1237 6552 ce37 cbfc eb38
00000050: c586 c63b 094a 7939 0532 3136 aa36 e438
00000060: 1178 ee39 43ab 4a3a a449 903a 76f7 b63a
00000070: 20fe dd3a 396f 023b c52b 173b a46c 293b
00000080: 9839 3d3b 0e88 503b 091c 623b 2f85 763b
00000090: 6b57 853b 90cc 913b 901f 9d3b 7876 a93b
000000a0: d2a3 983b 7a33 2537 ef36 f736 a031 1137
000000b0: f2c4 1737 9e87 2837 ebd5 3b37 e3c6 2237
000000c0: 646f 7539 4fb0 2d3a d9d2 903a 9b8d cc3a
000000d0: c3e9 073b 33c5 223b ce30 3c3b 7878 533b
000000e0: 6fa6 653b a2c7 763b a615 843b f463 8c3b
000000f0: 0982 bb3b bb60 5638 3cb2 2036 a5e6 9036
00000100: e258 2636 912f 1539 b19c 073a 97e5 663a
00000110: e27c bd3a 7118 fc3a 55c9 123b c85e 273b
00000120: e968 3a3b 39e1 4f3b 8d76 623b 9b00 753b
00000130: c7e7 833b d22f 8d3b daab 963b 323c a03b
00000140: f0df 763d 533a 29bd 7082 55bd e49b 44bd
00000150: 1c16 34bd 76ae 19bd e97d fdbc 277e d0bc
00000160: c840 93bc a62d 2dbc a7de 5cbb 4805 853b
00000170: c08f 4b3c e957 a63c c5c1 ef3c 4fc7 163d
00000180: fc4b 383d 1445 593d ef31 773d aa07 8d3d
00000190: 1a45 183d 37bf 42be 0149 29be 90cc 2abe
000001a0: d540 2cbe a6d1 2ebe 23f7 31be 849a 33be
000001b0: 5e45 37be 43e8 3abe 35ac 3dbe ef06 41be
000001c0: 6fe9 45be 8610 49be d5b9 4bbe 1b8f 50be
000001d0: 3bbc 52be b979 55be 171b 5abe fcd8 5bbe
000001e0: 50b3 323a 8a64 b6b5 7042 ceb5 f48b eab5
000001f0: 5513 93b5 5989 86b5 4832 8eb5 84b7 efb5
00000200: 4e00 e9b5 bc8f 85b5 dea8 73b5 d70a d2b5
00000210: cf65 71b5 aab5 66b5 9aa0 a1b5 6811 76b5
00000220: 9b59 45b5 9ee6 7eb5 b8a1 66b5 b7dc 55b5
00000230: 5d41 0e39 a5fa dcbd e0e1 fbbd 517b 02be
00000240: 5e7b 07be 94fb 0cbe 0c11 14be 02c6 17be
00000250: 4ec1 1ebe 6e27 26be 2e83 2bbe fd77 32be
00000260: c599 39be 16dc 40be faec 46be 2540 4ebe
00000270: a761 56be 6679 5cbe 580c 65be ae88 6bbe
00000280: 5250 5f3b 0d41 4d37 babf 1a37 7977 1f37
00000290: 1ae3 1e37 4364 1b37 ba31 1437 538c 1137
000002a0: 5756 0b37 aeb8 0937 d092 0837 284e 0737
000002b0: 360c e836 80ff fd36 891e 0037 1ce9 0b37
000002c0: ef54 1137 bc58 1037 d741 cf37 b00c e638
000002d0: a6ec 46b2 6ec9 c1b3 0efa cfb3 ecc7 3eb4
000002e0: 053a 2d33 2d26 7db3 ff9e c6b2 773a e3b3
000002f0: 9498 1fb4 6953 de33 db86 78b3 02d8 2b34
00000300: f090 3733 2b0e 9733 2a51 6333 8fbd c0b2
00000310: 75ac be33 9927 bab4 bb4e 3bb4 b199 3eb3
00000320: b2a9 79ba c78c 94be 43cc 95be 5a52 97be
00000330: 4cfa 97be 1447 99be 2c00 9abe 578e 9bbe
00000340: cf62 9cbe 90c3 9dbe 85a7 9ebe 3cd5 9fbe
00000350: fe97 a1be 6a28 a2be 9fd1 a3be c9ec a5be
00000360: 122f a7be 5f31 a8be 244d aabe 8fad abbe
00000370: 3839 603d deb5 5bbf c60c 3cbf f0cd 37bf
00000380: 5c05 34bf 0198 2fbf 1a33 2bbf 4904 26bf
00000390: aa9e 20bf 2a57 1bbf c44f 15bf 628e 0fbf
000003a0: 3a14 0abf cdfc 03bf aa0b fdbe b982 f1be
000003b0: 2b4d e7be 77dd dcbe 92c0 d3be 391a cbbe
000003c0: 7675 293c 6992 8d3a 9257 333a d521 863a
000003d0: d38c a93a 8f05 c63a 2766 ed3a 12d9 093b
000003e0: 612f 1d3b 2ad9 323b 0a52 463b 9fc9 5c3b
000003f0: c57b 7a3b 955f 8b3b 2072 9b3b 3d9c b03b

bias f4 [16]
0.00349157 0.0071752374 0.0055175796 0.007555427 0.0701213 0.033938773 0.00021732523 0.0112742
0.0034481995 1.7620651e-07 0.046151143 0.026881788 0.012012185 0.07258256 0.032842293 0.08061754
00000000: d3d2 643b 411e eb3b d0cc b43b 8493 f73b
00000010: c29b 8f3d 6203 0b3d cce1 6339 6cb7 383c
00000020: 30fb 613b 4733 3d34 fb08 3d3d 3237 dc3c
00000030: c1ce 443c 2aa6 943d a485 063d cf1a a53d

weight f4 [8, 16]
0.106634036 0.018026873 0.044149324 -0.1944843 -0.33988935 -0.065401554 -0.019648004 0.1816715
0.19002134 -0.06162683 -0.020464377 -0.092656605 0.152687 0.113912046 0.19707082 0.15746255
0.28631735 0.29611912 0.056151245 -0.14289747 -0.44163215 -0.119716406 0.063582465 0.27019966
0.08072724 -0.12882899 0.08364668 -0.07651882 0.25132337 0.4521406 0.0860474 0.50963813
0.23356387 0.3210856 -0.028714329 -0.116391115 -0.42428422 -0.21481204 -0.02298966 0.16646597
-0.12186889 -0.30002013 -0.024099456 0.036066167 0.1662938 0.24637163 -0.13314667 0.26655322
0.07273145 -0.034152977 0.061191652 0.48460054 0.45006835 0.54376376 0.06303775 0.18481116
0.37506434 0.54852194 0.07829255 -0.029068854 0.15717945 0.0423068 0.3316669 0.1300038
0.32633847 -0.29235744 0.06284119 0.61936426 0.62974894 0.57633716 0.08850252 -0.21941857
0.23840031 0.598644 0.067026295 0.043824557 -0.2269041 0.2571939 0.36705709 0.5786769
0.2848462 0.32942566 0.1141803 -0.17670861 -0.2929979 -0.10432278 0.108624 0.25584713
0.06914008 -0.1382566 0.12623505 -0.101705536 0.24211387 0.44760686 0.05346698 0.5190969
0.11245328 0.0006424551 0.045356095 -0.18604851 -0.3124606 -0.102922015 -0.009468845 0.17480253
0.20529327 -0.090951174 -0.009646456 -0.11446417 0.14841117 0.12082465 0.21250558 0.16303813
0.23573573 0.27794632 0.122511804 -0.20746535 -0.21190794 -0.104516074 0.1448681 0.22154163
0.083578065 -0.1501381 0.1485768 -0.109837055 0.20943053 0.3819179 0.06255677 0.44163525
00000000: f262 da3d 18ad 933c ecd5 343d e426 47be
00000010: fa05 aebe 40f1 85bd daf4 a0bc 1808 3a3e
00000020: f494 423e 6a6c 7cbd e9a4 a7bc bfc2 bdbd
00000030: fb59 1c3e b84a e93d efcc 493e dd3d 213e
00000040: 3098 923e ed9c 973e d9fe 653d b753 12be
00000050: 9c1d e2be e02d f5bd 8637 823d 9c57 8a3e
00000060: 5354 a53d bfeb 03be f34e ab3d e6b5 9cbd
00000070: 75ad 803e f97e e73e 9f39 b03d a577 023f
00000080: 5e2b 6f3e 5565 a43e 503a ebbc 775e eebd
00000090: c83b d9be b0f7 5bbe d054 bcbc 0e76 2a3e
000000a0: 6696 f9bd 3d9c 99be 396c c5bc 1eba 133d
000000b0: ec48 2a3e d848 7c3e 9a57 08be aa79 883e
000000c0: 3af4 943d fee3 0bbd 19a4 7a3d 901d f83e
000000d0: 5c6f e63e 1a34 0b3f f019 813d 233f 3d3e
000000e0: 6f08 c03e ef6b 0c3f d857 a03d ce21 eebc
000000f0: a6f3 203e e549 2d3d 3ed0 a93e b71f 053e
00000100: d615 a73e e0af 95be e2b2 803d a88e 1e3f
00000110: 3a37 213f d58a 133f cf40 b53d 43af 60be
00000120: 361f 743e bc40 193f 1545 893d 6181 333d
00000130: 8c59 68be ebae 833e e8ee bb3e 2b24 143f
00000140: 5cd7 913e 7baa a83e 5cd7 e93d 1af3 34be
00000150: d203 96be 2fa7 d5bd 4276 de3d 65fe 823e
00000160: 5099 8d3d 2393 0dbe c343 013e fe4a d0bd
00000170: b3ec 773e ba2c e53e 3100 5b3d 89e3 043f
00000180: e84d e63d 6f6a 283a 50c7 393d 8083 3ebe
00000190: d6fa 9fbe c7c8 d2bd 3723 1bbc 6fff 323e
000001a0: 6638 523e 9c44 babd 2b0c 1ebc 316c eabd
000001b0: 19f9 173e ea72 f73d 109b 593e 78f3 263e
000001c0: b564 713e fb4e 8e3e 78e7 fa3d cc71 54be
000001d0: 65fe 58be 860c d6bd 4e58 143e cfdb 623e
000001e0: fa2a ab3d cdbd 19be 8424 183e 40f2 e0bd
000001f0: f574 563e be8a c33e c41d 803d 041e e23e

bias f4 [8]
0.05493787 0.14994161 0.15305775 0.03593463 0.02250874 0.15246291 0.045689516 0.157011
00000000: 8806 613d 4b8a 193e 2cbb 1c3e 3130 133d
00000010: 4064 b83c 3d1f 1c3e ee24 3b3d 7ec7 203e

weight f4 [8, 16]
-0.0033024813 -0.0043171807 -0.0031461006 -0.0040122196 0.035428934 0.07599112 0.00021920868 0.1418583
-0.003185667 1.6997592e-07 0.29974148 0.34617746 -0.008131547 -0.17829362 0.12009063 -0.15640137
0.0033184378 0.0055563375 0.004968325 0.0066294353 0.037614956 -0.050812047 0.00028955762 0.021195764
0.0033227687 6.988709e-08 0.016353678 -0.14084138 0.01044495 0.09982785 -0.048070543 0.10112788
0.00069238234 0.0015863099 0.0013591633 0.00089233264 -0.059839044 -0.076497875 1.9218447e-05 -8.442379e-08
0.00069677766 6.082066e-08 -6.101784e-08 -0.49644545 0.0018456123 0.28285074 -0.1297884 0.24506766
0.003396735 0.0073271925 0.005454904 0.006812967 0.116747595 -0.05121567 0.0008150539 -0.0040841945
0.0033867545 5.1441777e-08 -0.021095471 -0.16300602 0.011509053 0.14200337 -0.048226856 0.1267805
1.1342684e-07 -7.4776885e-08 -1.9297383e-07 9.340191e-09 2.1908109e-07 7.0350666e-08 2.5496007e-07 -8.700028e-08
-4.2430024e-08 1.7831549e-07 1.14205456e-07 -1.6616941e-07 1.3643502e-07 3.8853162e-08 1.1193668e-08 -1.5708943e-07
0.0034126155 0.0074153165 0.00546506 0.0067417966 0.10979786 -0.051995546 0.0008932233 -0.0063638585
0.0033898146 -6.2586656e-09 -0.027357617 -0.16228981 0.011536113 0.14334916 -0.049474597 0.12827073
0.0033984606 0.0073634875 0.005487634 0.006825688 0.12135839 -0.050856374 0.0008442836 -0.006108305
0.0033737516 -2.7252892e-07 -0.021461787 -0.1605881 0.01150892 0.14276822 -0.04814364 0.12885813
0.0033748313 0.007326258 0.005545827 0.0068666656 0.12759064 -0.05282452 0.0008714058 -0.011652816
0.0033708191 1.4900814e-08 -0.0062763384 -0.16168177 0.011521988 0.14369014 -0.050298724 0.13104199
00000000: 716e 58bb 2377 8dbb cf2e 4ebb f078 83bb
00000010: ee1d 113d 3ba1 9b3d 62db 6539 4d43 113e
00000020: a0c6 50bb a082 3634 b777 993e 2c3e b13e
00000030: 2e3a 05bc 9a92 36be 14f2 f53d ae27 20be
00000040: 267a 593b f011 b63b 55cd a23b bc3b d93b
00000050: 2412 1a3d 4b20 50bd c4cf 9739 bda2 ad3c
00000060: cfc2 593b d614 9633 26f8 853c b938 10be
00000070: 4c21 2b3c 8b72 cc3d 9ee5 44bd 221c cf3d
00000080: fe80 353a baeb cf3a f425 b23a 6eeb 693a
00000090: c919 75bd ebaa 9cbd 4d37 a137 784c b5b3
000000a0: f5a7 363a 839c 8233 ea08 83b3 192e febe
000000b0: 79e8 f13a d0d1 903e 40e7 04be 04f3 7a3e
000000c0: c29b 5e3b f218 f03b 0dbf b23b 4f3f df3b
000000d0: 5d19 ef3d 86c7 51bd 57a9 553a b5d4 85bb
000000e0: 50f4 5d3b d5f0 5c33 69d0 acbc 0deb 26be
000000f0: 7890 3c3c 5569 113e 8689 45bd bfd2 013e
00000100: 1195 f333 0795 a0b3 3e34 4fb4 9876 2032
00000110: 8d3c 6b34 b013 9733 72e1 8834 e9d4 bab3
00000120: 4e3c 36b3 fd76 3f34 1d41 f533 4d6c 32b4
00000130: f97e 1234 81df 2633 464e 4032 6aac 28b4
00000140: 30a6 5f3b 2ffc f23b 3f14 b33b 4aea dc3b
00000150: b3dd e03d 48f9 54bd 3327 6a3a ea87 d0bb
00000160: a727 5e3b ce0b d7b1 151d e0bc 4d2f 26be
00000170: f701 3d3c 1fca 123e e0a5 4abd 6759 033e
00000180: b5b8 5e3b 6949 f13b 9cd1 b33b 05aa df3b
00000190: bf8a f83d c64e 50bd ea52 5d3a 2d28 c8bb
000001a0: 291a 5d3b 1750 92b4 a1d0 afbc 3571 24be
000001b0: e98f 3c3c d531 123e 4432 45bd 63f3 033e
000001c0: 462c 5d3b 1b11 f03b c5b9 b53b c401 e13b
000001d0: 1fa7 023e 865e 58bd 0e6f 643a 74eb 3ebc
000001e0: f6e8 5c3b 79fe 7f32 bea9 cdbb e88f 25be
000001f0: b8c6 3c3c 8223 133e 0906 4ebd df2f 063e

bias f4 [8]
0.036007654 0.13431484 -0.147262 0.12232445 -1.1274476e-07 0.121275246 0.1216638 0.119075336
00000000: c37c 133d d489 093e dacb 16be 3e85 fa3d
00000010: 161e f2b3 285f f83d df2a f93d c5dd f33d

weight_ih_l0 f4 [72, 19]
0.07445063 -0.04648048 0.08829164 0.21586804 -0.18552548 -0.3793367 0.10420715 -0.038634952
0.09548776 0.09622745 -0.2696739 -0.4873558 -0.26425174 -1.497996e-07 -0.26674315 -0.26711857
-0.26867262 -0.43146077 0.07743265 -0.13197783 0.0051461817 0.15740752 0.18276687 -0.06609228
-0.21965499 0.15823223 0.01723939 0.14338985 0.39503875 -0.45445353 -0.57970107 -0.47066346
-1.7886723e-07 -0.47207433 -0.4744473 -0.47821784 -0.1691602 0.08612578 0.109809995 0.0027989305
0.19050097 0.19743815 -0.124102026 -0.40807217 0.26509148 0.02834101 0.272071 0.2989092
-0.3590489 -0.3992162 -0.3538938 3.6933983e-08 -0.3558915 -0.35490927 -0.35585818 -0.27525103
0.5220071 -0.11867454 0.004689844 -0.011812686 -0.10694975 -0.25246927 -0.6090124 -0.019110372
0.0026831545 -0.0123785455 0.3168232 -0.18092823 0.41476515 -0.09100414 -1.1135151e-07 -0.09068628
-0.09219987 -0.09363511 -0.522261 0.81653285 -0.12187459 -0.13676538 -0.05862268 -0.057104103
-0.17921978 -0.29625097 -0.054922555 -0.12704556 -0.05509449 0.0777671 -0.46426407 -0.6586615
-0.4750553 -4.0572527e-08 -0.47549778 -0.47902462 -0.48381788 -0.5388948 -0.20774469 0.017486092
-0.076617524 0.042370908 0.08970021 -0.065193795 -0.1552915 0.0654163 -0.049563937 0.062036682
0.2872259 -0.3131045 -0.45153552 -0.32398543 7.218342e-08 -0.3263005 -0.32697308 -0.33049121
0.0016865203 -0.08502293 0.16122203 0.013708319 0.07154791 0.14723319 -0.08817133 -0.1948302
0.0870222 0.033528175 0.107494846 0.45664728 -0.113848045 -0.3559849 -0.0895798 3.4027752e-07
-0.09102694 -0.09118217 -0.09158864 0.02676641 0.39570957 -0.029451028 0.14858806 0.14716716
0.005397999 0.1581419 -0.046129055 0.22273138 0.18402669 0.23489183 0.2844359 -0.027991358
-0.023840802 -0.04087884 1.8001376e-07 -0.04136453 -0.040260263 -0.039532084 -0.19698192 0.5593156
0.03547238 0.071433246 0.13471484 0.17958571 0.044435125 -0.03779555 0.12909478 0.06910363
0.12542757 0.051166777 0.09363268 0.09797884 0.08496293 1.9657776e-08 0.08472899 0.0850981
0.08607638 0.1505047 0.52460366 0.12101253 -0.15056863 -0.10936266 -0.049457293 -0.27913967
-0.42108485 -0.117060564 -0.12971926 -0.0946726 0.34081995 -0.16176553 -0.15519702 -0.14117317
-2.366039e-07 -0.14353503 -0.14606254 -0.15145707 -0.43376625 0.21871781 -0.01606487 -0.009140807
-0.040935293 -0.08259385 0.17462018 0.081056885 0.013652043 0.022297861 0.034191035 -0.14545034
-0.07050574 -0.24231894 -0.07444972 -8.925464e-08 -0.075565696 -0.07419916 -0.074423 0.24305093
0.41575557 -0.03384665 0.00815887 0.066018134 0.02944125 0.070449024 -0.04124489 0.07857954
0.020113287 0.08405446 0.28366777 -0.06449925 -0.086423144 -0.07182357 9.218922e-08 -0.0720708
-0.07168307 -0.070875175 0.19427124 0.1878776 0.026903963 -0.14046696 -0.14338408 -0.10130896
-0.14227778 -0.14688838 -0.119521186 -0.12603359 -0.09505095 0.2293424 -0.13358206 -0.32008165
-0.14197814 1.7436861e-07 -0.14322898 -0.14249845 -0.14282727 -0.2786304 -0.038397692 0.032994185
0.10042319 0.2180148 0.16334924 0.01626567 -0.28189537 0.22840978 0.106404416 0.22859895
00000000: 9279 983d 5162 3ebd 3fd2 b43d 830c 5d3e
00000010: 64fa 3dbe 6c38 c2be 8f6a d53d af3f 1ebd
00000020: 168f c33d e612 c53d b312 8abe b386 f9be
00000030: 014c 87be 9ad8 20b4 8f92 88be c4c3 88be
00000040: 758f 89be 6de8 dcbe 0295 9e3d 3225 07be
00000050: 4da1 a83b 702f 213e 3d27 3b3e 645b 87bd
00000060: 3ded 60be a107 223e 9f39 8d3c cad4 123e
00000070: 8542 ca3e 22ae e8be 4a67 14bf cdfa f0be
00000080: a60e 40b4 bab3 f1be c2ea f2be f8d8 f4be
00000090: 5538 2dbe b762 b03d 10e4 e03d 436e 373b
000000a0: b012 433e 3a2d 4a3e 3429 febd d6ee d0be
000000b0: 12ba 873e 682b e83c e44c 8b3e a00a 993e
000000c0: 42d5 b7be 1166 ccbe 9131 b5be 58a1 1e33
000000d0: 6937 b6be abb6 b5be 0b33 b6be b4ed 8cbe
000000e0: 42a2 053f a30b f3bd 43ad 993b ff89 41bc
000000f0: 7808 dbbd a743 81be 3de8 1bbf 5b8d 9cbc
00000100: ddd7 2f3b 62cf 4abc a736 a23e 4045 39be
00000110: 195c d43e 6160 babd 2420 efb3 bab9 b9bd
00000120: 49d3 bcbd c4c3 bfbd e6b2 05bf 4c08 513f
00000130: 6399 f9bd 390c 0cbe 561e 70bd fee5 69bd
00000140: 6485 37be 35ae 97be 79f6 60bd 3b18 02be
00000150: c3aa 61bd 5b44 9f3d 05b4 edbe 0a9e 28bf
00000160: 733a f3be f741 2eb3 7274 f3be b742 f5be
00000170: fab6 f7be 02f5 09bf 06bb 54be fe3e 8f3c
00000180: a6e9 9cbd 1e8d 2d3d beb4 b73d 5384 85bd
00000190: bc04 1fbe fbf8 853d 8e03 4bbd 2d1a 7e3d
000001a0: 460f 933e 3c4f a0be aa2f e7be 6be1 a5be
000001b0: 4103 9b33 dc10 a7be 0469 a7be 2536 a9be
000001c0: 3b0e dd3a 8020 aebd 6317 253e db98 603c
000001d0: b687 923d 4cc4 163e 2c93 b4bd 9181 47be
000001e0: b238 b23d d754 093d 4226 dc3d accd e93e
000001f0: 2a29 e9bd a743 b6be 9d75 b7bd 63af b634
00000200: 556c babd b8bd babd d392 bbbd 3b45 db3c
00000210: 729a ca3e 4843 f1bc 7827 183e fdb2 163e
00000220: b3e1 b03b f3ef 213e d2f1 3cbd b213 643e
00000230: 7e71 3c3e 7c87 703e 95a1 913e 224e e5bc
00000240: c94d c3bc 9270 27bd ce49 4134 da6d 29bd
00000250: f2e7 24bd 65ec 21bd a1b5 49be 4f2f 0f3f
00000260: 7d4b 113d 984b 923d b0f2 093e 51e5 373e
00000270: 9b01 363d 82cf 1abd 6c31 043e 3486 8d3d
00000280: 1670 003e 4194 513d 7ec2 bf3d 21a9 c83d
00000290: 0b01 ae3d e8db a832 6586 ad3d ea47 ae3d
000002a0: d048 b03d e71d 1a3e 6d4c 063f 6bd5 f73d
000002b0: aa2e 1abe 88f9 dfbd bb93 4abd 65eb 8ebe
000002c0: 6f98 d7be 73bd efbd 20d5 04be b5e3 c1bd
000002d0: f47f ae3e dda5 25be f8eb 1ebe b38f 10be
000002e0: 2f0d 7eb4 d9fa 12be 6b91 15be 9017 1bbe
000002f0: 9c16 debe 90f7 5f3e 799a 83bc 53c3 15bc
00000300: c4ab 27bd f726 a9bd a2cf 323e 2701 a63d
00000310: d2ac 5f3c 01aa b63c e60b 0c3d eff0 14be
00000320: 5065 90bd 7522 78be 1879 98bd 42ac bfb3
00000330: 30c2 9abd bbf5 97bd 166b 98bd 58e2 783e
00000340: eadd d43e c9a2 0abd c8ac 053c 8434 873d
00000350: c72e f13c 9447 903d 67f0 28bd 4fee a03d
00000360: 9fc4 a43c bf24 ac3d e73c 913e 2f18 84bd
00000370: 9efe b0bd 3c18 93bd 8ff9 c533 db99 93bd
00000380: 93ce 92bd 0127 91bd 0aef 463e fc62 403e
00000390: b365 dc3c 92d6 0fbe 47d3 12be 127b cfbd
000003a0: 44b1 11be e869 16be 86c7 f4bd f30e 01be
000003b0: 13aa c2bd bcd8 6a3e bcc9 08be bee1 a3be
000003c0: b862 11be 143a 3b34 9eaa 12be 1deb 11be
000003d0: 5041 12be a5a8 8ebe e646 1dbd e924 073d
000003e0: acaa cd3d 463f 5f3e 0645 273e 953f 853c
000003f0: 9754 90be 41e4 693e 8fea d93d d815 6a3e

weight_hh_l0 f4 [72, 18]
-0.031044023 0.20655483 -0.26123488 0.36143646 -0.37770617 -0.02443592 -0.02137072 0.22471051
-0.074315265 -0.28476343 -0.3355406 0.032178447 0.033634327 -0.22262071 -0.04488922 -0.042152926
0.19534901 -0.22846428 -0.44113135 0.3333602 -0.44297987 0.10902329 -0.40223485 -0.3322143
-0.25190657 0.22532816 -0.24168806 -0.3608411 -0.27373052 0.5304312 0.41249695 -0.4751696
-0.08262806 -0.061603755 0.09154814 0.0693628 -0.11699228 0.13269834 0.0556678 0.0062980074
0.006081508 -0.014222384 0.073461555 -0.026008595 -0.04595984 -0.04387973 -0.0397946 0.10643224
0.07887769 -0.0040840786 0.04715467 -0.029428711 -0.11120553 -0.011389312 -0.53918594 0.46030435
-0.24141175 -0.112010054 -0.32189044 -0.4328802 -0.33255574 0.051157687 0.007453051 -0.2232007
-0.30261856 0.14840971 0.39527112 -0.14755154 0.374376 0.34209895 0.0010617 -0.57208866
-0.30374196 0.23234162 -0.2691796 0.10447496 -0.22836955 -0.13005291 -0.10074384 0.4204544
-0.28667527 -0.0835094 -0.43303016 0.59002686 0.15459396 -0.40807912 -0.24315019 0.39903396
0.12774575 0.13098988 -0.3162467 0.62618554 -0.69269365 0.4208903 -0.790884 -0.26526794
-0.13786937 0.35530046 -0.1664903 -0.6241609 -0.2601261 0.38073742 0.14073505 -0.6708339
-0.11701532 0.08323863 0.04657552 -0.055303812 -0.23781884 0.5107034 -0.5375482 0.39937183
-0.38406307 -0.28683275 -0.03592336 0.04444836 0.010022826 -0.4642559 -0.14870252 0.04833784
0.028948823 -0.50670207 0.12422444 0.0074048075 0.2022801 -0.33412027 0.0121700615 0.011648226
-0.09563252 -0.06959798 -0.025879828 0.030558089 0.090606414 -0.096137874 0.050843075 -0.17478247
0.09596084 -0.025146866 -0.047333904 -0.10235976 0.083114356 0.016464798 -0.07486159 -0.32265896
-0.099502794 0.148097 -0.17268877 0.09748888 -0.17071709 -0.06963999 -0.11844329 0.1274734
0.002333039 -0.18999925 -0.1130988 0.1648732 0.058339484 -0.15057787 0.031263057 -0.06243614
-0.024442121 -0.19885488 -0.32407928 0.39071003 -0.3372893 0.29266974 -0.22622082 -0.2610539
-0.012428026 0.1906679 -0.044957038 -0.21932667 -0.23321283 0.07569738 0.05833526 -0.4251623
0.043849844 0.046982538 0.35508847 -0.2857686 -0.15309939 -0.06163966 -0.075813204 0.01347781
-0.04942744 0.06472322 0.0376687 0.295107 -0.10420524 -0.18998979 -0.18362585 0.092225365
-0.22549284 -0.32678244 -0.07170025 0.22081171 -0.35171732 -0.22083278 -0.17391619 0.1898045
-0.09179869 -1.08422955e-05 -0.15888286 -0.0678993 -0.1339478 0.053524166 -0.07998076 -0.25892872
-0.10444711 0.20658256 0.17835519 0.09837548 -0.039472666 -0.02501849 0.063707165 -0.24013087
-0.14556609 0.38160166 -0.41070458 0.13841313 -0.4100852 -0.14319576 -0.058248226 0.14439192
-0.048920486 -0.3175023 -0.18609296 0.1888111 0.18882045 -0.39206302 0.005436417 -0.09813243
0.020868752 -0.22654617 0.05700049 -0.051548224 -0.0658447 -0.010788381 0.00049762387 0.05931145
-0.03602068 -0.08341618 -0.020586949 -0.10707331 -0.24933776 -0.052491896 -0.1085461 -0.22961019
-0.021241508 -0.04291312 -0.18897069 -0.32462493 -0.35477126 0.23942047 -0.28379592 -0.01725659
00000000: 0950 febc 1c83 533e 94c0 85be 330e b93e
00000010: b462 c1be d72d c8bc a611 afbc 831a 663e
00000020: 9a32 98bd 83cc 91be facb abbe 8ccd 033d
00000030: 26c4 093d aff6 63be c2dd 37bd 8ca8 2cbd
00000040: 9209 483e 8af2 69be f8db e1be 30ae aa3e
00000050: 42ce e2be 9a47 df3d baf1 cdbe fe17 aabe
00000060: e6f9 80be 6dbc 663e 137d 77be 2ac0 b8be
00000070: 6826 8cbe 57ca 073f cd32 d33e 6e49 f3be
00000080: e638 a9bd 3854 7cbd 977d bb3d 150e 8e3d
00000090: a699 efbd 13e2 073e eb03 643d 845f ce3b
000000a0: 6347 c73b 0105 69bc 0373 963d fa0f d5bc
000000b0: 6340 3cbd 3bbb 33bd aaff 22bd 25f9 d93d
000000c0: a08a a13d bcd3 85bb 4125 413d 7b14 f1bc
000000d0: babf e3bd 3d9a 3abc 1708 0abf 03ad eb3e
000000e0: a434 77be 8765 e5bd d3ce a4be 79a2 ddbe
000000f0: bf44 aabe b98a 513d b938 f43b b98e 64be
00000100: d2f0 9abe b7f8 173e fa60 ca3e c017 17be
00000110: 36ae bf3e 9827 af3e be28 8b3a 6774 12bf
00000120: 1184 9bbe f6ea 6d3e e9d1 89be f8f6 d53d
00000130: b5d9 69be 972c 05be c952 cebd cd45 d73e
00000140: 1ac7 92be fa06 abbd 21b6 ddbe 000c 173f
00000150: e14d 1e3e bfef d0be 5dfc 78be 2e4e cc3e
00000160: c8cf 023e 3622 063e 16eb a1be b24d 203f
00000170: 5f54 31bf ef7e d73e 6077 4abf 33d1 87be
00000180: a12d 0dbe f1e9 b53e 6f7c 2abe 02c9 1fbf
00000190: 402f 85be 04f0 c23e d91c 103e c5bb 2bbf
000001a0: baa5 efbd 0479 aa3d f9c5 3e3d 4086 62bd
000001b0: c886 73be 75bd 023f c29c 09bf 777a cc3e
000001c0: eaa3 c4be bedb 92be 6024 13bd 7c0f 363d
000001d0: c736 243c f3b2 edbe 7945 18be e6fd 453d
000001e0: 1526 ed3c 3ab7 01bf 6269 fe3d 07a4 f23b
000001f0: 8422 4f3e d011 abbe f064 473c 33d8 3e3c
00000200: fcda c3bd 6389 8ebd ef01 d4bc f554 fa3c
00000210: db8f b93d efe3 c4bd d440 503d 2dfa 32be
00000220: 1e87 c43d cd00 cebc 32e1 41bd fea1 d1bd
00000230: dc37 aa3d 2fe1 863c 0951 99bd 8e33 a5be
00000240: 1fc8 cbbd bda6 173e 53d5 30be 40a8 c73d
00000250: 76d0 2ebe 699f 8ebd 6592 f2bd 6388 023e
00000260: e6e5 183b 2a8f 42be 58a0 e7bd 85d4 283e
00000270: 62f5 6e3d 1631 1abe b10d 003d 0abd 7fbd
00000280: d83a c8bc 9da0 4bbe b8ed a5be 250b c83e
00000290: 2fb1 acbe cfd8 953e 6ea6 67be dba8 85be
000002a0: eb9e 4bbc 723e 433e df24 38bd 2c97 60be
000002b0: 58cf 6ebe 3a07 9b3d f4f0 6e3d dfae d9be
000002c0: e59b 333d c370 403d 28ce b53e 4350 92be
000002d0: 16c6 1cbe de79 7cbd f443 9bbd 08d2 5c3c
000002e0: 6d74 4abd 9c8d 843d 7f4a 1a3d 4418 973e
000002f0: 8f69 d5bd af8c 42be 6a08 3cbe a7e0 bc3d
00000300: 98e7 66be 0750 a7be 95d7 92bd 771c 623e
00000310: 4b14 b4be fd21 62be 1617 32be 1c5c 423e
00000320: f400 bcbd 4ee7 35b7 30b2 22be ca0e 8bbd
00000330: 9d29 09be 283c 5b3d f4cc a3bd 4e92 84be
00000340: 5ee8 d5bd 618a 533e bea2 363e 1579 c93d
00000350: 17ae 21bd 94f3 ccbc e778 823d dee4 75be
00000360: 470f 15be 4b61 c33e df47 d2be 2cbc 0d3e
00000370: b0f6 d1be e9a1 12be b195 6ebd 7adb 133e
00000380: d960 48bd a98f a2be 278f 3ebe b257 413e
00000390: 265a 413e 7cbc c8be f923 b23b a8f9 c8bd
000003a0: f2f4 aa3c b8fb 67be 5979 693d 3b24 53bd
000003b0: 96d9 86bd c0c1 30bc f972 023a 90f0 723d
000003c0: 6c8a 13bd 1ad6 aabd f6a5 a8bc 4049 dbbd
000003d0: 6652 7fbe be01 57bd 6b4d debd ef1e 6bbe
000003e0: ac02 aebc abc5 2fbd 8881 41be 3d35 a6be
000003f0: 94a4 b5be a42a 753e b34d 91be b15d 8dbc

bias_ih_l0 f4 [72]
0.14300904 0.06303572 0.26852155 0.043890998 0.080284126 0.15386467 0.2508246 0.18074094
0.16283476 0.21508268 0.09861749 0.11514027 0.16583622 0.14305946 0.25104788 0.1101153
0.0709631 0.12987097 0.15004382 0.04022638 0.3076152 0.22612627 0.25723842 0.12636411
0.09479893 0.024458174 0.022165086 0.13415247 0.15720193 0.08193488 0.14002866 0.18343718
0.07976271 0.22865742 0.21782649 0.221568 -0.0445375 0.0072949226 -0.022281842 -0.04943317
-0.03451284 -0.010690382 -0.03648578 -0.056028802 0.07894765 -0.04328441 0.034799933 -0.025011266
-0.017554099 -0.013924182 0.1245427 0.0028074456 -0.014647802 -0.012966691 0.13621795 0.12482016
0.24919349 0.25198188 0.22342084 0.16767772 0.1205165 0.2108309 0.035081632 0.18613845
0.15177171 0.100277424 0.112375095 0.21630056 0.10415556 0.15209606 0.19151333 0.20308037
00000000: f670 123e df18 813d a87b 893e 0cc7 333d
00000010: 016c a43d b38e 1d3e 156c 803e 2714 393e
00000020: 28be 263e a23e 5c3e f7f7 c93d a9ce eb3d
00000030: f8d0 293e 2e7e 123e 5989 803e 2184 e13d
00000040: 1a55 913d e5fc 043e 16a5 193e 6bc4 243d
00000050: bd7f 9d3e a58d 673e c1b4 833e 9865 013e
00000060: f125 c23d 825c c83c 8e93 b53c 445f 093e
00000070: 8bf9 203e 79cd a73d ac63 0f3e f5d6 3b3e
00000080: a25a a33d 2c25 6a3e e80d 5f3e b9e2 623e
00000090: f46c 36bd 3f0a ef3b 6988 b6bc 707a 4abd
000000a0: 565d 0dbd b626 2fbc 1d72 15bd 757e 65bd
000000b0: 4eaf a13d fe4a 31bd 608a 0e3d 6de4 ccbc
000000c0: 9dcd 8fbc 4122 64bc 3e10 ff3d 1ffd 373b
000000d0: 56fd 6fbc 3e72 54bc b87c 0b3e b6a1 ff3d
000000e0: 942c 7f3e c503 813e 6fc8 643e b5b3 2b3e
000000f0: 5bd1 f63d 0ee4 573e c2b1 0f3d 149b 3e3e
00000100: 0b6a 1b3e 405e cd3d ea24 e63d e57d 5d3e
00000110: 834f d53d 12bf 1b3e 121c 443e 4df4 4f3e

bias_hh_l0 f4 [72]
0.14162582 0.062791705 0.26987606 0.044287432 0.08162991 0.15390612 0.25275278 0.18077005
0.16316201 0.2140945 0.098550536 0.116381675 0.16619503 0.14265388 0.25032917 0.10992427
0.07083615 0.12997364 0.15083069 0.040320978 0.30827895 0.225914 0.2570994 0.12510152
0.09647831 0.023798307 0.022551425 0.1364207 0.15697931 0.0832582 0.14204971 0.18269315
0.078773275 0.22823401 0.21790864 0.22179092 -0.044578757 0.005719431 -0.029004835 -0.050836537
-0.0395936 -0.010445561 -0.033319067 -0.05585832 0.07851479 -0.048332546 0.027326401 -0.026076166
-0.020463867 -0.012151733 0.12474359 0.0040995833 -0.013985094 -0.013420665 0.13658562 0.12532036
0.24985744 0.25217307 0.22334322 0.16759531 0.121030934 0.2109772 0.035581123 0.18738201
0.15125829 0.098141246 0.11150681 0.21783042 0.1021447 0.15164371 0.19117686 0.20327796
00000000: 5c06 113e f098 803d 322d 8a3e bd66 353d
00000010: 952d a73d 9199 1d3e d068 813e c91b 393e
00000020: f113 273e 973b 5b3e ddd4 c93d 8459 ee3d
00000030: 082f 2a3e dc13 123e 252b 803e fa1f e13d
00000040: 8b12 913d cf17 053e 5c73 1a3e 9c27 253d
00000050: bdd6 9d3e 0056 673e 88a2 833e 9d1a 003e
00000060: 6c96 c53d abf4 c23c c4bd b83c deb1 0b3e
00000070: 2fbf 203e 4683 aa3d 7b75 113e ea13 3b3e
00000080: e253 a13d 2db6 693e 7123 5f3e 291d 633e
00000090: 3798 36bd 116a bb3b 8c9b edbc f939 50bd
000000a0: e62c 22bd dc23 2bbc 9379 08bd b2cb 64bd
000000b0: 5dcc a03d 59f8 45bd 9edb df3c af9d d5bc
000000c0: d7a3 a7bc 1018 47bc 9179 ff3d cc55 863b
000000d0: bc21 65bc 59e2 5bbc 1add 0b3e fb53 003e
000000e0: a1da 7f3e d41c 813e 16b4 643e 1b9e 2b3e
000000f0: 11df f73d 680a 583e 83bd 113d 12e1 3f3e
00000100: 74e3 1a3e 47fe c83d af5d e43d f00e 5f3e
00000110: 3e31 d13d 7d48 1b3e dec3 433e 1928 503e

weight f4 [16, 21]
0.075296775 0.19372223 -0.04502561 -0.0684265 -0.07518791 -0.07774365 -0.08423962 -0.089516655
-0.08928996 -0.09070671 -0.09839192 -0.10098878 -0.101863675 -0.101078145 -0.1030143 -0.11543076
-0.12461124 -0.11291897 -0.13398923 -0.25647014 0.0063178255 0.073994726 0.20250554 -0.040240433
-0.06328758 -0.06992319 -0.07248879 -0.07941364 -0.084154904 -0.083859526 -0.08673574 -0.09373337
-0.095860906 -0.0976758 -0.09703218 -0.09784476 -0.110736 -0.120435506 -0.10764968 -0.12962879
-0.25242028 0.0067460206 0.10793655 0.2515188 -0.004088243 -0.029031508 -0.03717097 -0.04157777
-0.04965514 -0.05519885 -0.05533675 -0.059459243 -0.067897886 -0.07084936 -0.0723689 -0.07235572
-0.07491246 -0.08802231 -0.0977818 -0.084691554 -0.107804835 -0.23108745 0.053570405 -0.017435268
-0.36485127 -0.11462668 -0.07809252 -0.05943929 -0.050297093 -0.0423618 -0.034492634 -0.030497465
-0.022532716 -0.008314713 0.0026670324 0.008007108 0.0013815175 -0.010174805 -0.01726748 -0.02431691
-0.044149224 -0.015762545 0.12302686 -0.11521786 0.029904004 -0.59292114 0.01565952 -0.009415771
0.0017996695 0.024096342 0.041755475 0.05753808 0.053317055 0.040449277 0.043673262 0.07397498
0.10625698 0.12252568 0.089899555 0.04000434 0.009929342 0.0093882065 0.05621173 0.17714982
-0.015861087 0.09193028 -0.4019115 0.1073683 0.079381056 0.058060657 0.04190282 0.029079169
0.026845383 0.03337464 0.041587222 0.05027399 0.057793226 0.057562247 0.04061102 0.010505387
-0.0059141126 -0.015441056 -0.037398633 -0.052436467 -0.040639497 -0.06516124 0.031139499 -0.35468262
-0.06785616 -0.039403517 -0.028900998 -0.027291888 -0.023297213 -0.022489628 -0.021786762 -0.018051386
-0.012536979 -0.011516672 -0.01669949 -0.02708919 -0.03840803 -0.0396573 -0.040855825 -0.059400972
-0.039825283 0.08207756 -0.026566474 0.13423552 0.32118255 0.017673524 -0.006170704 -0.0140483435
-0.017648207 -0.024017 -0.029054444 -0.028004562 -0.03124147 -0.039679073 -0.042991843 -0.04377296
-0.042158104 -0.042195924 -0.0531573 -0.061206397 -0.04792138 -0.07160089 -0.19573553 0.11689569
0.122494146 0.2884017 0.008552504 -0.016878946 -0.025857186 -0.030122282 -0.037720185 -0.04361431
-0.043894283 -0.047290277 -0.055832297 -0.0591743 -0.060745057 -0.06033698 -0.060328443 -0.071466036
-0.079720765 -0.06726368 -0.08964284 -0.21369283 0.07581874 0.11426267 0.26398125 0.0029734669
-0.021868007 -0.03157553 -0.03584126 -0.043850653 -0.049356163 -0.05058228 -0.052932777 -0.06192136
-0.06563548 -0.06701234 -0.06752359 -0.06989357 -0.08218827 -0.09087758 -0.078752846 -0.101359375
-0.2256932 0.06302825 0.02669699 -0.57291275 0.09436151 0.04696331 0.031782158 0.024174076
0.01703273 0.021046128 0.025072312 0.027016101 0.050330646 0.0897338 0.11956047 0.12480578
0.07841911 0.014731736 -0.025343057 -0.038746152 -0.0038103068 0.095271535 -0.0069255675 -0.031968784
-0.3491713 -0.13285258 -0.09461944 -0.073302634 -0.06284866 -0.052099463 -0.04854334 -0.047518745
-0.04108742 -0.029148042 -0.020152753 -0.016445892 -0.017711362 -0.020885004 -0.017360557 -0.014441626
-0.028942652 0.0030000275 0.14209269 -0.14247297 0.046396464 -0.5001041 0.0560158 0.030129097
00000000: 3235 9a3d 1f5f 463e c66c 38bd 3123 8cbd
00000010: 1efc 99bd 1038 9fbd d285 acbd 8254 b7bd
00000020: a8dd b6bd 71c4 b9bd b481 c9bd 35d3 cebd
00000030: e79d d0bd 0f02 cfbd 29f9 d2bd f666 ecbd
00000040: 2e34 ffbd 1042 e7bd 7934 09be 0e50 83be
00000050: c305 cf3b 8c8a 973d 9d5d 4f3e 27d3 24bd
00000060: eb9c 81bd e433 8fbd 0175 94bd 9ea3 a2bd
00000070: 6859 acbd 8bbe abbd 82a2 b1bd 48f7 bfbd
00000080: b952 c4bd 400a c8bd cfb8 c6bd d562 c8bd
00000090: 8ec9 e2bd e4a6 f6bd 6f77 dcbd 69bd 04be
000000a0: 3b3d 81be b90d dd3b d70d dd3d 12c7 803e
000000b0: abf6 85bb 7cd3 edbc 9640 18bd 744d 2abd
000000c0: 3063 4bbd 3018 62bd caa8 62bd 898b 73bd
000000d0: 0c0e 8bbd 7819 91bd 2536 94bd 3c2f 94bd
000000e0: b46b 99bd 0a45 b4bd d341 c8bd c472 adbd
000000f0: c8c8 dcbd 30a2 6cbe a46c 5b3d 68d4 8ebc
00000100: c9cd babe 65c1 eabd f9ee 9fbd 9d76 73bd
00000110: 5304 4ebd 9183 2dbd 2648 0dbd d2d5 f9bc
00000120: 8896 b8bc 6f3a 08bc 61c9 2e3b 3f30 033c
00000130: 0914 b53a 3ab4 26bc 8874 8dbc 4234 c7bc
00000140: d1d5 34bd 7420 81bc 82f5 fb3d 57f7 ebbd
00000150: 3ef9 f43c aec9 17bf 6548 803c 9b44 1abc
00000160: e3e2 eb3a b165 c53c ca07 2b3d 0dad 6b3d
00000170: fc62 5a3d 24ae 253d bce2 323d 3280 973d
00000180: 429d d93d beee fa3d 421d b83d 97db 233d
00000190: aeae 223c fed0 193c 453e 663d c366 353e
000001a0: 1cef 81bc f145 bc3d 58c7 cdbe e9e3 db3d
000001b0: 8992 a23d 03d1 6d3d 4ba2 2b3d 7037 ee3c
000001c0: d9ea db3c d9b3 083d 5d57 2a3d 19ec 4d3d
000001d0: 97b8 6c3d 64c6 6b3d be57 263d c91e 2c3c
000001e0: 2ccb c1bb 7cfc 7cbc 4f2f 19bd 9fc7 56bd
000001f0: 9a75 26bd 4273 85bd 4318 ff3c f698 b5be
00000200: 2cf8 8abd 9565 21bd c9c1 ecbc 3d93 dfbc
00000210: ccd9 bebc 2b3c b8bc 277a b2bc 80e0 93bc
00000220: e767 4dbc 6cb0 3cbc 5ecd 88bc 26ea ddbc
00000230: bd51 1dbd b16f 22bd 7058 27bd 6f4e 73bd
00000240: d61f 23bd 4818 a83d efa1 d9bc 0975 093e
00000250: 0a72 a43e 11c8 903c 9e33 cabb 062b 66bc
00000260: f992 90bc 4dbf c4bc 9603 eebc d369 e5bc
00000270: 1cee ffbc 8686 22bd 3718 30bd 464b 33bd
00000280: faad 2cbd a2d5 2cbd 78bb 59bd 8fb3 7abd
00000290: 3549 44bd 7da3 92bd e56e 48be 0267 ef3d
000002a0: 36de fa3d 63a9 933e cd1f 0c3c b745 8abc
000002b0: 73d2 d3bc 01c3 f6bc 7b80 1abd eba4 32bd
000002c0: 7eca 33bd 73b3 41bd 68b0 64bd c060 72bd
000002d0: cfcf 78bd e923 77bd f51a 77bd c95c 92bd
000002e0: a444 a3bd 8ac1 89bd aa96 b7bd 4bd2 5abe
000002f0: db46 9b3d 8c02 ea3d 8d28 873e 7fde 423b
00000300: 8924 b3bc 5855 01bd 49ce 12bd be9c 33bd
00000310: b029 4abd 5d2f 4fbd 0ad0 58bd 41a1 7dbd
00000320: e56b 86bd c43d 89bd cf49 8abd 5c24 8fbd
00000330: 5352 a8bd 061e babd 2c49 a1bd 8195 cfbd
00000340: 1e1c 67be f514 813d a5b3 da3c 69aa 12bf
00000350: 9b40 c13d 9a5c 403d 022e 023d b608 c63c
00000360: 3988 8b3c ee68 ac3c 7364 cd3c df50 dd3c
00000370: 8227 4e3d 5bc6 b73d 1fdc f43d 2c9a ff3d
00000380: 339a a03d 615d 713c 3e9c cfbc 49b4 1ebd
00000390: 57b6 79bb b91d c33d dfef e2bb b3f1 02bd
000003a0: 95c6 b2be 820a 08be d6c7 c1bd b11f 96bd
000003b0: ccb6 80bd 3f66 55bd 62d5 46bd 04a3 42bd
000003c0: 484b 28bd e0c7 eebc 6317 a5bc 89b9 86bc
000003d0: 6b17 91bc 0717 abbc ba37 8ebc 929c 6cbc
000003e0: 2419 edbc 1c9c 443b bf80 113e 6fe4 11be
000003f0: 380a 3e3d d306 00bf d370 653d 4cd1 f63c

bias f4 [16]
-0.017399512 -0.02111565 -0.006696245 0.15152986 0.017786136 -0.073174916 0.17381088 0.004909196
-0.005363855 -0.0061264182 0.027855173 0.08800873 -0.024111236 -0.018726949 -0.021024173 -0.0060659577
00000000: 6c89 8ebc bafa acbc 2d6c dbbb a52a 1b3e
00000010: 3bb4 913c bbdc 95bd 7bfb 313e 52dd a03b
00000020: 47c3 afbb 1fc0 c8bb 8830 e43c ec3d b43d
00000030: ed84 c5bc 4269 99bc e33a acbc f1c4 c6bb

weight f4 [16, 21]
0.051473666 -0.20741047 -0.11093692 -0.08719995 -0.0673055 -0.048679244 -0.03070502 -0.013080035
0.0039249817 0.020612843 0.03753791 0.055155892 0.07293839 0.087458186 0.103824824 0.12297371
0.14102696 0.16046183 0.18079422 0.20515695 0.056372494 0.08888257 0.012317827 0.04979125
0.024647545 0.002505799 -0.01859641 -0.037767116 -0.059392653 -0.08421384 -0.10580862 -0.122681074
-0.14176889 -0.15788013 -0.1659742 -0.17426461 -0.19029409 -0.21078403 -0.22662042 -0.23512776
-0.24363299 0.16479501 0.040509712 -0.18162063 0.012543127 -0.024089124 -0.0692982 -0.10889044
-0.1336638 -0.15476854 -0.18500943 -0.22730878 -0.2625994 -0.2828093 -0.2857639 -0.26284143
-0.24540903 -0.26186907 -0.2988969 -0.33018062 -0.35067782 -0.3856033 0.035861526 -0.48273075
0.36047313 -0.03578738 -0.045313742 -0.039980058 -0.041792814 -0.054965127 -0.054767653 -0.016794842
0.050714068 0.10971568 0.12781963 0.09474737 0.0066504185 -0.07901626 -0.1201905 -0.1377556
-0.19075659 -0.2940745 -0.4006349 -0.0039062165 0.06316504 0.26458645 0.15788977 0.1358969
0.11525405 0.09724227 0.08056989 0.060481098 0.043705534 0.029140923 0.011974554 -0.004647011
-0.021733051 -0.036633722 -0.052893337 -0.07079681 -0.09125376 -0.11008657 -0.12981749 -0.15412639
0.01039057 0.124366745 0.24013889 0.17079127 0.13455299 0.10132812 0.07102789 0.04249174
0.01565797 -0.010534252 -0.0370268 -0.06356828 -0.08956885 -0.11309012 -0.13368076 -0.15295623
-0.17238161 -0.19083291 -0.20678788 -0.22150403 -0.23623626 0.115340814 -0.011956506 -0.4523595
-0.32562503 -0.32755408 -0.33895844 -0.34708646 -0.3455182 -0.34441975 -0.35821396 -0.38581604
-0.40045694 -0.40050057 -0.3891668 -0.3618094 -0.35160407 -0.38939673 -0.45023564 -0.49980712
-0.52905977 -0.5680737 0.047570053 -0.491494 0.3570007 -0.038334727 -0.047383167 -0.04371911
-0.044340882 -0.058995564 -0.057560917 -0.01937863 0.0483862 0.10756589 0.12520276 0.09191091
0.0034466356 -0.08318346 -0.1243982 -0.14153492 -0.19346596 -0.29750708 -0.40464705 -0.005428545
0.07090975 0.27049562 0.1621161 0.13918856 0.11824491 0.09950258 0.08001714 0.06133729
0.044177923 0.027035702 0.009147518 -0.008958695 -0.025744455 -0.040900327 -0.05800696 -0.07604616
-0.096347556 -0.11632686 -0.13729827 -0.16074343 0.0018589335 1.3355428e-07 -1.5695541e-07 2.9383402e-08
9.876087e-08 2.4013514e-07 -1.17111135e-07 -1.6634188e-07 -5.654236e-08 -1.2499325e-08 -1.1542656e-07 -1.3316681e-07
1.6569666e-07 -4.986051e-08 -4.9163923e-08 -3.2657443e-08 1.1108051e-07 3.208594e-08 1.5740676e-08 -6.1313685e-08
1.1678188e-07 -1.2995599e-07 -0.52724695 0.2751006 -0.13127798 -0.13966288 -0.12987229 -0.12954894
-0.14199492 -0.13865621 -0.09846818 -0.026858713 0.033049136 0.0511201 0.019184882 -0.064583115
-0.15323216 -0.19335572 -0.21096043 -0.2610546 -0.36417398 -0.47108793 0.024653278 0.018369181
-0.22611332 -0.11297208 -0.08629463 -0.064472936 -0.04404598 -0.022898192 -0.0005894354 0.019481456
0.03754457 0.05691836 0.07627178 0.09481722 0.11095505 0.12632743 0.14569485 0.16418146
0.18462543 0.20449838 0.2273206 0.07597667 0.025827177 -0.22430904 -0.11485122 -0.08994944
00000000: 0dd6 523d 6963 54be e532 e3bd e395 b2bd
00000010: 77d7 89bd e363 47bd 1889 fbbc a54d 56bc
00000020: 229d 803b 44dc a83c 5ac1 193d 25eb 613d
00000030: b960 953d 471d b33d 1ca2 d43d a4d9 fb3d
00000040: 5f69 103e 1b50 243e 1f22 393e aa14 523e
00000050: d8e6 663d 1108 b63d b6d0 493c e9f1 4b3d
00000060: a6e9 c93c 5538 243b 8057 98bc b1b1 1abd
00000070: b645 73bd 4e78 acbd 31b2 d8bd 3740 fbbd
00000080: dd2b 11be 54ab 21be 24f5 29be 6c72 32be
00000090: 74dc 42be c5d7 57be 2f0f 68be 55c5 70be
000000a0: ed7a 79be 06c0 283e 83ed 253d c2fa 39be
000000b0: b081 4d3c 8e56 c5bc 37ec 8dbd f301 dfbd
000000c0: 2adf 08be a57b 1ebe 1d73 3dbe a2c3 68be
000000d0: 6e73 86be 61cc 90be a54f 92be 2793 86be
000000e0: 814c 7bbe b413 86be 0409 99be 6f0d a9be
000000f0: 0b8c b3be cc6d c5be 89e3 123d 7c28 f7be
00000100: ef8f b83e ca95 12bd e79a 39bd 21c2 23bd
00000110: f12e 2bbd 1d23 61bd 0c54 60bd 5695 89bc
00000120: 8eb9 4f3d 9db2 e03d 26e3 023e e90a c23d
00000130: c1eb d93b 47d3 a1bd 7026 f6bd ce0f 0dbe
00000140: b255 43be ef90 96be 0520 cdbe 70ff 7fbb
00000150: ac5c 813d e077 873e dbad 213e 8f28 0b3e
00000160: 510a ec3d f526 c73d d401 a53d 07bb 773d
00000170: 9304 333d f2b8 ee3c eb30 443c f445 98bb
00000180: 8309 b2bc 3e0d 16bd afa6 58bd ebfd 90bd
00000190: 40e3 babd 1175 e1bd e0ee 04be 4fd3 1dbe
000001a0: 363d 2a3c feb3 fe3d f8e6 753e e8e3 2e3e
000001b0: 42c8 093e 1e85 cf3d 1277 913d d20b 2e3d
000001c0: 2545 803c db97 2cbc 6aa9 17bd 1630 82bd
000001d0: e06f b7bd cb9b e7bd 9ce3 08be 8fa0 1cbe
000001e0: ce84 30be b469 43be 34c0 53be f4d1 62be
000001f0: ebe7 71be ce37 ec3d 39e5 43bc aa9b e7be
00000200: 53b8 a6be 2bb5 a7be f68b adbe 51b5 b1be
00000210: c3e7 b0be c957 b0be d267 b7be ae89 c5be
00000220: b108 cdbe 690e cdbe df40 c7be 153f b9be
00000230: 7305 b4be 025f c7be 4985 e6be b8e6 ffbe
00000240: 7670 07bf 476d 11bf d1d8 423d 1aa5 fbbe
00000250: ccc8 b63e e004 1dbd da14 42bd cf12 33bd
00000260: c99e 35bd 55a5 71bd ffc4 6bbd efbf 9ebc
00000270: 9c30 463d 814b dc3d 2735 003e ca3b bc3d
00000280: f3e0 613b 175c aabd 7cc4 febd 88ee 10be
00000290: f11b 46be d952 98be e62d cfbe f0e1 b1bb
000002a0: 2239 913d 677e 8a3e c301 263e 7287 0e3e
000002b0: 632a f23d 02c8 cb3d 07e0 a33d cf3c 7b3d
000002c0: e9f3 343d fa79 dd3c 79df 153c 7ec7 12bc
000002d0: 09e6 d2bc 1a87 27bd b598 6dbd 17be 9bbd
000002e0: de51 c5bd c73c eebd eb97 0cbe ed99 24be
000002f0: 75a7 f33a 1f67 0f34 9387 28b4 c966 fc32
00000300: 5d16 d433 eceb 8034 877e fbb3 b59b 32b4
00000310: fbd8 72b3 9dbc 56b2 6ce0 f7b3 9dfc 0eb4
00000320: 5aea 3134 3626 56b3 4e28 53b3 3d43 0cb3
00000330: 288b ee33 ddce 0933 1d36 8732 8eab 83b3
00000340: 84c9 fa33 088a 0bb4 a8f9 06bf fcd9 8c3e
00000350: bc6d 06be c903 0fbe 3efd 04be 7aa8 04be
00000360: 1e67 11be e5fb 0dbe afa9 c9bd ce06 dcbc
00000370: 885e 073d 4f63 513d 9d29 9d3c 2744 84bd
00000380: e4e8 1cbe 0bff 45be 0306 58be f3a8 85be
00000390: 0375 babe 7032 f1be acf5 c93c f77a 963c
000003a0: 408a 67be e85d e7bd 3dbb b0bd 630a 84bd
000003b0: 8f69 34bd fd94 bbbc 5784 1aba 9397 9f3c
000003c0: 56c8 193d 3a23 693d 6134 9c3d 882f c23d
000003d0: 673c e33d fa5b 013e 0831 153e 2f1f 283e
000003e0: 730e 3d3e 0668 513e bbc6 683e a899 9b3d
000003f0: 8493 d33c 45b1 65be 1e37 ebbd 6937 b8bd

bias f4 [16]
0.09012988 0.09390671 0.14016975 0.26231492 0.02669375 0.095265836 0.13487262 0.2710784
0.027325977 3.544202e-08 0.2332015 0.08693613 0.0877556 0.21226944 -0.057435293 0.2607121
00000000: 0496 b83d 2952 c03d a988 0f3e 244e 863e
00000010: daac da3c bc1a c33d 0c1c 0a3e caca 8a3e
00000020: bada df3c ea38 1833 60cc 6e3e 920b b23d
00000030: 35b9 b33d 295d 593e 4541 6bbd 0e7c 853e
