vehicle/autoware_raw_vehicle_cmd_converter/src/vehicle_adaptor/autoware_vehicle_adaptor/vehicle_models/vehicle_model_2.pth (torch, 56844 bytes, 30 tensors)

weight f4 [16, 20]
0	0xbe76a0bb	-0.24084751
1	0x3e0da2b6	0.138316
2	0xbdf6783f	-0.12034654
3	0xbdec0582	-0.11524488
4	0xbde5dba8	-0.11223537
5	0xbddad175	-0.10684482
6	0xbdd61b83	-0.10454466
7	0xbdc9da8c	-0.09856138
8	0xbdba77db	-0.09104892
9	0xbdacba5b	-0.08433982
10	0xbd9b9910	-0.07597554
11	0xbd5a357b	-0.05327366
12	0x3bb23491	0.0054383953
13	0x3d4fc68e	0.050726466
14	0x3dca7b6d	0.09886823
15	0x3e0e4360	0.13892889
16	0x3e2c2786	0.16811952
17	0x3e4e904f	0.20172237
18	0x3e7005dc	0.23439735
19	0x3e87ecee	0.2654795
20	0x3e053fd3	0.13012628
21	0x3e70abc8	0.2350303
22	0x3e1c7686	0.15279588
23	0x3dea2b44	0.114340335
24	0x3d956756	0.072951004
25	0x3cf3a613	0.029742276
26	0xbc14c805	-0.0090808915
27	0xbd2371f2	-0.03990359
28	0xbd710862	-0.058845885
29	0xbd8f1648	-0.06986672
30	0xbd8e781a	-0.06956501
31	0xbd774851	-0.0603717
32	0xbd317544	-0.043324724
33	0xbc8c70ce	-0.017143633
34	0x3ca2b398	0.019861028
35	0x3d8ae123	0.06781223
36	0x3e0149f4	0.12625867
37	0x3e491072	0.1963518
38	0x3e8a804c	0.27051008
39	0x3eb3b980	0.35102463
40	0xbd226e06	-0.039655708
41	0xbb287512	-0.0025704545
42	0xbe3cecde	-0.18449733
43	0xbe2d486a	-0.16922155
44	0xbe1cd5b4	-0.15315896
45	0xbe0489dc	-0.12943214
46	0xbdce03ba	-0.100593045
47	0xbdb00754	-0.08595148
48	0xbd8eb8a2	-0.0696881
49	0xbd607820	-0.05480206
50	0xbd2f814b	-0.042847913
51	0xbd0f54e3	-0.034993064
52	0xbca96a1b	-0.020680478
53	0xbc2deaf5	-0.0106151
54	0xbbf53c1a	-0.0074839713
55	0xbb9326c1	-0.004490704
56	0xbb8fe77e	-0.0043916097
57	0xbbf96dbe	-0.0076119592
58	0xbc4c37da	-0.012464488
59	0xbc9a78ee	-0.018856492
60	0xbe794153	-0.24341325
61	0xbe0ef99b	-0.13962404
62	0xbe052efb	-0.13006203
63	0xbdf287f9	-0.11842341
64	0xbdd91a33	-0.106007
65	0xbdcae442	-0.09906818
66	0xbdc92ada	-0.098226264
67	0xbdc76622	-0.09736277
68	0xbdce8fac	-0.10085997
69	0xbdc74af8	-0.09731096
70	0xbdba32bb	-0.09091707
71	0xbda188c2	-0.078874126
72	0xbd7216a6	-0.05910363
73	0xbd110bcf	-0.035411652
74	0xbce7ed1e	-0.028311308
75	0xbcaeedc7	-0.021353615
76	0xbcf1a648	-0.029498234
77	0xbd402898	-0.046913713
78	0xbd755c5d	-0.059902538
79	0xbd9b7fdb	-0.07592746
80	0xbe3f0669	-0.18654789
81	0x3c2416cc	0.010015201
82	0xbf0181e3	-0.50588816
83	0xbee78b9d	-0.45223704
84	0xbec5dbf4	-0.38644373
85	0xbe9fd56c	-0.31217515
86	0xbe757fea	-0.23974577
87	0xbe38cd48	-0.18047059
88	0xbe0bb2e2	-0.13642457
89	0xbdc96a1c	-0.09834692
90	0xbd81894d	-0.06325016
91	0xbcd9cbe8	-0.026586488
92	0x3c9af84f	0.01891723
93	0x3d5b17ee	0.053489618
94	0x3da1ff09	0.07909972
95	0x3dd8007b	0.10546967
96	0x3e024255	0.12720616
97	0x3e105cd6	0.14097914
98	0x3e1996f8	0.14998996
99	0x3e1e2976	0.15445504
100	0xbe77248e	-0.24135038
101	0xbe257b26	-0.16160259
102	0xbe02b4b1	-0.12764241
103	0xbdeb0b19	-0.11476726
104	0xbdd21235	-0.10257379
105	0xbdc02063	-0.09381177
106	0xbdb610c1	-0.08889914
107	0xbda9a09c	-0.08282587
108	0xbd9ee965	-0.0775936
109	0xbd8d6178	-0.06903356
110	0xbd6ec668	-0.058294684
111	0xbd3a813e	-0.04553341
112	0xbc80d415	-0.015726129
113	0x3c6cbd3b	0.014449413
114	0x3cd7a708	0.026324764
115	0x3d0dfcfc	0.034665093
116	0x3cf151fb	0.029458037
117	0x3c341f26	0.0109937545
118	0xbba19a89	-0.004931752
119	0xbc8464bc	-0.016161315
120	0xbc8afe04	-0.016966827
121	0xbca006de	-0.019534525
122	0xbc2d5e52	-0.01058157
123	0xbc209bf2	-0.009802805
124	0xbc3182f6	-0.010834446
125	0xbc714b81	-0.014727474
126	0xbcad4bdf	-0.021154342
127	0xbcf4d5b4	-0.029887058
128	0xbd137cca	-0.03600768
129	0xbd2cd99a	-0.04219971
130	0xbd510ba5	-0.051036496
131	0xbd5ead5e	-0.054364555
132	0xbd4fd43b	-0.050739508
133	0xbd29a167	-0.04141369
134	0xbd358920	-0.044320226
135	0xbd4b8110	-0.04968363
136	0xbd72f9ca	-0.05932025
137	0xbd8c1e98	-0.06841773
138	0xbd981ebe	-0.074277386
139	0xbd9ffc1a	-0.078117564
140	0xbe04fc0b	-0.12986772
141	0x3e89977d	0.2687339
142	0x3e0ecc11	0.13945033
143	0x3df92099	0.12164421
144	0x3dddd3bd	0.108314015
145	0x3dc0cdaf	0.09414231
146	0x3da30242	0.07959415
147	0x3d91e345	0.07123426
148	0x3d8f8f81	0.07009793
149	0x3d994af6	0.07485001
150	0x3da0a217	0.07843416
151	0x3d9f3814	0.07774368
152	0x3da1600e	0.07879649
153	0x3db76808	0.08955389
154	0x3dd63d7e	0.104609475
155	0x3df34c15	0.11879746
156	0x3e0e9678	0.13924587
157	0x3e21f835	0.1581734
158	0x3e342873	0.17593555
159	0x3e477aef	0.19480489
160	0xbce060ba	-0.027389873
161	0x3d397ce5	0.045285124
162	0xbe846d6e	-0.25864738
163	0xbe7bbd90	-0.24584031
164	0xbe6d1388	-0.23151982
165	0xbe5d9491	-0.21638705
166	0xbe4a6a2e	-0.19767067
167	0xbe364c64	-0.17802578
168	0xbe22000e	-0.15820333
169	0xbe034bb3	-0.12821846
170	0xbdc3901f	-0.09548973
171	0xbd8bbdee	-0.068233356
172	0xbcf0195e	-0.029308971
173	0x3b25d117	0.002530163
174	0x3ceaf317	0.028680367
175	0x3d580844	0.052742258
176	0x3d8e4a52	0.06947769
177	0x3daefde0	0.085445166
178	0x3dd54669	0.1041382
179	0x3df261b7	0.11835044
180	0xbe6de604	-0.23232275
181	0xbe2cf2fb	-0.16889565
182	0xbe08fce9	-0.13377728
183	0xbdf4b4d6	-0.11948554
184	0xbdd74ae0	-0.10512328
185	0xbdc21605	-0.09476856
186	0xbdb2a657	-0.08723133
187	0xbda46f82	-0.08029081
188	0xbd9d00af	-0.07666146
189	0xbd84b1ef	-0.06479251
190	0xbd54680f	-0.05185705
191	0xbd171241	-0.036882643
192	0xbb2f2abf	-0.002672836
193	0x3ca085e3	0.019595092
194	0x3cf16871	0.029468747
195	0x3d1ae568	0.037816435
196	0x3d0744e5	0.033024687
197	0x3c68111e	0.014164237
198	0x39bc28ff	0.000358887
199	0xbc227945	-0.009916608
200	0xbc98f794	-0.018672742
201	0xbcf971b3	-0.030449724
202	0xbc0c9971	-0.008581505
203	0xbc1f795e	-0.009733526
204	0xbc3c8ab2	-0.011507677
205	0xbc864827	-0.016391827
206	0xbcc32d0c	-0.023825191
207	0xbd063785	-0.03276779
208	0xbd25d650	-0.040487587
209	0xbd4175a4	-0.04723133
210	0xbd68be8b	-0.05682234
211	0xbd7f6384	-0.062350765
212	0xbd723a16	-0.059137426
213	0xbd5a12db	-0.05324064
214	0xbd6b2ff0	-0.057418764
215	0xbd85adcc	-0.0652729
216	0xbd9b2285	-0.075749435
217	0xbdacf70c	-0.08445558
218	0xbdb4d817	-0.08830278
219	0xbdc17d3e	-0.09447716
220	0x3dee4fe2	0.1163633
221	0xbc89100a	-0.01673128
222	0xbd975dc7	-0.073909335
223	0xbd66f0bc	-0.056381926
224	0xbd1b3c30	-0.037899196
225	0xbcacb4e8	-0.021082357
226	0xbb8d453e	-0.004311233
227	0x3c3da629	0.01157526
228	0x3cfcbafb	0.030850878
229	0x3d4fb60b	0.05071072
230	0x3d9470d4	0.07248083
231	0x3db6d934	0.08928147
232	0x3dcadca4	0.09905365
233	0x3ddd6c9f	0.108117335
234	0x3def212d	0.1167625
235	0x3e04b801	0.12960817
236	0x3e113171	0.14179017
237	0x3e18d9a9	0.14926781
238	0x3e1dd19b	0.1541199
239	0x3e210be6	0.15727195
240	0xbde70bae	-0.112815246
241	0x3e7d2ad6	0.24723372
242	0x3dd7fad0	0.105458856
243	0x3daecc7f	0.08535098
244	0x3d967074	0.073456675
245	0x3d6e4580	0.05817175
246	0x3d3209a1	0.043466214
247	0x3d0e4b84	0.034739986
248	0x3cf77d94	0.030211248
249	0x3d0f0812	0.034919806
250	0x3d2ac02a	0.04168717
251	0x3d3b7b88	0.045772105
252	0x3d575996	0.05257567
253	0x3d81dff0	0.06341541
254	0x3da3fbb2	0.080069914
255	0x3dc7f688	0.09763819

bias f4 [16]
0	0x3ba64124	0.0050736833
1	0x3ec2cf68	0.38048863
2	0x3d78512a	0.06062428
3	0x3e8fbded	0.2807459
4	0x3e93fa2a	0.28901798
5	0x3e854bad	0.260343
6	0x3df6cc5a	0.12050696
7	0x3a87b21c	0.0010352763
8	0x3ddffff2	0.109374896
9	0x3e908cc5	0.282324
10	0x3e07d378	0.13264263
11	0xbdfb7ce6	-0.12279682
12	0x3d067f80	0.032836437
13	0xbaf209a7	-0.0018466011
14	0x3dd72a3b	0.10506102
15	0x3d53f1ae	0.051744156

weight f4 [16, 20]
0	0x3c114e07	0.008868701
1	0xb9698fb3	-0.00022274144
2	0xbadf151e	-0.0017019843
3	0xbad723c6	-0.001641386
4	0xbade4885	-0.0016958868
5	0xbadeb247	-0.0016990387
6	0xbadc500c	-0.0016808524
7	0xbad3cfab	-0.0016159912
8	0xbace37e7	-0.0015733213
9	0xbaba2d7f	-0.0014204233
10	0xbaa1f8eb	-0.0012357509
11	0xba8a2730	-0.0010540243
12	0xba69a1ea	-0.00089123717
13	0xba2be235	-0.000655684
14	0xb9f5a4c8	-0.00046852813
15	0xb9b30fc9	-0.000341533
16	0xb8d7cc13	-0.00010290011
17	0x3693da8e	4.4063845e-06
18	0x3742d64b	1.1613195e-05
19	0x379a33fd	1.838244e-05
20	0x3c1730b8	0.009227924
21	0x378285da	1.5559537e-05
22	0xb9c8afaa	-0.00038277853
23	0xb9a4bd4f	-0.00031421563
24	0xb9d8333f	-0.00041236912
25	0xba09db1b	-0.00052587845
26	0xba016901	-0.0004936606
27	0xb9bee6f6	-0.00036411703
28	0xb99b7a99	-0.00029655246
29	0xb92ea32a	-0.00016654716
30	0xb7f6c922	-2.9419145e-05
31	0xb84a0347	-4.8163605e-05
32	0xb83f9ac0	-4.568207e-05
33	0x3621f88f	2.413555e-06
34	0x36ac397a	5.1326906e-06
35	0x36af064e	5.2161404e-06
36	0x3753c432	1.262226e-05
37	0x37907395	1.721996e-05
38	0x379771a7	1.8053526e-05
39	0x37c4c05b	2.3454593e-05
40	0x3251bdc1	1.2208546e-08
41	0xb2f1adf6	-2.81352e-08
42	0xb4138630	-1.3739259e-07
43	0xb34a5d24	-4.71165e-08
44	0xb3e66ade	-1.07296486e-07
45	0x33467d8f	4.6214662e-08
46	0xb432e393	-1.6660333e-07
47	0x3380ab61	5.991638e-08
48	0x33d4a977	9.902845e-08
49	0xb3b91cc1	-8.619964e-08
50	0xb399772a	-7.1462935e-08
51	0x33adf3f0	8.100312e-08
52	0xb42d06b8	-1.6114325e-07
53	0x32c0e580	2.2456106e-08
54	0x34e573da	4.2738867e-07
55	0x32bdbc14	2.2088024e-08
56	0xb1a74915	-4.868648e-09
57	0xb39569c3	-6.957591e-08
58	0xb3aa492f	-7.929554e-08
59	0x33054ffd	3.1039225e-08
60	0xb41dc253	-1.4692459e-07
61	0xb4d19247	-3.9035714e-07
62	0xb3d9b08d	-1.0136964e-07
63	0x33baadb3	8.692896e-08
64	0xb19628b8	-4.3702038e-09
65	0x339d78ab	7.3328316e-08
66	0xb33e6bf8	-4.433602e-08
67	0x3430207a	1.6403092e-07
68	0x34145d3b	1.3817491e-07
69	0xae9d054a	-7.140473e-11
70	0x32cdaf0a	2.394474e-08
71	0xb414a24e	-1.384262e-07
72	0x3396a400	7.014751e-08
73	0x33e1c90d	1.051395e-07
74	0xb43b6f45	-1.7456212e-07
75	0xb42cf8c8	-1.6109254e-07
76	0x3331ac20	4.136757e-08
77	0xb3039132	-3.063287e-08
78	0x32f614f5	2.86477e-08
79	0xb3b33d2c	-8.346464e-08
80	0x3d7c66dd	0.061621536
81	0xbd372752	-0.044715233
82	0xbd7b189f	-0.061302777
83	0xbd66217a	-0.05618427
84	0xbd519ce6	-0.05117502
85	0xbd301ca9	-0.042996082
86	0xbd0fbcf0	-0.035092294
87	0xbce353d6	-0.027749937
88	0xbc8ee7eb	-0.017444571
89	0xbc06efd6	-0.008235892
90	0xbaaf133a	-0.001335717
91	0x3be3f9c5	0.006957265
92	0x3c8c63cd	0.017137432
93	0x3cdec362	0.027192775
94	0x3d245e8b	0.040129226
95	0x3d4c9525	0.049946923
96	0x3d77a901	0.06046391
97	0x3d948a5e	0.07252954
98	0x3da86827	0.082229905
99	0x3dbef136	0.09323351
100	0x3cfdf5b7	0.031000955
101	0xbe3e3c25	-0.18577631
102	0xbe222d54	-0.15837604
103	0xbe24cb4b	-0.16093175
104	0xbe27ba1a	-0.16379586
105	0xbe2c08d3	-0.16800241
106	0xbe30579b	-0.17220919
107	0xbe346907	-0.1761819
108	0xbe3b612e	-0.1829879
109	0xbe40d1a6	-0.18829975
110	0xbe4630b9	-0.19354524
111	0xbe4dce5c	-0.20098251
112	0xbe5458fc	-0.2073707
113	0xbe59c115	-0.21265061
114	0xbe60e55b	-0.21962492
115	0xbe6754e0	-0.22590971
116	0xbe6b8357	-0.22999321
117	0xbe7269b3	-0.23673134
118	0xbe7883e5	-0.24269064
119	0xbe7c37fc	-0.24630731
120	0xb38afdc8	-6.472288e-08
121	0x3205574f	7.761471e-09
122	0x32d85537	2.518446e-08
123	0xb4378c21	-1.7094182e-07
124	0xb3ce0743	-9.5939434e-08
125	0xb2f453ce	-2.8443448e-08
126	0x34101af1	1.3420846e-07
127	0x33d56130	9.936264e-08
128	0x33f5a70b	1.14390865e-07
129	0x336c5ff1	5.503529e-08
130	0xb47aff3c	-2.3375918e-07
131	0xb200daa8	-7.500297e-09
132	0xb3aea752	-8.132942e-08
133	0x331c20d3	3.6351434e-08
134	0x33c94ec5	9.37412e-08
135	0xb3a0841d	-7.474612e-08
136	0xb4301620	-1.6399326e-07
137	0x342ecc7a	1.6279401e-07
138	0xb32d20bc	-4.0309473e-08
139	0xb38dcc91	-6.6030346e-08
140	0xbadb3e40	-0.0016726926
141	0xbdd05941	-0.10173274
142	0xbde74440	-0.112923145
143	0xbdf20c6b	-0.11818775
144	0xbdfe7c84	-0.12426093
145	0xbe05e909	-0.13077177
146	0xbe0dfd01	-0.13866045
147	0xbe13a8b5	-0.14419825
148	0xbe1ced44	-0.15324885
149	0xbe25df52	-0.16198471
150	0xbe2d9158	-0.16949975
151	0xbe37a5c0	-0.17934322
152	0xbe408f07	-0.1880456
153	0xbe4a3f3f	-0.19750689
154	0xbe542035	-0.20715411
155	0xbe5d8ff8	-0.21636951
156	0xbe681db7	-0.22667585
157	0xbe7230b5	-0.23651393
158	0xbe7d06ca	-0.24709621
159	0xbe83185f	-0.2560453
160	0x3b5489ee	0.0032430845
161	0x36d18ebd	6.2453023e-06
162	0x36cdba11	6.131137e-06
163	0x36ce825b	6.154454e-06
164	0x36ccb1d8	6.1003775e-06
165	0x36cd1b20	6.112634e-06
166	0x36cac1a3	6.0426114e-06
167	0x36c4d65e	5.866211e-06
168	0x36ba7fd6	5.558114e-06
169	0x36c1f1d3	5.7800003e-06
170	0x36b77bdf	5.4682455e-06
171	0x36b3522d	5.3441822e-06
172	0x36af1e86	5.21896e-06
173	0x36b8598f	5.4940533e-06
174	0x36ea2cac	6.978944e-06
175	0x36ff25f6	7.6040114e-06
176	0x3709d38e	8.215093e-06
177	0x3717df47	9.052287e-06
178	0x3722403e	9.67091e-06
179	0x37281cc0	1.0020274e-05
180	0xb41593e4	-1.3930509e-07
181	0x328286c8	1.5195283e-08
182	0x331f5447	3.7096722e-08
183	0xb218a7e9	-8.885743e-09
184	0x33f38837	1.13403466e-07
185	0xb33f5831	-4.4550863e-08
186	0x33da7023	1.01718136e-07
187	0xb2b67799	-2.1241975e-08
188	0x33b5b03e	8.4605276e-08
189	0x3372d512	5.6538802e-08
190	0x3411711b	1.3545325e-07
191	0x32e14a3a	2.6227202e-08
192	0xb4b8b9af	-3.4407773e-07
193	0xb42973c6	-1.578147e-07
194	0x3483d2d8	2.455406e-07
195	0x34b81846	3.4290332e-07
196	0xb254f21a	-1.2395072e-08
197	0xb29c334f	-1.8184123e-08
198	0x340a1be6	1.2862401e-07
199	0xb343ec15	-4.561669e-08
200	0xbb592452	-0.003313322
201	0xbe94e5e2	-0.29081637
202	0xbe941ee9	-0.28929833
203	0xbe960ffb	-0.29309067
204	0xbe975364	-0.2955581
205	0xbe993c4e	-0.2992882
206	0xbe9a6e69	-0.3016236
207	0xbe9cf0bf	-0.30652425
208	0xbe9ef88b	-0.31048998
209	0xbea11988	-0.3146479
210	0xbea32670	-0.31865263
211	0xbea5fd2c	-0.32419717
212	0xbea89a9b	-0.32930455
213	0xbeaa5aa2	-0.33272272
214	0xbeadfe45	-0.33983055
215	0xbeb117ad	-0.34588376
216	0xbeb38323	-0.35060987
217	0xbeb685ea	-0.35649043
218	0xbeb9a5f8	-0.36259437
219	0xbebc438b	-0.3677028
220	0x3d51881f	0.051155206
221	0xbf5c2f7c	-0.86009955
222	0xbf3c53f7	-0.7356562
223	0xbf385c4c	-0.72015834
224	0xbf34efc2	-0.7067834
225	0xbf30ea9b	-0.6910798
226	0xbf2cc740	-0.6749153
227	0xbf28281b	-0.65686196
228	0xbf238331	-0.6387206
229	0xbf1e9b8b	-0.6195609
230	0xbf19317d	-0.5984114
231	0xbf147109	-0.5798498
232	0xbf0f4ff9	-0.55981404
233	0xbf09be87	-0.53806347
234	0xbf055bf4	-0.52093434
235	0xbeffec7c	-0.4998511
236	0xbef6acf0	-0.48178816
237	0xbeee488e	-0.4653973
238	0xbee5de70	-0.4489627
239	0xbede2921	-0.43390754
240	0x346d6eea	2.2112695e-07
241	0x3347a841	4.6486324e-08
242	0x303eb529	6.937904e-10
243	0xb45ad511	-2.0380345e-07
244	0x33bba91c	8.738627e-08
245	0xb35d1116	-5.1471112e-08
246	0x34b5bbf5	3.3850634e-07
247	0xb3bb5436	-8.723184e-08
248	0xb12d8d43	-2.5255111e-09
249	0x34247fb4	1.5320148e-07
250	0xb320fc1b	-3.748219e-08
251	0x341ae431	1.4425383e-07
252	0x33e313fc	1.05741464e-07
253	0x327731dc	1.4388629e-08
254	0xb3f16983	-1.12416295e-07
255	0xb3aed145	-8.140572e-08

bias f4 [16]
0	0x3c1650d2	0.0091745425
1	0x3c0cdd2a	0.0085976515
2	0xb29023eb	-1.678014e-08
3	0x31dc47eb	6.411019e-09
4	0x3d961008	0.073272765
5	0x3d033724	0.032035008
6	0xb1f61547	-7.1619612e-09
7	0x3c8c3197	0.01711349
8	0x3b74b39a	0.0037338496
9	0xb45cb4cb	-2.0554869e-07
10	0x3d5914ae	0.052998237
11	0x3cea4da1	0.02860147
12	0xb3f4c838	-1.1398555e-07
13	0x3d9568ef	0.07295405
14	0x3d0c3333	0.034228515
15	0x3da5d626	0.08097486

weight f4 [8, 16]
0	0x3d9962de	0.074895605
1	0xbc938a3c	-0.018010251
2	0x3d87ceb9	0.06631226
3	0xbe8187db	-0.25298962
4	0xbeb030d0	-0.3441224
5	0xbdc64a56	-0.09682147
6	0x3c0cd586	0.00859583
7	0x3e1abc9e	0.15111014
8	0x3e52b00d	0.2057497
9	0xbdc44b03	-0.0958462
10	0x3c26919b	0.010166551
11	0xbe06318d	-0.1310484
12	0x3df4816a	0.11938746
13	0x3db294d6	0.087197945
14	0x3e55ec4f	0.20890926
15	0x3e04f115	0.1298259
16	0x3e5e2f20	0.21697664
17	0x3e94091b	0.28913197
18	0x3d45128d	0.048113395
19	0xbe5a64cc	-0.21327513
20	0xbee9bf1a	-0.4565361
21	0xbe14ac9d	-0.14518972
22	0x3d59380d	0.05303197
23	0x3e715abe	0.23569772
24	0x3d98fa5a	0.07469626
25	0xbe1dbc76	-0.15403923
26	0x3d978b5f	0.0739963
27	0xbd974698	-0.073865116
28	0x3e509f2b	0.20373218
29	0x3ebd6679	0.36992243
30	0x3da44180	0.08020306
31	0x3edaa520	0.42704105
32	0x3e194192	0.1496642
33	0x3ea931ed	0.33045903
34	0xbd9a186c	-0.07524189
35	0xb4362bbd	-1.6965983e-07
36	0xbeea5d89	-0.45774487
37	0xbdca6162	-0.098818555
38	0xbdba3e2a	-0.09093888
39	0x3e248fb8	0.1607045
40	0xbe519dd9	-0.2047037
41	0xbe42af7f	-0.19012259
42	0xbdbd3c87	-0.0924006
43	0x3d73c6ba	0.059515692
44	0x3e1aef1c	0.15130275
45	0x3e36af12	0.17840222
46	0xbe63e45b	-0.2225508
47	0x3e513d6c	0.20433587
48	0x3da3e2a7	0.08002215
49	0xbd4d5bdf	-0.050136443
50	0x3d845979	0.06462378
51	0x3eebb1b4	0.46034014
52	0x3ee5623c	0.4480151
53	0x3f0765ba	0.528896
54	0x3d85198e	0.06499015
55	0x3e4057de	0.18783519
56	0x3ebfd498	0.37466884
57	0x3f089029	0.5334497
58	0x3da72f6f	0.08163344
59	0xbd270f32	-0.040785976
60	0x3e24fa96	0.16111216
61	0x3d665597	0.05623397
62	0x3ea80ef8	0.3282392
63	0x3e122736	0.1427277
64	0x3eafea80	0.34358597
65	0xbe65de54	-0.22448093
66	0x3d49a22a	0.049226917
67	0x3f181fb9	0.59423405
68	0x3f1d35de	0.6141032
69	0x3f0db092	0.5534755
70	0x3d997084	0.07492164
71	0xbe414d3f	-0.18877123
72	0x3e69548d	0.2278616
73	0x3f135a10	0.575593
74	0x3d60477c	0.054755673
75	0x3db4ddc0	0.08831358
76	0xbe47a6c6	-0.19497213
77	0x3e90b7f2	0.2826534
78	0x3eb63855	0.35589853
79	0x3f1aa928	0.6041436
80	0x3e62f647	0.2216426
81	0x3ea40e8e	0.32042354
82	0x3ddf2851	0.108963616
83	0xbe6d01a5	-0.23145159
84	0xbe9c5cda	-0.3053959
85	0xbe01a522	-0.1266065
86	0x3dbac624	0.091198236
87	0x3e6127d2	0.21987846
88	0x3d8804c5	0.06641535
89	0xbe230313	-0.15919141
90	0x3de1d324	0.110266
91	0xbdcce065	-0.10003737
92	0x3e44bfee	0.1921384
93	0x3ebf8cd2	0.37412125
94	0x3d4fcc43	0.05073191
95	0x3ee64a4c	0.4497856
96	0x3dbb9729	0.09159691
97	0xbd277c0d	-0.04088979
98	0x3d50fbb4	0.051021293
99	0xbe88cfd3	-0.26721057
100	0xbea69be9	-0.32540825
101	0xbe1a615b	-0.150762
102	0x3b9d4f80	0.004800737
103	0x3e19c818	0.15017736
104	0x3e500b40	0.20316792
105	0xbe136f06	-0.14397821
106	0x3bcccad8	0.006249767
107	0xbe1d4263	-0.15357356
108	0x3dfb7887	0.12278848
109	0x3dd5ea28	0.104450524
110	0x3e53f881	0.20700265
111	0x3e158c0c	0.14604205
112	0x3e370c1a	0.1787571
113	0x3e88f883	0.267521
114	0x3dea6735	0.114454664
115	0xbe80013e	-0.25000948
116	0xbe657e42	-0.22411445
117	0xbdedf87c	-0.1161966
118	0x3df94f5a	0.12173338
119	0x3e379985	0.17929657
120	0x3d9f1e6c	0.077694744
121	0xbe2491b7	-0.16071211
122	0x3e01f530	0.12691188
123	0xbdd58127	-0.104250245
124	0x3e1b67f6	0.15176377
125	0x3ea0427c	0.31300724
126	0x3d68a4d4	0.056797817
127	0x3ec03294	0.37538588

bias f4 [8]
0	0x3d419d37	0.047269072
1	0x3e23c44c	0.1599285
2	0x3e1f5902	0.15561298
3	0x3d092cf3	0.033490133
4	0x3d9fd66b	0.07804569
5	0x3e25502e	0.16143867
6	0x3d13c886	0.036079906
7	0x3e29da25	0.16587122

weight f4 [8, 16]
0	0xbbf239af	-0.0073921303
1	0xbc0c2963	-0.008554789
2	0x337df5d4	5.9129732e-08
3	0xb37fab04	-5.9527352e-08
4	0x3d1c4549	0.038152013
5	0x3d9b5561	0.07584644
6	0x341cf535	1.4617838e-07
7	0x3e10a5cc	0.14125746
8	0xbb008cc8	-0.0019615162
9	0xb400b80b	-1.1987883e-07
10	0x3e9d8458	0.30765033
11	0x3eb37faf	0.35058352
12	0x331b8ac7	3.6214967e-08
13	0xbe408b12	-0.18803051
14	0x3df7e13b	0.12103506
15	0xbe279125	-0.16363962
16	0x3bff6c4a	0.0077948915
17	0x3c096496	0.008385798
18	0xb3e9146d	-1.08536234e-07
19	0xb3edca15	-1.1072931e-07
20	0x3d237bf6	0.03991314
21	0xbd4223a7	-0.047397282
22	0xb3ce8b8b	-9.618005e-08
23	0x3cc7c10e	0.024384048
24	0x3b276370	0.0025541447
25	0x318151ee	3.7637085e-09
26	0x3c634ee4	0.013873789
27	0xbe1125d5	-0.14174588
28	0x342cb1ba	1.6083405e-07
29	0x3dcc74ae	0.099831924
30	0xbd3a6298	-0.045504183
31	0x3dcfb848	0.10142571
32	0x3c2a8185	0.010406856
33	0x3c1b55dd	0.009480921
34	0x33a8f9be	7.8685375e-08
35	0x33b6d830	8.51436e-08
36	0xbd67f1f7	-0.05662724
37	0x3da07051	0.07833923
38	0x33abc9fc	7.999549e-08
39	0x33cdb10f	9.578263e-08
40	0x3bac1b11	0.00525225
41	0xb332d4a0	-4.1637236e-08
42	0x33b2aab0	8.319819e-08
43	0xbec697ca	-0.3878768
44	0x3472e06e	2.2619653e-07
45	0x3e933206	0.28749102
46	0x3cf19b90	0.029493123
47	0x3e7f6f34	0.24944764
48	0x3c1179c2	0.008879127
49	0x3c139f7a	0.00901019
50	0x343934dd	1.7248699e-07
51	0x3481d492	2.4182788e-07
52	0x3df27b71	0.11839951
53	0xbd4b34e6	-0.049610995
54	0x32d40fb6	2.4687193e-08
55	0xbbb6d279	-0.0055792895
56	0x3b528d01	0.0032127502
57	0xb350ea83	-4.864206e-08
58	0xbce3f4e0	-0.027826726
59	0xbe2a9525	-0.16658457
60	0xb29b3b5a	-1.8071365e-08
61	0x3e1b7145	0.15179928
62	0xbd43108c	-0.047623202
63	0x3e0a6670	0.1351564
64	0x3b2d1e14	0.0026415633
65	0x3b26fb02	0.0025479202
66	0x335eefe8	5.1906596e-08
67	0xb3850c3b	-6.19552e-08
68	0x3da1e460	0.07904887
69	0x3bcacfd3	0.0061893254
70	0xb48280e8	-2.430818e-07
71	0xbd84c597	-0.06483
72	0x3b77a162	0.00377854
73	0x31638a09	3.3111311e-09
74	0xbd36f0df	-0.044663306
75	0xbc9bbea7	-0.019011809
76	0x339089ae	6.730566e-08
77	0xbd682553	-0.05667622
78	0x39c1fa17	0.0003699816
79	0xbd53c7b8	-0.05170414
80	0x3c14b8e4	0.0090772845
81	0x3c166bf7	0.009181014
82	0x33b9ff47	8.6611685e-08
83	0xb310d61d	-3.3722348e-08
84	0x3de3b8a0	0.11119199
85	0xbd500323	-0.05078424
86	0xb4c8f89d	-3.7433793e-07
87	0xbc0a35e2	-0.008435698
88	0x3b5c0173	0.00335702
89	0x34358f35	1.6909037e-07
90	0xbd0de1e7	-0.034639265
91	0xbe2a5d3a	-0.16637126
92	0x33d3a585	9.855561e-08
93	0x3e1d0367	0.15333329
94	0xbd49d80e	-0.04927831
95	0x3e0c0a51	0.1367581
96	0x3c116829	0.008874931
97	0x3c13a729	0.009012022
98	0x3420437e	1.4925715e-07
99	0x32dad6ad	2.5476163e-08
100	0x3dfcac20	0.12337518
101	0xbd476f3d	-0.04869007
102	0x34119dec	1.3561629e-07
103	0xbbcdf718	-0.0062855594
104	0x3b568e74	0.0032738717
105	0x339846ad	7.0909074e-08
106	0xbcdf7d2c	-0.027281366
107	0xbe2760c1	-0.16345502
108	0x329910b0	1.7819133e-08
109	0x3e1c11ba	0.15241137
110	0xbd405477	-0.046955552
111	0x3e0c76d1	0.137172
112	0x3c11adb6	0.008891514
113	0x3c129960	0.0089477
114	0xb349eb8a	-4.701318e-08
115	0xb3ddd724	-1.0330248e-07
116	0x3e04d76b	0.129728
117	0xbd4eb5aa	-0.050466217
118	0x341818f4	1.4165181e-07
119	0xbc392f80	-0.011302829
120	0x3b4f355e	0.0031617503
121	0x33f18149	1.1245954e-07
122	0xbc3f6b8f	-0.011683359
123	0xbe283d92	-0.16429737
124	0x34135918	1.3722854e-07
125	0x3e1cbd26	0.1530653
126	0xbd48542c	-0.048908398
127	0x3e0e8124	0.1391645

bias f4 [8]
0	0x3d326803	0.043556225
1	0x3e10d986	0.14145479
2	0xbe16f6b6	-0.1474255
3	0x3e02335a	0.12714902
4	0x3d8c525a	0.06851645
5	0x3e00e41f	0.12587021
6	0x3e01ed38	0.12688148
7	0x3dff1a8f	0.124562375

weight_ih_l0 f4 [72, 19]
0	0x3d1b1742	0.037863977
1	0xbe2be6ff	-0.16787337
2	0xbdac4d6a	-0.08413203
3	0x3d7d4186	0.061830066
4	0xbe655029	-0.2239386
5	0xbeccc375	-0.39992872
6	0xbd4e84f7	-0.050419774
7	0xbe110b44	-0.14164454
8	0xbd0ddef4	-0.034636453
9	0x3b6ebbef	0.0036427935
10	0xbe825f71	-0.2546344
11	0xbef5f242	-0.4803639
12	0xbe7f1df7	-0.24913774
13	0xbceb01c8	-0.028687373
14	0xbe809ea8	-0.25121045
15	0xbe812c62	-0.25229174
16	0xbe820731	-0.25396112
17	0xbee58baa	-0.44833118
18	0x3e0a3453	0.13496523
19	0xbe507963	-0.20358805
20	0x3d51dee7	0.051237967
21	0x3e3ee2ae	0.18641159
22	0x3e47a9b5	0.19498332
23	0x3d9c8dfe	0.0764427
24	0xbd56d729	-0.052451286
25	0x3e3fee09	0.18743147
26	0x3d93874e	0.07203542
27	0x3e2ef3b5	0.17085154
28	0x3e92adac	0.28648126
29	0xbeec72ce	-0.4618134
30	0xbf49b3ab	-0.78789777
31	0xbefd46d5	-0.49468103
32	0xbc964c8c	-0.018347047
33	0xbefe8478	-0.4971044
34	0xbeff2d1d	-0.49839106
35	0xbf00ba06	-0.5028385
36	0xbaad413d	-0.0013218295
37	0xbd999c04	-0.07500461
38	0x3ddd4aa2	0.10805251
39	0xbdc8f160	-0.09811664
40	0x3d185e3e	0.03719925
41	0xbca7ceff	-0.020484446
42	0xbde3981a	-0.111129954
43	0xbec20426	-0.3789379
44	0x3e2e7573	0.17036991
45	0xbd3257b3	-0.043540668
46	0x3e59c328	0.21265852
47	0x3e9b8612	0.30375725
48	0xbeae98e4	-0.3410102
49	0xbec09ba1	-0.37618735
50	0xbeacc0ee	-0.33740944
51	0xbcad8b0a	-0.021184463
52	0xbeadce8e	-0.3394665
53	0xbead2fd4	-0.33825552
54	0xbeadb0d3	-0.3392397
55	0xbe8eaa2e	-0.27864212
56	0x3ea558db	0.32294354
57	0xbdf746ad	-0.12074027
58	0xbca23e24	-0.019805022
59	0xbd74afb2	-0.05973787
60	0xbe21eed7	-0.15813766
61	0xbe867466	-0.2626068
62	0xbf1b1ddb	-0.6059243
63	0xbd74a67e	-0.05972909
64	0xbc96d00a	-0.018409748
65	0xbd424520	-0.047429204
66	0x3ebc79ee	0.36811775
67	0xbe16173d	-0.14657302
68	0x3ef0708a	0.4696086
69	0xbd65d4d4	-0.05611117
70	0xbd7baee2	-0.061446078
71	0xbd6220d4	-0.05520709
72	0xbd6abe2a	-0.05731026
73	0xbd6f4f72	-0.058425374
74	0xbf0527c3	-0.52013797
75	0x3f82f1a1	1.0229989
76	0xbe45c373	-0.19312839
77	0xbe02bc6c	-0.1276719
78	0xbd6805c1	-0.056646112
79	0xbd7996f6	-0.060934983
80	0xbe1c3d36	-0.15257725
81	0xbe793be2	-0.2433925
82	0xbd555161	-0.052079562
83	0xbdeb69f2	-0.11494817
84	0xbd5704ee	-0.052494936
85	0xbd66a52d	-0.056309868
86	0xbedd0716	-0.4316947
87	0xbf1530fd	-0.58277875
88	0xbedfe364	-0.43728173
89	0x3b843245	0.004034313
90	0xbedf9921	-0.43671516
91	0xbee1fdb4	-0.44138873
92	0xbee45bd8	-0.4460132
93	0xbf00a779	-0.50255543
94	0xbe8bfd1c	-0.27341545
95	0xbc1558ee	-0.009115441
96	0xbd36a8bb	-0.044594508
97	0x3d3a3195	0.04545744
98	0x3d897af2	0.06712903
99	0xbcd92538	-0.026507005
100	0xbdf85506	-0.12125592
101	0x3d8fcddd	0.07021687
102	0xbbeb42c5	-0.0071795904
103	0x3d8edee3	0.06976106
104	0x3e8298fe	0.2550735
105	0xbeb5b125	-0.35486713
106	0xbf0956ee	-0.5364827
107	0xbec0bae3	-0.37642583
108	0xbcd6b841	-0.026210906
109	0xbec2884a	-0.37994605
110	0xbec20e50	-0.37901545
111	0xbec40dd1	-0.3829179
112	0x3c597b6d	0.013274056
113	0xbe4ee8e3	-0.20206027
114	0x3e24a474	0.16078359
115	0x3c789583	0.015172365
116	0x3dab1e77	0.0835542
117	0x3e160920	0.14651918
118	0xbd851096	-0.06497304
119	0xbe29efe0	-0.16595411
120	0x3dccd047	0.10000663
121	0x3d2ea8ed	0.04264157
122	0x3dfa2bae	0.122153625
123	0x3ef28b26	0.47371787
124	0xbdf74c76	-0.12075131
125	0xbec46572	-0.38358647
126	0xbdd01c5f	-0.10161661
127	0x3cbadd54	0.022810616
128	0xbdd39555	-0.10331217
129	0xbdd37097	-0.10324209
130	0xbdd46dd6	-0.10372512
131	0x3d75a0c5	0.059967775
132	0x3ed5b40f	0.41738936
133	0xbd4c4f04	-0.049880043
134	0x3e06f5f2	0.13179758
135	0x3e0e79d1	0.13913657
136	0x3c66a813	0.014078158
137	0x3e15d2e2	0.14631227
138	0xbd387368	-0.045031935
139	0x3e5db580	0.21651268
140	0x3e2f69de	0.17130229
141	0x3e6742e4	0.2258411
142	0x3e32d4d2	0.17463997
143	0xbd913949	-0.070910044
144	0xbddea20d	-0.108707525
145	0xbdbefd8b	-0.09325703
146	0xbd7f54b6	-0.062336646
147	0xbdc2bed1	-0.095090516
148	0xbdbd1947	-0.09233337
149	0xbdbbc6a3	-0.09168746
150	0xbe5af9d1	-0.2138436
151	0x3ee9186b	0.45526442
152	0x3cfd3e90	0.030913621
153	0xbcaa1c3e	-0.02076542
154	0x3d8e598b	0.06950673
155	0x3e0cefe7	0.1376339
156	0x3d36afe7	0.044601347
157	0xbd21f290	-0.039537966
158	0x3d382d94	0.04496534
159	0xbcf46db9	-0.029837476
160	0x3d04f8ca	0.032463826
161	0x3d855736	0.06510775
162	0x3d34285f	0.043983813
163	0x3d4e6916	0.050393187
164	0x3d00e8a5	0.031471867
165	0x3ce61a7f	0.028088806
166	0x3cfa4e9c	0.030555062
167	0x3d036f20	0.0320884
168	0x3d08bd67	0.033383753
169	0x3e2f2952	0.17105606
170	0x3edf8ed7	0.43663666
171	0x3dc5f51c	0.096658915
172	0xbe19fc2f	-0.15037607
173	0xbdce6333	-0.100775145
174	0xbc8f966e	-0.017527785
175	0xbea2a6f9	-0.31768015
176	0xbeeb0d1f	-0.45908448
177	0xbdf099a5	-0.11748055
178	0xbe12908c	-0.14312953
179	0xbdd3f091	-0.10348619
180	0x3ec51b36	0.38497323
181	0xbe41fd7e	-0.18944356
182	0xbe044245	-0.12915905
183	0xbe2a480e	-0.16629049
184	0xbe1038f0	-0.1408422
185	0xbe2c7dd7	-0.16844879
186	0xbe2f051a	-0.1709179
187	0xbe340ad4	-0.17582256
188	0xbf012ab2	-0.5045577
189	0x3dfaca44	0.1224561
190	0xbc193cb0	-0.009352848
191	0xbd8453d8	-0.064613044
192	0xbde98ba1	-0.11403585
193	0xbe201eb9	-0.1563672
194	0x3dd76ca7	0.10518771
195	0x3c45fa9e	0.012083678
196	0xbd7558c9	-0.059899125
197	0xbd01b1c9	-0.03166369
198	0xbd0cfa48	-0.034418374
199	0xbe3013c4	-0.1719504
200	0xbdb1a7c6	-0.08674578
201	0xbe912296	-0.283467
202	0xbdb9e168	-0.09076196
203	0x3b3853ff	0.0028126237
204	0xbdbe3186	-0.092867896
205	0xbdb82a70	-0.08992469
206	0xbdb89783	-0.090132736
207	0x3e3ecb99	0.18632354
208	0x3ee3a80e	0.44464153
209	0xbd87a7e3	-0.06623819
210	0xbd2dffbf	-0.042480227
211	0x3c0b21d6	0.008491954
212	0xbcccec47	-0.02501501
213	0x3d5e5b6b	0.0542864
214	0xbd47cae6	-0.048777483
215	0x3c9fa210	0.019486457
216	0xbd0801b0	-0.033204734
217	0x3cc20004	0.023681648
218	0x3e8835c8	0.26603532
219	0xbdc221d0	-0.094791055
220	0xbdedd2d1	-0.11612476
221	0xbdda7a9f	-0.10667919
222	0xbbc6c125	-0.006065505
223	0xbddbedb4	-0.10738698
224	0xbdda55cb	-0.10660895
225	0xbdd86a83	-0.105671905
226	0x3e2fcc36	0.17167744
227	0x3ce5c664	0.028048702
228	0xbd174bcd	-0.036937524
229	0xbe54aaac	-0.20768231
230	0xbe84ce27	-0.25938532
231	0xbe688541	-0.22707082
232	0xbe278a6b	-0.16361396
233	0xbe2924f5	-0.16518004
234	0xbe6d1c9d	-0.23155446
235	0xbe3f6847	-0.18692122
236	0xbe463caa	-0.19359079
237	0x3cf2b095	0.029625216
238	0xbe2c61d6	-0.16834196
239	0xbec13505	-0.37735763
240	0xbe3c93f5	-0.18415816
241	0xbd60132d	-0.054705787
242	0xbe3f0585	-0.1865445
243	0xbe3cc1f3	-0.18433361
244	0xbe3d1da3	-0.18468337
245	0xbe38a9fc	-0.18033594
246	0xbebd1d27	-0.36936304
247	0x3d119f1f	0.03555214
248	0x3dbc6118	0.09198207
249	0x3e1ac262	0.15113214
250	0x3d393749	0.04521874
251	0x3d740afb	0.059580784
252	0xbe6bf94d	-0.2304432
253	0x3e39e4a7	0.1815363
254	0x3de76421	0.11298395
255	0x3e51ca4b	0.20487325

weight_hh_l0 f4 [72, 18]
0	0x3d4ca35e	0.049960487
1	0x3d862641	0.06550265
2	0xbe8e5212	-0.2779699
3	0x3edb5635	0.42839208
4	0xbe9a7bca	-0.3017257
5	0xbcbfee56	-0.023429077
6	0x3e199b73	0.15000705
7	0x3e53ee6f	0.20696424
8	0xbdcdfa55	-0.10057513
9	0xbe6a2da2	-0.2286897
10	0xbeb82f5c	-0.35973632
11	0x3c541a32	0.012945699
12	0xbc6e2ee6	-0.014537549
13	0xbe6c00af	-0.23047136
14	0xbde333cb	-0.11093863
15	0x3d474359	0.048648212
16	0x3e218d7f	0.15776633
17	0xbe478f3d	-0.19488235
18	0xbeecc013	-0.4624029
19	0x3ea52b23	0.32259473
20	0xbefa9ca5	-0.48947635
21	0x3e6619b7	0.22470747
22	0xbeda8a4e	-0.42683643
23	0xbe809e6d	-0.2512087
24	0xbeb6d648	-0.3571036
25	0x3eb09bd4	0.34493887
26	0xbe84befc	-0.2592696
27	0xbf019f60	-0.5063381
28	0xbea0df5a	-0.31420404
29	0x3f0625ed	0.5240162
30	0x3efcc197	0.49366447
31	0xbf0e6c4b	-0.5563399
32	0xbe090a14	-0.13382751
33	0xbe06943f	-0.13142489
34	0x3d89a88f	0.06721603
35	0x3dd1ef59	0.1025073
36	0xbd83a6e0	-0.06428313
37	0x3d8bbcd6	0.06823127
38	0x3cd0aa75	0.025471905
39	0x3d220131	0.039551917
40	0x3d5a007d	0.053223122
41	0x3d0d1f60	0.03445375
42	0x3e1de2e9	0.1541859
43	0xbc9dbc41	-0.019254806
44	0xbd096e81	-0.03355265
45	0xbd54fe0e	-0.052000098
46	0xbc8749a7	-0.016514612
47	0x3da94dbc	0.0826678
48	0x3d847567	0.06467705
49	0xbd1050f8	-0.035233468
50	0x3c08f9d1	0.008360342
51	0xbd988307	-0.074468665
52	0xbd8d501b	-0.069000445
53	0xbce53880	-0.027981043
54	0xbf1449c2	-0.57925045
55	0x3f03f305	0.51542693
56	0xbe75e28b	-0.240122
57	0xbdae61f1	-0.085147746
58	0xbe02de7a	-0.1278018
59	0xbf04a0bf	-0.5180778
60	0xbe9c085a	-0.30475122
61	0x3ceccac7	0.028905286
62	0x3c2a9981	0.010412575
63	0xbe2c0398	-0.16798246
64	0xbeb05666	-0.34440917
65	0x3e18cf25	0.1492277
66	0x3ebd1057	0.3692653
67	0xbe24eaed	-0.16105242
68	0x3ecb2e71	0.3968387
69	0x3eb0f14c	0.34559095
70	0xbce81563	-0.02833051
71	0xbf0941d3	-0.53616065
72	0xbe998561	-0.29984573
73	0x3e8989eb	0.26863036
74	0xbeb047a7	-0.34429666
75	0x3e096788	0.134184
76	0xbe9599e6	-0.29218978
77	0xbdfe5e9a	-0.124203876
78	0xbd6dcc1f	-0.058055993
79	0x3f0812aa	0.5315348
80	0xbe93e1b6	-0.2888314
81	0xbe3d30e1	-0.18475677
82	0xbef9e514	-0.48807585
83	0x3f139e5c	0.5766351
84	0x3e0fd50c	0.14046115
85	0xbeef06ad	-0.4668478
86	0xbe9dbfbc	-0.30810344
87	0x3ee40b39	0.44539812
88	0x3d52f79b	0.051505666
89	0x3e2fff74	0.17187291
90	0xbec616c0	-0.38689232
91	0x3f14d78a	0.58141387
92	0xbf458885	-0.7716144
93	0x3eee8347	0.46584532
94	0xbf42b9a4	-0.76064515
95	0xbe915ede	-0.2839269
96	0xbe434674	-0.19069844
97	0x3ebd4a54	0.3697077
98	0xbe029610	-0.12752557
99	0xbf26422a	-0.6494471
100	0xbe909b76	-0.28243607
101	0x3ecdd814	0.40203917
102	0x3e127d0d	0.14305516
103	0xbf4b60c7	-0.79444546
104	0xbddb39dd	-0.10704396
105	0x3d9226d5	0.07136313
106	0x3d182e46	0.037153505
107	0x3c9474c3	0.018122083
108	0xbe648aa3	-0.2231851
109	0x3ee4acdc	0.4466313
110	0xbf07b2d6	-0.53007257
111	0x3ed6287f	0.4182777
112	0xbeaebda5	-0.34129062
113	0xbe94cb7e	-0.29061502
114	0xbc98de02	-0.01866055
115	0xbd10b984	-0.03533317
116	0x3c9f061e	0.019412097
117	0xbee29dab	-0.44260916
118	0xbe04513a	-0.1292161
119	0x3d71662e	0.058935337
120	0x3bb2d309	0.0054572863
121	0xbf0f2649	-0.55917794
122	0x3dfd7064	0.123749524
123	0xbbe4f425	-0.006987112
124	0x3e5809fe	0.21097562
125	0xbeaf39b3	-0.3422371
126	0x3c434b9c	0.011919882
127	0xbd861391	-0.06546701
128	0xbdb94827	-0.09046965
129	0xbd73fea6	-0.059569024
130	0x3d8acaa7	0.06776934
131	0x3d6260ed	0.055268217
132	0x3e010b82	0.12602046
133	0xbdc04182	-0.093874946
134	0x3cc6aa3e	0.0242511
135	0xbe2a66e1	-0.16640808
136	0x3d813aa4	0.06310013
137	0xbd8f9952	-0.070116654
138	0xbe08e08e	-0.13366911
139	0xbde21cbc	-0.11040637
140	0x3d299c97	0.0414091
141	0xbc8959de	-0.016766485
142	0xbdbae077	-0.091248445
143	0xbea6202a	-0.32446414
144	0xbdba2524	-0.09089115
145	0x3e339860	0.17538595
146	0xbe2b99cb	-0.16757886
147	0x3d607a73	0.054804277
148	0xbe4fe0c2	-0.20300582
149	0xbd130769	-0.03589574
150	0xbdef95fe	-0.116985306
151	0x3d403b9c	0.046931848
152	0xb9121f01	-0.00013935195
153	0xbe46bfce	-0.19409105
154	0xbda9eb70	-0.08296859
155	0x3e1fcf9d	0.15606542
156	0x3df75bc1	0.120780475
157	0xbe2d6a04	-0.16934973
158	0x3ca0a6d5	0.019610802
159	0xbe4a3189	-0.19745459
160	0xbc947cfe	-0.018126007
161	0xbe484028	-0.19555724
162	0xbeb74790	-0.35796785
163	0x3ec857e0	0.39129543
164	0xbea163da	-0.31521493
165	0x3e871b6e	0.26388115
166	0xbe601376	-0.21882424
167	0xbeb1b38a	-0.3470729
168	0x3bf3c80a	0.007439618
169	0x3e402835	0.18765338
170	0xbd94a790	-0.072585225
171	0xbe3cb16f	-0.1842706
172	0xbe81b1d2	-0.2533098
173	0x3da4fec3	0.080564044
174	0x3dc00d32	0.09377517
175	0xbed2278d	-0.410458
176	0x3d401b6c	0.04690115
177	0x3d092b9f	0.033488866
178	0x3eacb0e8	0.3372872
179	0xbe872571	-0.26395753
180	0xbdbd3fbf	-0.09240674
181	0xbe081233	-0.13288192
182	0xbd3b464d	-0.04572134
183	0xbd750898	-0.05982265
184	0xbcb68137	-0.022278411
185	0x3e036a41	0.12833501
186	0x3da1162b	0.07865556
187	0x3e7b8131	0.24561001
188	0xbe0eafab	-0.139342
189	0xbe26bcba	-0.16282931
190	0xbe3c0cf5	-0.18364318
191	0x3dde9d67	0.10869866
192	0xbe891774	-0.26775706
193	0xbea5c6ee	-0.32378334
194	0xbdb79fa0	-0.08965993
195	0x3d85e7ef	0.065383784
196	0xbec4c411	-0.38430837
197	0xbe71294a	-0.23550907
198	0xbe31c349	-0.17359652
199	0x3e83250b	0.256142
200	0xbdf50175	-0.119631685
201	0xbc023c8a	-0.007949004
202	0xbe536610	-0.20644403
203	0xbd20a7ac	-0.039222404
204	0xbd861f61	-0.06548954
205	0x3d623789	0.055228744
206	0xbdb57b68	-0.088614285
207	0xbe8da513	-0.27665004
208	0xbe1241e6	-0.14282951
209	0x3e4b543f	0.19856356
210	0x3e5753ba	0.21028033
211	0x3dba7cd7	0.091058426
212	0xbde45fff	-0.11151122
213	0xbd13abd8	-0.036052555
214	0x3ce10fba	0.02747332
215	0xbe82b7a3	-0.2553073
216	0xbd3c3626	-0.045950077
217	0x3ec0df0d	0.37670174
218	0xbed579db	-0.4169453
219	0x3dbf89b4	0.09352437
220	0xbec94992	-0.39313942
221	0x3c1deeeb	0.009639482
222	0x3d24ff19	0.040282343
223	0x3eb37ed0	0.35057688
224	0xbde646d9	-0.11243982
225	0xbe8129ca	-0.25227195
226	0xbe68ae8e	-0.22722837
227	0x3e324675	0.1740969
228	0x3e24e284	0.16102034
229	0xbeedd01f	-0.46447846
230	0xbde19ddd	-0.11016438
231	0xbddbd966	-0.10734825
232	0xbe018cef	-0.12651418
233	0xbe1517b0	-0.14559817
234	0x3e38341e	0.17988631
235	0xbe5dc23c	-0.21656126
236	0xbd00313b	-0.03129695
237	0x3cb9ada8	0.022665814
238	0x3dd89be4	0.10576609
239	0x3e3c9160	0.18414831
240	0x3cd3bd03	0.025846964
241	0xbd793c8b	-0.060848754
242	0xbcb91e01	-0.022597315
243	0xbdbbe1e0	-0.091739416
244	0xbe7cd54c	-0.24690741
245	0xbde4a5f5	-0.11164466
246	0xbe30aab5	-0.1725262
247	0xbe859573	-0.26090583
248	0xba5903b5	-0.00082784455
249	0xbd9775d5	-0.073955216
250	0xbe53c170	-0.2067926
251	0xbe944423	-0.28958234
252	0xbebf77e3	-0.37396154
253	0x3e943b4d	0.28951493
254	0xbea03b8e	-0.31295437
255	0xbc7b17e3	-0.015325519

bias_ih_l0 f4 [72]
0	0x3dd72070	0.10504234
1	0x3c5db070	0.0135308355
2	0x3e8ebfcd	0.27880707
3	0x3d234c64	0.039867774
4	0x3d25e3bd	0.04050039
5	0x3e163d7a	0.14671889
6	0x3e88e8e7	0.2674019
7	0x3e25da76	0.16196617
8	0x3e15be1b	0.146233
9	0x3e3a91c8	0.18219674
10	0x3d9deefc	0.07711598
11	0x3d9cb7d6	0.076522514
12	0x3dba90db	0.0910966
13	0x3e1dae6e	0.15398571
14	0x3e778fb7	0.24175917
15	0x3dc2e3c2	0.095160976
16	0x3d815b12	0.063161984
17	0x3da7b0ad	0.08187995
18	0x3e1c7b74	0.15281469
19	0x3da104ee	0.078622684
20	0x3ea637e7	0.32464525
21	0x3e7487cf	0.23879932
22	0x3e7787ed	0.24172945
23	0x3e087459	0.13325633
24	0x3dc8148e	0.097695455
25	0x3cf9dc2b	0.030500492
26	0x3c786d31	0.015162752
27	0x3e11d399	0.14240874
28	0x3e315bdc	0.17320198
29	0x3d9c4293	0.076298855
30	0x3e0d6690	0.13808656
31	0x3e439ab3	0.19101982
32	0x3d9c8d13	0.07644095
33	0x3e791c35	0.24327166
34	0x3e7603b3	0.24024849
35	0x3e69a415	0.22816499
36	0xbd3bf70a	-0.04588989
37	0xbbff474a	-0.0077904807
38	0xbca76321	-0.02043301
39	0xbd79eb8e	-0.061015658
40	0xbcffa156	-0.03120486
41	0xbc69ba27	-0.014265574
42	0xbd1dc06e	-0.038513593
43	0xbd84100b	-0.064483725
44	0x3dec4ad9	0.115377136
45	0xbd2d70fd	-0.042344082
46	0x3d325c55	0.043545086
47	0xbd2d1399	-0.042255018
48	0xbd165500	-0.036702156
49	0xbbacfd0a	-0.005279188
50	0x3e08bb0a	0.133526
51	0x39bee58f	0.00036410659
52	0xbc416fe3	-0.011806461
53	0xbcb2f796	-0.021846574
54	0x3e0271a1	0.12738658
55	0x3dc676da	0.09690638
56	0x3e7c2d43	0.24626641
57	0x3e5b75f8	0.2143172
58	0x3e5c2e64	0.21502072
59	0x3e40b237	0.18817984
60	0x3df3a6bb	0.11897036
61	0x3e6a9208	0.22907269
62	0x3c8f2d3b	0.017477622
63	0x3e2b4f50	0.16729474
64	0x3e2b93be	0.16755578
65	0x3ddb746b	0.10715564
66	0x3db0230f	0.08600437
67	0x3e839a1b	0.2570351
68	0x3df608cd	0.12013397
69	0x3e1fc6c7	0.15603171
70	0x3e57cfd0	0.21075368
71	0x3e50fd71	0.2040918

bias_hh_l0 f4 [72]
0	0x3dd44c10	0.1036607
1	0x3c59d079	0.013294333
2	0x3e8f7135	0.28016058
3	0x3d24eb7e	0.040263645
4	0x3d2b6632	0.041845508
5	0x3e164856	0.14676031
6	0x3e89e515	0.26932588
7	0x3e25e215	0.16199525
8	0x3e16136f	0.14655851
9	0x3e398efa	0.18120947
10	0x3d9dcbe9	0.077049084
11	0x3d9f4155	0.07776133
12	0x3dbb4c85	0.09145454
13	0x3e1d444e	0.15358087
14	0x3e76d3a7	0.24104176
15	0x3dc27fb7	0.09497016
16	0x3d811890	0.06303513
17	0x3da7e66e	0.08198248
18	0x3e1d4999	0.15360107
19	0x3da13678	0.07871717
20	0x3ea68ed9	0.3253086
21	0x3e74503d	0.23858733
22	0x3e776380	0.2415905
23	0x3e0729a9	0.13199486
24	0x3dcb846d	0.099373676
25	0x3cf475bf	0.029841302
26	0x3c7ebea7	0.015548385
27	0x3e1425bb	0.14467518
28	0x3e312182	0.17297938
29	0x3d9ef782	0.07762052
30	0x3e0f777c	0.14010423
31	0x3e42d7cb	0.19027631
32	0x3d9a86aa	0.075452164
33	0x3e78ad4c	0.24284858
34	0x3e761938	0.24033058
35	0x3e69de6e	0.22838756
36	0xbd3c224d	-0.04593115
37	0xbc190243	-0.009338918
38	0xbcde6fc5	-0.027152905
39	0xbd7faaa7	-0.062418606
40	0xbd149f95	-0.036285
41	0xbc65b764	-0.0140207745
42	0xbd10c802	-0.035346992
43	0xbd83b6ad	-0.06431327
44	0x3deb680f	0.11494457
45	0xbd421d30	-0.047391117
46	0x3d13c085	0.036072273
47	0xbd317027	-0.043319847
48	0xbd223f7c	-0.039611325
49	0xbb65d4dc	-0.00350695
50	0x3e08efb1	0.13372685
51	0x3ad8520e	0.0016503946
52	0xbc369493	-0.011143821
53	0xbcb6af5b	-0.022300413
54	0x3e02d1d3	0.12775354
55	0x3dc77b9f	0.09740376
56	0x3e7cdb2b	0.24692981
57	0x3e5ba7f9	0.21450795
58	0x3e5c1a15	0.21494325
59	0x3e409caf	0.1880977
60	0x3df4b41f	0.11948418
61	0x3e6ab846	0.22921857
62	0x3c934338	0.017976388
63	0x3e2c94ec	0.16853684
64	0x3e2b0d41	0.16704275
65	0x3dd71644	0.10502294
66	0x3dae5d7a	0.08513923
67	0x3e84623a	0.2585619
68	0x3df1eb8e	0.118125066
69	0x3e1f5061	0.15558006
70	0x3e5777bd	0.2104177
71	0x3e513139	0.20428933

weight f4 [16, 21]
0	0x3d9a3532	0.075296775
1	0x3e465f1f	0.19372223
2	0xbd386cc6	-0.04502561
3	0xbd8c2331	-0.0684265
4	0xbd99fc1e	-0.07518791
5	0xbd9f3810	-0.07774365
6	0xbdac85d2	-0.08423962
7	0xbdb75482	-0.089516655
8	0xbdb6dda8	-0.08928996
9	0xbdb9c471	-0.09070671
10	0xbdc981b4	-0.09839192
11	0xbdced335	-0.10098878
12	0xbdd09de7	-0.101863675
13	0xbdcf020f	-0.101078145
14	0xbdd2f929	-0.1030143
15	0xbdec66f6	-0.11543076
16	0xbdff342e	-0.12461124
17	0xbde74210	-0.11291897
18	0xbe093479	-0.13398923
19	0xbe83500e	-0.25647014
20	0x3bcf05c3	0.0063178255
21	0x3d978a8c	0.073994726
22	0x3e4f5d9d	0.20250554
23	0xbd24d327	-0.040240433
24	0xbd819ceb	-0.06328758
25	0xbd8f33e4	-0.06992319
26	0xbd947501	-0.07248879
27	0xbda2a39e	-0.07941364
28	0xbdac5968	-0.084154904
29	0xbdabbe8b	-0.083859526
30	0xbdb1a282	-0.08673574
31	0xbdbff748	-0.09373337
32	0xbdc452b9	-0.095860906
33	0xbdc80a40	-0.0976758
34	0xbdc6b8cf	-0.09703218
35	0xbdc862d5	-0.09784476
36	0xbde2c98e	-0.110736
37	0xbdf6a6e4	-0.120435506
38	0xbddc776f	-0.10764968
39	0xbe04bd69	-0.12962879
40	0xbe813d3b	-0.25242028
41	0x3bdd0db9	0.0067460206
42	0x3ddd0dd7	0.10793655
43	0x3e80c712	0.2515188
44	0xbb85f6ab	-0.004088243
45	0xbcedd37c	-0.029031508
46	0xbd184096	-0.03717097
47	0xbd2a4d74	-0.04157777
48	0xbd4b6330	-0.04965514
49	0xbd621830	-0.05519885
50	0xbd62a8ca	-0.05533675
51	0xbd738b89	-0.059459243
52	0xbd8b0e0c	-0.067897886
53	0xbd911978	-0.07084936
54	0xbd943625	-0.0723689
55	0xbd942f3c	-0.07235572
56	0xbd996bb4	-0.07491246
57	0xbdb4450a	-0.08802231
58	0xbdc841d3	-0.0977818
59	0xbdad72c4	-0.084691554
60	0xbddcc8c8	-0.107804835
61	0xbe6ca230	-0.23108745
62	0x3d5b6ca4	0.053570405
63	0xbc8ed468	-0.017435268
64	0xbebacdc9	-0.36485127
65	0xbdeac165	-0.11462668
66	0xbd9feef9	-0.07809252
67	0xbd73769d	-0.05943929
68	0xbd4e0453	-0.050297093
69	0xbd2d8391	-0.0423618
70	0xbd0d4826	-0.034492634
71	0xbcf9d5d2	-0.030497465
72	0xbcb89688	-0.022532716
73	0xbc083a6f	-0.008314713
74	0x3b2ec961	0.0026670324
75	0x3c03303f	0.008007108
76	0x3ab51409	0.0013815175
77	0xbc26b43a	-0.010174805
78	0xbc8d7488	-0.01726748
79	0xbcc73442	-0.02431691
80	0xbd34d5d1	-0.044149224
81	0xbc812074	-0.015762545
82	0x3dfbf582	0.12302686
83	0xbdebf757	-0.11521786
84	0x3cf4f93e	0.029904004
85	0xbf17c9ae	-0.59292114
86	0x3c804865	0.01565952
87	0xbc1a449b	-0.009415771
88	0x3aebe2e3	0.0017996695
89	0x3cc565b1	0.024096342
90	0x3d2b07ca	0.041755475
91	0x3d6bad0d	0.05753808
92	0x3d5a62fc	0.053317055
93	0x3d25ae24	0.040449277
94	0x3d32e2bc	0.043673262
95	0x3d978032	0.07397498
96	0x3dd99d42	0.10625698
97	0x3dfaeebe	0.12252568
98	0x3db81d42	0.089899555
99	0x3d23db97	0.04000434
100	0x3c22aeae	0.009929342
101	0x3c19d0fe	0.0093882065
102	0x3d663e45	0.05621173
103	0x3e3566c3	0.17714982
104	0xbc81ef1c	-0.015861087
105	0x3dbc45f1	0.09193028
106	0xbecdc758	-0.4019115
107	0x3ddbe3e9	0.1073683
108	0x3da29289	0.079381056
109	0x3d6dd103	0.058060657
110	0x3d2ba24b	0.04190282
111	0x3cee3770	0.029079169
112	0x3cdbead9	0.026845383
113	0x3d08b3d9	0.03337464
114	0x3d2a575d	0.041587222
115	0x3d4dec19	0.05027399
116	0x3d6cb897	0.057793226
117	0x3d6bc664	0.057562247
118	0x3d2657be	0.04061102
119	0x3c2c1ec9	0.010505387
120	0xbbc1cb2c	-0.0059141126
121	0xbc7cfc7c	-0.015441056
122	0xbd192f4f	-0.037398633
123	0xbd56c79f	-0.052436467
124	0xbd26759a	-0.040639497
125	0xbd857342	-0.06516124
126	0x3cff1843	0.031139499
127	0xbeb598f6	-0.35468262
128	0xbd8af82c	-0.06785616
129	0xbd216595	-0.039403517
130	0xbcecc1c9	-0.028900998
131	0xbcdf933d	-0.027291888
132	0xbcbed9cc	-0.023297213
133	0xbcb83c2b	-0.022489628
134	0xbcb27a27	-0.021786762
135	0xbc93e080	-0.018051386
136	0xbc4d67e7	-0.012536979
137	0xbc3cb06c	-0.011516672
138	0xbc88cd5e	-0.01669949
139	0xbcddea26	-0.02708919
140	0xbd1d51bd	-0.03840803
141	0xbd226fb1	-0.0396573
142	0xbd275870	-0.040855825
143	0xbd734e6f	-0.059400972
144	0xbd231fd6	-0.039825283
145	0x3da81848	0.08207756
146	0xbcd9a1ef	-0.026566474
147	0x3e097509	0.13423552
148	0x3ea4720a	0.32118255
149	0x3c90c811	0.017673524
150	0xbbca339e	-0.006170704
151	0xbc662b06	-0.0140483435
152	0xbc9092f9	-0.017648207
153	0xbcc4bf4d	-0.024017
154	0xbcee0396	-0.029054444
155	0xbce569d3	-0.028004562
156	0xbcffee1c	-0.03124147
157	0xbd228686	-0.039679073
158	0xbd301837	-0.042991843
159	0xbd334b46	-0.04377296
160	0xbd2cadfa	-0.042158104
161	0xbd2cd5a2	-0.042195924
162	0xbd59bb78	-0.0531573
163	0xbd7ab38f	-0.061206397
164	0xbd444935	-0.04792138
165	0xbd92a37d	-0.07160089
166	0xbe486ee5	-0.19573553
167	0x3def6702	0.11689569
168	0x3dfade36	0.122494146
169	0x3e93a963	0.2884017
170	0x3c0c1fcd	0.008552504
171	0xbc8a45b7	-0.016878946
172	0xbcd3d273	-0.025857186
173	0xbcf6c301	-0.030122282
174	0xbd1a807b	-0.037720185
175	0xbd32a4eb	-0.04361431
176	0xbd33ca7e	-0.043894283
177	0xbd41b373	-0.047290277
178	0xbd64b068	-0.055832297
179	0xbd7260c0	-0.0591743
180	0xbd78cfcf	-0.060745057
181	0xbd7723e9	-0.06033698
182	0xbd771af5	-0.060328443
183	0xbd925cc9	-0.071466036
184	0xbda344a4	-0.079720765
185	0xbd89c18a	-0.06726368
186	0xbdb796aa	-0.08964284
187	0xbe5ad24b	-0.21369283
188	0x3d9b46db	0.07581874
189	0x3dea028c	0.11426267
190	0x3e87288d	0.26398125
191	0x3b42de7f	0.0029734669
192	0xbcb32489	-0.021868007
193	0xbd015558	-0.03157553
194	0xbd12ce49	-0.03584126
195	0xbd339cbe	-0.043850653
196	0xbd4a29b0	-0.049356163
197	0xbd4f2f5d	-0.05058228
198	0xbd58d00a	-0.052932777
199	0xbd7da141	-0.06192136
200	0xbd866be5	-0.06563548
201	0xbd893dc4	-0.06701234
202	0xbd8a49cf	-0.06752359
203	0xbd8f245c	-0.06989357
204	0xbda85253	-0.08218827
205	0xbdba1e06	-0.09087758
206	0xbda1492c	-0.078752846
207	0xbdcf9581	-0.101359375
208	0xbe671c1e	-0.2256932
209	0x3d8114f5	0.06302825
210	0x3cdab3a5	0.02669699
211	0xbf12aa69	-0.57291275
212	0x3dc1409b	0.09436151
213	0x3d405c9a	0.04696331
214	0x3d022e02	0.031782158
215	0x3cc608b6	0.024174076
216	0x3c8b8839	0.01703273
217	0x3cac68ee	0.021046128
218	0x3ccd6473	0.025072312
219	0x3cdd50df	0.027016101
220	0x3d4e2782	0.050330646
221	0x3db7c65b	0.0897338
222	0x3df4dc1f	0.11956047
223	0x3dff9a2c	0.12480578
224	0x3da09a33	0.07841911
225	0x3c715d61	0.014731736
226	0xbccf9c3e	-0.025343057
227	0xbd1eb449	-0.038746152
228	0xbb79b657	-0.0038103068
229	0x3dc31db9	0.095271535
230	0xbbe2efdf	-0.0069255675
231	0xbd02f1b3	-0.031968784
232	0xbeb2c695	-0.3491713
233	0xbe080a82	-0.13285258
234	0xbdc1c7d6	-0.09461944
235	0xbd961fb1	-0.073302634
236	0xbd80b6cc	-0.06284866
237	0xbd55663f	-0.052099463
238	0xbd46d562	-0.04854334
239	0xbd42a304	-0.047518745
240	0xbd284b48	-0.04108742
241	0xbceec7e0	-0.029148042
242	0xbca51763	-0.020152753
243	0xbc86b989	-0.016445892
244	0xbc91176b	-0.017711362
245	0xbcab1707	-0.020885004
246	0xbc8e37ba	-0.017360557
247	0xbc6c9c92	-0.014441626
248	0xbced1924	-0.028942652
249	0x3b449c1c	0.0030000275
250	0x3e1180bf	0.14209269
251	0xbe11e46f	-0.14247297
252	0x3d3e0a38	0.046396464
253	0xbf0006d3	-0.5001041
254	0x3d6570d3	0.0560158
255	0x3cf6d14c	0.030129097

bias f4 [16]
0	0xbc8e896c	-0.017399512
1	0xbcacfaba	-0.02111565
2	0xbbdb6c2d	-0.006696245
3	0x3e1b2aa5	0.15152986
4	0x3c91b43b	0.017786136
5	0xbd95dcbb	-0.073174916
6	0x3e31fb7b	0.17381088
7	0x3ba0dd52	0.004909196
8	0xbbafc347	-0.005363855
9	0xbbc8c01f	-0.0061264182
10	0x3ce43088	0.027855173
11	0x3db43dec	0.08800873
12	0xbcc584ed	-0.024111236
13	0xbc996942	-0.018726949
14	0xbcac3ae3	-0.021024173
15	0xbbc6c4f1	-0.0060659577
